Exported_models/Soft_update_0.999_2_2000.pth (torch, 41119 bytes, 6 tensors)

layer1.weight f4 [128, 8]
-0.6445571 0.0067417263 0.56922126 -0.3100748 -0.15223573 0.2238297 -1.4805659 -0.05935296
0.32521737 -0.24179737 1.0727756 -0.22397004 0.17116217 0.7121827 -0.47340307 -0.3640016
-0.038916543 0.16216372 -0.6901355 -0.7377666 -0.24399588 -0.38310695 -0.13838427 -0.37640706
0.5204662 -0.050023984 -0.6094078 0.27385893 0.21460816 -0.31848934 -0.3483686 0.42428863
1.473768 0.077578895 1.1157695 -0.16046138 -0.1521571 0.70791596 -0.010676475 0.36829823
-0.012294028 0.2238367 0.056230154 -0.029861184 -0.01285003 0.21629754 -0.51665384 -0.5551384
-0.07698167 0.40518576 -0.12037106 0.24331164 0.06604836 -0.040441476 0.47324356 0.20630787
-0.9347051 -0.028806312 -0.5925015 0.08559552 0.91900986 0.8101236 0.31528586 -0.80072266
-1.1585091 0.042115476 -0.9768522 -0.07359924 0.069964714 -0.03728307 0.22694673 0.47820812
0.4926217 -0.21419077 0.9484489 -0.65720356 -1.013126 -0.35386613 -0.17459455 -0.17619327
-1.1028838 0.04766625 -0.7946988 -0.052014254 0.04890388 0.027328966 0.46309793 -0.43312505
-0.7523701 -0.32479015 -0.48073646 -1.220411 0.15268718 1.1931752 -0.2939976 -0.25777864
0.020050434 0.37471688 -0.06517265 0.20835939 0.06550988 -0.027692936 0.36692113 0.14174552
-0.5273071 -0.25596926 -0.4357845 -0.80585957 0.75473624 0.064744286 0.033172686 0.057209756
-0.06857907 0.39040893 -0.10656675 0.22437443 0.06627726 -0.040413022 0.4512155 0.1808465
0.10539607 0.29936117 0.044165947 0.14056332 0.011964221 0.0056784274 0.13497928 0.06307789
-0.010723 0.24967179 0.2125556 0.048524346 -0.04401508 -0.15241644 -0.11887192 -0.25478283
0.354761 -0.30893692 0.52443475 -1.1789342 -1.0373409 -0.8335707 0.041913666 -0.037442606
1.3442141 0.068724 1.1382151 -0.11981003 -0.1376036 0.6603762 -0.084348835 0.3887118
0.01588487 -0.028051954 -0.1656899 0.81022424 0.03881711 0.11317751 0.45358613 0.3306962
0.061830074 0.17921923 0.144688 0.2838154 -0.008120297 -0.089242145 -0.08062469 0.07716295
0.15474784 0.1544594 0.17446272 0.2160932 -0.0401174 -0.036852755 -0.18294261 0.088860296
0.02951372 0.3001054 -0.019281108 0.18927418 0.025589574 -0.0109272385 0.33648157 0.1698151
-0.6764578 0.052130286 0.75391316 -0.45982113 -0.17562324 0.17294872 -0.50266045 0.26324746
0.14397857 0.2306912 0.29475078 0.118756436 -0.017914027 -0.18939723 -0.044014674 -0.31224602
-0.14583978 -0.017889606 0.11876927 1.3036081 -0.059960365 0.23638545 0.1447969 -0.5285194
1.3241006 0.06273356 1.0939996 0.015520956 -0.030861927 0.3578666 -0.09684684 0.60520893
-0.9235544 0.005745034 -0.94622517 -0.036056984 -0.06561488 -0.30972466 -0.18673979 0.57924336
0.38230538 -0.25594157 0.48227826 0.2603533 1.0468243 1.0527748 0.14968026 -0.36062995
-0.054128025 0.3945821 -0.10497365 0.24747851 0.06340471 -0.03207963 0.4834232 0.19034083
-0.9727604 0.038363744 -0.84300035 -0.035586845 0.035851292 0.11545208 0.6815748 -0.37001634
0.36155874 -0.29218024 0.8465492 -0.9035136 -1.0704391 -0.4040798 -0.113423385 -0.07509115
00000000: b201 25bf b3e9 dc3b 7cb8 113f 20c2 9ebe
00000010: afe3 1bbe 9d33 653e 2f83 bdbf 171c 73bd
00000020: e482 a63e bb99 77be b650 893f 6758 65be
00000030: 2345 2f3e 9b51 363f e361 f2be 6b5e babe
00000040: f466 1fbd 3f0e 263e b8ac 30bf 46de 3cbf
00000050: 0eda 79be 9826 c4be 9bb4 0dbe 6db8 c0be
00000060: 463d 053f f3e5 4cbd 2602 1cbf 3d37 8c3e
00000070: 3ec2 5b3e 0911 a3be 5e5d b2be 5c3c d93e
00000080: 6ea4 bc3f afe1 9e3d 89d1 8e3f fd4f 24be
00000090: 12cf 1bbe fb39 353f 62ec 2ebc 9691 bc3e
000000a0: e46c 49bc 7335 653e 9751 663d 719f f4bc
000000b0: ef88 52bc 1a7d 5d3e 6d43 04bf 8d1d 0ebf
000000c0: 91a8 9dbd 8274 cf3e 1a85 f6bd b026 793e
000000d0: 5d44 873d f6a5 25bd fb4c f23e 5f42 533e
000000e0: d548 6fbf 37fb ebbc 2eae 17bf b44c af3d
000000f0: 3b44 6b3f 4364 4f3f 266d a13e 29fc 4cbf
00000100: 074a 94bf 4781 2c3d fc12 7abf 33bb 96bd
00000110: a949 8f3d 22b6 18bd b964 683e b2d7 f43e
00000120: e938 fc3e d354 5bbe 8ccd 723f 7e3e 28bf
00000130: 1dae 81bf f12d b5be eac8 32be 026c 34be
00000140: 4c2b 8dbf b03d 433d 6171 4bbf e60c 55bd
00000150: 6f4f 483d ffe0 df3c 2c1b ed3e 91c2 ddbe
00000160: 549b 40bf e54a a6be 1723 f6be 6d36 9cbf
00000170: 075a 1c3e f7b9 983f da86 96be 90fb 83be
00000180: cf40 a43c e4da bf3e 3d79 85bd 2a5c 553e
00000190: 0b2a 863d 4cdc e2bc 16dd bb3e bd25 113e
000001a0: 99fd 06bf 670e 83be 251f dfbe d04c 4ebf
000001b0: 6536 413f a798 843d 15e0 073d c754 6a3d
000001c0: 2f73 8cbd aee3 c73e ab3f dabd 69c2 653e
000001d0: 5fbc 873d 2088 25bd b805 e73e d32f 393e
000001e0: e5d9 d73d de45 993e 5ae7 343d d5ef 0f3e
000001f0: 9405 443c 1a12 ba3b 0238 0a3e fb2e 813d
00000200: 86af 2fbc f6a9 7f3e 2da8 593e 77c1 463d
00000210: 2849 34bd 0e13 1cbe 1f73 f3bd e572 82be
00000220: 3ca3 b53e fb2c 9ebe 5b41 063f 51e7 96bf
00000230: 96c7 84bf e464 55bf aaad 2b3d 6b5d 19bd
00000240: 350f ac3f 2bbf 8c3d 08b1 913f f65e f5bd
00000250: f5e7 0cbe 6a0e 293f 15bf acbd 3c05 c73e
00000260: fd20 823c 36cd e5bc 9daa 29be db6a 4f3f
00000270: b1fe 1e3d 9cc9 e73d 713c e83e 0351 a93e
00000280: 8841 7d3d 3f85 373e 1729 143e 4150 913e
00000290: ff0a 05bc 96c4 b6bd 8f1e a5bd 9c07 9e3d
000002a0: 3876 1e3e 9b2a 1e3e 5ba6 323e 8947 5d3e
000002b0: 2552 24bd eaf2 16bd 4f55 3bbe 63fc b53d
000002c0: c2c6 f13c 6aa7 993e 6af3 9dbc 17d1 413e
000002d0: 3aa1 d13c 2908 33bc 5047 ac3e 02e4 2d3e
000002e0: 572c 2dbf 9186 553d 7400 413f ad6d ebbe
000002f0: 94d6 33be 7819 313e 5bae 00bf 5fc8 863e
00000300: 1e6f 133e 503a 6c3e 93e9 963e 9336 f33d
00000310: 70c0 92bc 59f1 41be bb48 34bd b6de 9fbe
00000320: 0657 15be 398d 92bc 4e3d f33d a1dc a63f
00000330: 0099 75bd 070f 723e a345 143e 0c4d 07bf
00000340: 217c a93f 747a 803d 2e08 8c3f 9c4b 7e3c
00000350: 27d2 fcbc 4a3a b73e a357 c6bd f9ee 1a3f
00000360: 106e 6cbf d740 bc3b d03b 72bf 7db0 13bd
00000370: 1861 86bd 3b94 9ebe b738 3fbe 4b49 143f
00000380: 88bd c33e c60a 83be 2ded f63e 074d 853e
00000390: 57fe 853f 53c1 863f c845 193e 7da4 b8be
000003a0: 59b5 5dbd aa06 ca3e 6dfc d6bd 026b 7d3e
000003b0: 54da 813d ee65 03bd 3f83 f73e b5e8 423e
000003c0: d306 79bf 4d23 1d3d dfce 57bf 83c3 11bd
000003d0: ced8 123d 2472 ec3d b07b 2e3f c872 bdbe
000003e0: 3a1e b93e a698 95be 73b7 583f ab4c 67bf
000003f0: 2604 89bf 8ce3 cebe 854a e8bd 64c9 99bd

layer1.bias f4 [128]
0.5453821 0.15393257 -0.2014962 0.271067 -1.1487975 0.5893932 0.62649435 0.007792506
-0.9689085 -0.11347717 -1.0921296 0.6929013 0.6326996 -0.28374726 0.62216026 0.6475977
0.738091 -0.4745432 -1.0481774 0.28171077 0.7868282 0.78483546 0.5947939 0.12501039
0.780823 0.25466138 -1.1657524 -0.61942405 0.20470437 0.6373002 -0.9426278 -0.331252
0.6318138 -0.32826507 -0.8807268 -0.52550894 0.71683896 0.6410489 0.6343685 0.18274571
0.6897797 0.57788587 -0.30650982 -0.9836625 -0.63103294 0.57628053 0.7399151 -0.055833586
-0.035065293 -0.20408902 0.5942901 0.6834918 0.24904828 0.6252494 0.7940501 -0.092383966
0.15629597 0.7758081 0.6191797 -0.9131164 -0.7875697 0.56930035 0.40225214 0.61363924
0.15317313 0.78791976 0.4871066 -0.17318176 1.0735761 -0.3789101 -0.10217301 -0.117911614
0.29163614 0.6372251 -1.3502258 0.19436212 -0.32416114 -0.18385835 0.6275761 0.15180854
0.77068067 0.6186131 -1.1290901 -0.45115763 1.0773944 0.75433576 0.50351214 0.58236974
0.64522475 0.76068336 0.10581817 -0.31565142 0.51085687 0.7652586 0.1260329 0.7934073
-0.006365619 0.35098472 0.6200465 -0.44775736 -0.5392251 0.65992445 0.6360937 0.025504394
-0.14047213 0.7406834 0.7173197 0.6471361 -0.5432807 -0.75436366 -0.15165545 -0.027390707
0.6181778 0.16580276 0.06477204 0.5688021 0.64104176 -0.18065494 0.057741333 0.79107374
0.73769367 0.89500314 -1.3970844 -0.43293408 0.64043057 -1.2283269 -0.33442014 0.5757823
00000000: 299e 0b3f 80a0 1d3e 0555 4ebe 4bc9 8a3e
00000010: cc0b 93bf 79e2 163f ef61 203f 4758 ff3b
00000020: 630a 78bf b866 e8bd e7ca 8bbf fb61 313f
00000030: 9af8 213f 5247 91be e545 1f3f f6c8 253f
00000040: 88f3 3c3f 54f7 f2be ad2a 86bf 653c 903e
00000050: 936d 493f faea 483f 6a44 183f b902 003e
00000060: 04e4 473f fa62 823e 6037 95bf 9392 1ebf
00000070: 069e 513e 1b26 233f 0e50 71bf dd99 a9be
00000080: 8dbe 213f 5c12 a8be 5077 61bf c187 06bf
00000090: c282 373f c81b 243f f965 223f b121 3b3e
000000a0: 6795 303f 54f0 133f dbee 9cbe 4ed1 7bbf
000000b0: 608b 21bf 1f87 133f 136b 3d3f c2b1 64bd
000000c0: a0a0 0fbd b6fc 50be 6523 183f 52f9 2e3f
000000d0: 8306 7f3e 5810 203f de46 4b3f ce33 bdbd
000000e0: 0d0c 203e 5c9b 463f 9082 1e3f ffc1 69bf
000000f0: 2b9e 49bf abbd 113f fef3 cd3e 7617 1d3f
00000100: 6bd9 1c3e 1cb5 493f 0966 f93e 8f56 31be
00000110: f16a 893f 8100 c2be 1540 d1bd a57b f1bd
00000120: 5551 953e 2f21 233f 33d4 acbf dd06 473e
00000130: 73f8 a5be 5d45 3cbe d4a8 203f b373 1b3e
00000140: 544b 453f 6e5d 1e3f 0686 90bf 22fe e6be
00000150: 0fe8 893f 261c 413f 2ce6 003f 2f16 153f
00000160: 732d 253f 25bc 423f 32b7 d83d 109d a1be
00000170: 84c7 023f fde7 433f c50e 013e be1c 4b3f
00000180: af96 d0bb 45b4 b33e 5ebb 1e3f 7440 e5be
00000190: a80a 0abf cff0 283f 09d7 223f 97ee d03c
000001a0: edd7 0fbe 6d9d 3d3f 44a2 373f b6aa 253f
000001b0: 7214 0bbf fa1d 41bf 914b 1bbe 7a62 e0bc
000001c0: e640 1e3f 33c8 293e 34a7 843d 049d 113f
000001d0: 501b 243f 9cfd 38be 2d82 6c3d cf83 4a3f
000001e0: 7ed9 3c3f ed1e 653f a9d3 b2bf 89a9 ddbe
000001f0: 42f3 233f d139 9dbf 1e39 abbe 7866 133f

layer2.weight f4 [64, 128]
1.0811155 2.0876667 0.45895004 0.70675415 -2.3865294 0.41887343 0.36823165 -1.3149083
-1.9978342 0.3288861 -1.8765796 0.23984583 0.37573704 -1.241841 0.37040523 0.3686651
0.4076737 0.33269712 -2.0695703 0.5825087 0.36245692 0.36419395 0.34007302 1.3362923
0.40989426 0.6550486 -1.8666803 -1.3302087 0.50725806 0.36436075 -1.3035372 0.29295155
0.36652842 -1.0985152 -0.71119845 0.31054175 0.39046445 0.37217167 0.37174237 0.6575291
-1.4750602 0.356593 -0.80651784 -1.5370035 0.47751877 0.43482605 0.33619666 0.26655194
-1.5615903 0.682486 0.34144 0.3823347 -1.6704708 0.36935997 0.41229725 0.88249755
-1.1321378 0.62885046 0.37240604 -1.4238156 -1.127711 -1.9837062 0.08246785 0.38260347
0.71172637 0.4187993 0.5196273 0.48804703 0.54880655 0.46946326 0.95567036 1.3825064
0.7899251 0.36855245 -2.3893607 0.99441147 -2.434875 -0.46839705 0.37317228 0.7963304
0.4063033 0.36693057 -1.9689176 -0.93707234 0.34885287 0.42558166 0.4652812 0.40457952
0.39123428 0.42548108 -0.38384777 0.43223113 0.2457009 0.4195103 1.0690633 0.41205278
0.59816587 0.37055838 0.38592923 -0.96274984 -0.21269594 0.37488204 0.3732019 -0.47815552
-2.3036494 0.4122914 0.38033253 0.37436515 -0.5156875 0.70628124 -1.3346747 1.2853152
0.50863403 0.66021055 0.5236338 0.33845896 0.37210768 0.32473207 0.42848256 0.4131751
0.43245727 0.46996883 -2.3097775 -0.4225975 0.31671152 -1.8654674 -1.7825291 0.35630506
-0.88179183 -1.327633 0.23808832 -0.5303937 1.34157 -0.025657816 0.16353054 1.0918121
1.2562928 -1.0936353 1.425202 0.9048723 0.15229765 0.310045 0.17169976 0.06303799
-0.24256955 -1.3235931 1.2643582 -0.29852313 -0.13946337 -0.09695787 0.06241098 -0.7408982
-0.21350795 -0.5970284 1.3136517 0.62240684 -0.10303726 0.15405002 1.1755242 -0.9209703
0.12972647 -0.2328677 0.6923088 0.14868136 -0.07782299 0.15299077 0.16930452 -0.49969208
-0.44104353 0.00750295 -0.014450233 1.2986158 0.2275507 -0.070201434 -0.06234922 0.11880245
0.6392772 0.12148714 0.1504605 -0.018991007 0.5246667 0.17361397 -0.2553516 -0.20538996
0.82213944 -0.6638707 0.1915086 0.8979911 0.982267 1.0599219 -1.8095938 0.12608974
0.5036334 -0.24225694 0.16712841 -0.5372766 -1.106689 -0.5440256 -0.14683793 -0.2850078
-0.45983166 0.100572884 1.6027395 0.5001364 -0.91334784 -0.13962969 0.17609386 -1.311356
-0.2507923 0.17725009 1.5463384 1.1916581 -0.76239896 -0.25841746 0.019785771 -0.029006874
0.081368394 -0.18608038 0.2031456 -0.21281068 0.028612537 -0.1479514 0.39910486 -0.27710715
0.08583559 -0.0032849873 0.14854409 0.22635265 0.23166655 0.024359172 0.15119368 0.057204857
-0.103265844 -0.23063885 0.016222911 0.14176886 0.72992617 -0.83563614 0.39856085 -0.1741107
-0.14781892 -0.55152285 -0.039304074 0.17950165 0.14136375 0.14530167 0.17736611 -0.2809396
0.09298841 -0.9430921 1.568354 -1.2610023 -0.0913467 1.3934265 1.3812037 0.20202886
00000000: fe61 8a3f 559c 0540 80fb ea3e d7ed 343f
00000010: e6bc 18c0 9476 d63e dc88 bc3e ea4e a8bf
00000020: 08b9 ffbf c263 a83e c333 f0bf 259a 753e
00000030: 9b60 c03e a5f4 9ebf c1a5 bd3e acc1 bc3e
00000040: 9bba d03e 4757 aa3e d773 04c0 4a1f 153f
00000050: f493 b93e a177 ba3e 0d1e ae3e a00b ab3f
00000060: a9dd d13e 44b1 273f 61ef eebf 4744 aabf
00000070: aadb 013f 7e8d ba3e 4fda a6bf bffd 953e
00000080: 9da9 bb3e 259c 8cbf 1a11 36bf 54ff 9e3e
00000090: f5ea c73e 498d be3e 0455 be3e d453 283f
000000a0: c6ce bcbf 5c93 b63e f477 4ebf 88bc c4bf
000000b0: 577d f43e 85a1 de3e f821 ac3e 7f79 883e
000000c0: 31e2 c7bf 67b7 2e3f 39d1 ae3e 60c1 c33e
000000d0: fdd1 d5bf c01c bd3e a018 d33e 5ceb 613f
000000e0: e4e9 90bf 58fc 203f 01ac be3e 973f b6bf
000000f0: d658 90bf 16ea fdbf e7e4 a83d 9ae4 c33e
00000100: b333 363f dd6c d63e 4b06 053f 4de1 f93e
00000110: 967e 0c3f 7d5d f03e d0a6 743f f8f5 b03f
00000120: 8838 4a3f e8b2 bc3e 49eb 18c0 c091 7e3f
00000130: fed4 1bc0 bdd1 efbe 7010 bf3e 4fdc 4b3f
00000140: fc06 d03e 53de bb3e 7e05 fcbf f9e3 6fbf
00000150: d89c b23e d7e5 d93e 5639 ee3e 0c25 cf3e
00000160: dc4f c83e a8d8 d93e b287 c4be 664d dd3e
00000170: 0499 7b3e 0eca d63e 11d7 883f 95f8 d23e
00000180: 6621 193f d4b9 bd3e 8498 c53e c676 76bf
00000190: f7cc 59be 8af0 bf3e 5214 bf3e cdd0 f4be
000001a0: fe6e 13c0 dc17 d33e f2ba c23e caac bf3e
000001b0: 1904 04bf d9ce 343f 9fd6 aabf 3585 a43f
000001c0: d735 023f 8f03 293f dd0c 063f 7e4a ad3e
000001d0: e684 be3e 4843 a63e 1162 db3e b08b d33e
000001e0: 0a6b dd3e c19f f03e 65d3 13c0 b35e d8be
000001f0: 0328 a23e a3c7 eebf ea29 e4bf 9e6d b63e
00000200: 1cbd 61bf e1ef a9bf 6dcd 733e e2c7 07bf
00000210: 91b8 ab3f 5730 d2bc 8d74 273e 80c0 8b3f
00000220: 34ce a03f 3efc 8bbf 056d b63f b6a5 673f
00000230: eaf3 1b3e 38be 9e3e 10d2 2f3e 101a 813d
00000240: 2764 78be 806b a9bf 7dd6 a13f 06d8 98be
00000250: 7ccf 0ebe d991 c6bd a8a2 7f3d 81ab 3dbf
00000260: d4a1 5abe dad6 18bf bd25 a83f 0e56 1f3f
00000270: 3305 d3bd 4abf 1d3e 9477 963f b6c4 6bbf
00000280: 04d7 043e df74 6ebe 263b 313f ed3f 183e
00000290: a961 9fbd 9da9 1c3e 2a5e 2d3e a4d7 ffbe
000002a0: 75d0 e1be 4edb f53b acc0 6cbc 0b39 a63f
000002b0: 0d03 693e c5c5 8fbd e561 7fbd b34e f33d
000002c0: aca7 233f 40ce f83d 5112 1a3e 0793 9bbc
000002d0: 8f50 063f dcc7 313e 72bd 82be bf51 52be
000002e0: bb77 523f 6ef3 29bf d51a 443e bfe2 653f
000002f0: da75 7b3f 85ab 873f c5a0 e7bf ab1d 013e
00000300: 1eee 003f 3412 78be b623 2b3e f68a 09bf
00000310: fca7 8dbf 4345 0bbf af5c 16be 8bec 91be
00000320: 0e6f ebbe 28f9 cd3d 9126 cd3f f008 003f
00000330: 2ad1 69bf 16fb 0ebe f351 343e 83da a7bf
00000340: d967 80be 0c81 353e 6bee c53f 4188 983f
00000350: 942c 43bf 4b4f 84be c515 a23c d39f edbc
00000360: 79a4 a63d db8b 3ebe 6605 503e 0beb 59be
00000370: d764 ea3c 9280 17be 7957 cc3e fde0 8dbe
00000380: 92ca af3d f148 57bb f11b 183e fdc8 673e
00000390: ff39 6d3e e38c c73c 84d2 1a3e a44f 6a3d
000003a0: 0b7d d3bd 972c 6cbe e9e5 843c db2b 113e
000003b0: 71dc 3a3f 40ec 55bf 2b10 cc3e 134a 32be
000003c0: d85d 17be 9a30 0dbf 4ffd 20bd 48cf 373e
000003d0: a9c1 103e f6c9 143e 769f 353e 51d7 8fbe
000003e0: b570 be3d 7c6e 71bf d3bf c83f 8668 a1bf
000003f0: fb13 bbbd cd5b b23f 48cb b03f a7e0 4e3e

layer2.bias f4 [64]
0.8679386 -0.5070317 0.1798303 0.7599846 -0.43467796 -0.00036264813 0.810151 -0.42441595
-0.86651933 0.5878262 -0.49430236 0.015371569 0.17597441 0.881379 -0.6708913 0.7489562
0.8877204 -0.00040770232 -0.00030055008 -0.05460461 0.83555657 -0.63398534 -0.35869038 0.96850705
0.00044766217 -0.0009304604 -0.00031421275 0.12628898 -0.000415751 0.82282186 -0.015210708 -0.0009462615
-0.7844361 0.82895786 0.8130221 -0.561446 -0.010276274 -0.00086180127 0.8413924 0.77523345
6.0997067e-05 -0.00029623185 0.87602353 0.8173922 5.774265e-05 0.86269724 -0.59004587 0.8144295
-0.092478774 -0.00021617881 0.5152735 0.106763884 -0.00017288237 -0.43347844 0.72926944 0.3039215
-0.33222008 -0.00064392993 0.7347787 -0.00053198414 -0.11892147 -0.30957758 0.39732218 -0.0029352056
00000000: 3931 5e3f d4cc 01bf 6f25 383e 5a8e 423f
00000010: 1c8e debe cf21 beb9 0e66 4f3f 0c4d d9be
00000020: 36d4 5dbf c77b 163f 3315 fdbe 09d9 7b3c
00000030: a332 343e 0ea2 613f 88bf 2bbf 98bb 3f3f
00000040: a541 633f e1c0 d5b9 2693 9db9 15a9 5fbd
00000050: 09e7 553f dd4c 22bf 44a6 b7be 14f0 773f
00000060: 33b4 ea39 24ea 73ba ecbc a4b9 e651 013e
00000070: 28f9 d9b9 74a4 523f 5536 79bc 890e 78ba
00000080: ced0 48bf 9536 543f 3722 503f edba 0fbf
00000090: d15d 28bc 81ea 61ba 7e65 573f b375 463f
000000a0: 1ad7 7f38 914f 9bb9 1443 603f 9d40 513f
000000b0: b330 7238 bad9 5c3f 3f0d 17bf 747e 503f
000000c0: 8365 bdbd 0fae 62b9 f7e8 033f 06a7 da3d
000000d0: c247 35b9 e3f0 ddbe 67b1 3a3f 999b 9b3e
000000e0: c018 aabe 68cd 28ba 751a 3c3f da74 0bba
000000f0: 1a8d f3bd f480 9ebe d06d cb3e 945c 40bb

layer3.weight f4 [4, 64]
0.71355253 -0.93657213 -0.46512607 0.82454115 -1.0194964 0.00016127525 0.8745704 -1.153789
-1.1523193 1.026973 -0.7729212 0.9023541 0.43652633 0.77655685 -1.1386251 0.89831036
0.74873686 -0.0004666278 -0.00043464548 0.7585369 0.8635643 -1.3537637 -0.9660485 0.7174823
0.0032839237 9.7191696e-05 0.00044973244 -1.0623584 -0.00017397462 0.82591665 -0.014724757 -0.0006307132
-1.2463251 0.84612423 0.88948315 -1.0249251 -1.3001428 0.00029286474 0.7617428 0.86008525
-0.00048234517 -0.000108367414 1.5063013 0.7904021 -8.622483e-05 0.20638072 -0.8338427 0.7988973
-1.1859324 -5.328457e-05 1.0701323 -1.1320097 3.755738e-05 -0.99283135 0.86389434 -0.8947991
-0.63134897 0.0005199849 0.84791166 -0.00014842967 -1.4149504 -0.62765706 -0.8158625 -0.013937154
0.7706169 -1.0024072 -0.30224684 0.8043252 -0.79809755 -0.00026376074 0.9423489 -1.1042575
-0.68273735 0.8524028 -0.6097542 1.1097475 0.35181236 0.8112756 -1.2462486 0.88347757
0.7817397 -0.0005644683 0.00048804743 0.48961502 0.80591244 -1.1923401 -0.46066427 0.68013805
-0.0010707709 0.0006219153 7.07214e-05 -0.78550714 -8.213223e-05 0.8032175 -0.00032199855 0.00042366923
-1.3666006 0.82876897 0.83903986 -0.52248996 -1.1286811 -0.00017899123 0.8117349 0.8367416
-0.000265155 0.00022733511 1.6018901 0.81310165 -3.5409044e-05 0.59507906 -0.61927325 0.8176297
-1.0903771 -0.00013068371 0.80981153 -1.4534526 -0.0003733159 -0.9695072 0.8656346 -1.1010736
-0.8032036 -0.00020512549 0.84056354 -0.0003012698 -1.3504015 -0.9697248 -1.8017843 -0.007229352
0.7882369 -1.4120542 -1.3953363 0.80704904 -0.96472204 -0.00048222806 0.87632054 -0.8762529
-1.4999413 1.0366306 -0.571754 0.12194116 0.3818303 0.84240603 -1.2522509 0.82670856
0.8267949 0.00014701128 0.00036357946 0.90444255 0.885855 -0.8094929 -0.6161853 0.91983396
-0.002962145 -0.000279605 -0.00034995662 -0.06515885 -0.00010573528 0.85823923 8.921098e-05 -0.00052403996
-1.3765038 0.88578326 0.8803162 -1.0233502 -0.9909667 -0.00053755345 0.8107309 0.81453836
0.00036785658 0.00040759816 1.721747 0.81726915 0.00013132197 1.2038997 -1.3393811 0.81813115
-1.0860006 0.00016975318 0.6007413 -1.7538965 0.00046628845 -0.90431666 0.7875688 -1.5974045
-0.74097085 0.00058159314 0.782168 -0.00010746048 -1.2378031 -1.5044733 -1.9591622 0.05334045
0.749039 -0.6484956 -1.5775393 0.838087 -0.9673699 -0.0006692029 0.89936244 -1.0042611
-1.2425361 1.2669754 -1.0297445 0.044757526 -1.3862948 0.78977627 -0.9418272 0.8782334
0.7718476 -0.00012628657 0.00022766362 1.2719576 0.8658777 -0.96426034 -0.8862851 0.7797782
-0.0049772654 -2.8039922e-05 -0.00038802368 -1.0521938 0.00048603717 0.8345738 0.0004600054 -0.00010469707
-1.4808995 0.8375546 0.8796621 -0.95746 -1.5919288 -0.00027476734 0.7841738 0.8536925
0.0003010758 0.0003174515 1.2433856 0.7999941 -0.00011021721 0.64088356 -0.74669397 0.8035771
-1.2760891 1.3724294e-05 1.1399472 -1.0805622 4.3960506e-05 -1.027365 0.86380047 -0.9320235
-0.95895946 -7.0004385e-06 0.8506822 0.00016484979 -1.3754258 -0.7210808 -0.5112768 -0.06427869
00000000: 61ab 363f 31c3 6fbf 0125 eebe 2115 533f
00000010: dc7e 82bf ff1b 2939 d9e3 5f3f 5caf 93bf
00000020: 337f 93bf da73 833f 2ade 45bf ae00 673f
00000030: 6180 df3e 6ecc 463f 78be 91bf abf7 653f
00000040: 38ad 3f3f b9a5 f4b9 21e1 e3b9 792f 423f
00000050: 8d12 5d3f 2148 adbf f44e 77bf ecac 373f
00000060: 1937 573b 65d3 cb38 11ca eb39 5cfb 87bf
00000070: f56c 36b9 466f 533f 1b40 71bc 7256 25ba
00000080: 9587 9fbf 999b 583f 2bb5 633f bf30 83bf
00000090: 146b a6bf a48b 9939 9301 433f 8c2e 5c3f
000000a0: 46e3 fcb9 5043 e3b8 7bce c03f cb57 4a3f
000000b0: 9ad3 b4b8 7855 533e b776 55bf 8984 4c3f
000000c0: a2cc 97bf df7d 5fb8 18fa 883f b2e5 90bf
000000d0: ee86 1d38 322a 7ebf 2e28 5d3f 8e11 65bf
000000e0: 16a0 21bf 994f 083a bd10 593f c9a3 1bb9
000000f0: 181d b5bf 22ae 20bf 5ddc 50bf a958 64bc
00000100: 2647 453f e14e 80bf 19c0 9abe 42e8 4d3f
00000110: 1f50 4cbf 5e49 8ab9 c73d 713f 4f58 8dbf
00000120: e0c7 2ebf 1237 5a3f da18 1cbf 350c 8e3f
00000130: c020 b43e c2af 4f3f 1385 9fbf 962b 623f
00000140: 1820 483f d4f8 13ba 9ee0 ff39 d2ae fa3e
00000150: 4750 4e3f 9a9e 98bf 30dc ebbe 871d 2e3f
00000160: 1c59 8cba 0708 233a 4350 9438 ff16 49bf
00000170: 683e acb8 a99f 4d3f ead1 a8b9 ec1f de39
00000180: c5ec aebf 342a 543f 51cb 563f e7c1 05bf
00000190: 9f78 90bf 98af 3bb9 dccd 4f3f b334 563f
000001a0: 8004 8bb9 ce60 6e39 bc0a cd3f 6e27 503f
000001b0: 2c84 14b8 1a57 183f b188 1ebf 2e50 513f
000001c0: 7a91 8bbf 2408 09b9 cf4f 4f3f bc0a babf
000001d0: 9db9 c3b9 a031 78bf 3b9a 5d3f fbef 8cbf
000001e0: c09e 4dbf f416 57b9 2c2f 573f c0f3 9db9
000001f0: f5d9 acbf e23f 78bf dea0 e6bf 33e4 ecbb
00000200: e5c9 493f 31be b4bf 619a b2bf c49a 4e3f
00000210: 06f8 76bf 8ed3 fcb9 8b56 603f 1c52 60bf
00000220: 14fe bfbf 50b0 843f 785e 12bf 49bc f93d
00000230: 437f c33e eca7 573f c249 a0bf 2ca3 533f
00000240: d5a8 533f 0a27 1a39 cf9e be39 8c89 673f
00000250: 65c7 623f ed3a 4fbf 52be 1dbf 3d7a 6b3f
00000260: 8c20 42bb f397 92b9 627a b7b9 0172 85bd
00000270: 32be ddb8 91b5 5b3f c816 bb38 ba5f 09ba
00000280: 4731 b0bf b1c2 623f 675c 613f 24fd 82bf
00000290: feaf 7dbf 9aea 0cba 0f8c 4f3f 9685 503f
000002a0: e0dc c039 e6b2 d539 3562 dc3f 8d38 513f
000002b0: 79b3 0939 6319 9a3f d770 abbf 0b71 513f
000002c0: 1102 8bbf c6ff 3139 2fca 193f ae7f e0bf
000002d0: 2d78 f439 4c81 67bf 1c9e 493f c077 ccbf
000002e0: 44b0 3dbf 0e76 183a 293c 483f 685c e1b8
000002f0: 5570 9ebf 9592 c0bf d4c5 fabf 847b 5a3d
00000300: 05c1 3f3f cf03 26bf cfec c9bf df8c 563f
00000310: 8ea5 77bf 726d 2fba 9e3c 663f a18b 80bf
00000320: 6c0b 9fbf 402c a23f abce 83bf ab53 373d
00000330: 1c72 b1bf c72e 4a3f 961b 71bf e7d3 603f
00000340: ce97 453f cb6b 04b9 fdb8 6e39 82cf a23f
00000350: 29aa 5d3f c4d9 76bf 95e3 62bf 8b9f 473f
00000360: 5418 a3bb 4637 ebb7 a86f cbb9 49ae 86bf
00000370: ced2 fe39 a1a6 553f e12c f139 d090 dbb8
00000380: 1d8e bdbf fa69 563f 8931 613f 191c 75bf
00000390: 53c4 cbbf a60e 90b9 9dbf 483f 978b 5a3f
000003a0: b6d9 9d39 9e6f a639 4227 9f3f 6acc 4c3f
000003b0: 6a24 e7b8 f210 243f 5627 3fbf 3bb7 4d3f
000003c0: e356 a3bf 6541 6637 cae9 913f dd4f 8abf
000003d0: 3c62 3838 b280 83bf 0722 5d3f 1899 6ebf
000003e0: 5e7e 75bf 4fe5 eab6 4fc6 593f 87db 2c39
000003f0: f40d b0bf c098 38bf 09e3 02bf 8ca4 83bd

layer3.bias f4 [4]
-0.49923816 -0.15372163 1.4592984 0.2146718
00000000: 259c ffbe 3469 1dbe 4aca ba3f edd2 5b3e
