Exported_models/Soft_update_0.999_1_2000.pth (torch, 41119 bytes, 6 tensors)

layer1.weight f4 [128, 8]
-0.002043725 -0.002297706 -0.0014374433 0.00023222232 0.00037424796 0.0004530857 -0.0003328672 -0.00040549925
-0.03549466 0.08290348 -0.3790135 0.069046445 -0.718576 -0.811861 -0.24020505 0.0455241
-0.040193588 0.15870187 -0.015707519 0.22280012 -0.04394712 -0.16384874 -0.1964015 -0.00016942227
-0.04115396 0.1585951 -0.017509462 0.22311611 -0.042961653 -0.16412397 -0.19511202 -0.000723332
0.021910913 0.00031646862 -0.15451565 -1.1928535 0.7579496 1.1465013 0.23911671 0.029270409
-0.040439885 0.15868053 -0.01597222 0.22284193 -0.04401268 -0.16396883 -0.19609481 -7.966611e-05
-3.0218773 0.025570745 -1.6354371 -0.67395204 -3.3994317 0.077203736 -0.0569402 -0.04987786
-0.040532805 0.1575436 -0.0093355095 0.22277257 -0.051377356 -0.16131772 -0.19842349 0.002006324
0.4327237 -0.29705676 0.024175247 -0.062390156 0.07244423 0.54755 -0.0403076 -0.06606914
-0.040708616 0.1586844 -0.016422395 0.22293918 -0.04380778 -0.164058 -0.1965022 -9.967378e-05
1.0512528 0.023860179 0.7962535 -0.09687649 -1.1065813 -1.6906908 -0.072993085 0.03409024
-0.025851768 0.15731224 -0.005813587 0.21820241 -0.034471057 -0.15480083 -0.15542829 -0.0018015899
-0.040521193 0.15867192 -0.016059268 0.22285324 -0.04402631 -0.16401076 -0.19636187 -4.5877685e-05
0.13000682 0.13358028 0.4207412 0.17871386 -0.1287037 -0.0085558 -0.077636704 -0.025688335
-0.37925833 -0.11458771 0.46454105 -0.30680868 -1.0183157 -1.0122156 -0.07719016 0.041767064
-0.014143114 0.15688246 -0.003274511 0.21845037 -0.013752584 -0.16134077 -0.058284506 -0.018669795
0.2682543 -0.04394218 -0.5000282 -1.3432493 -0.2921566 -0.37620613 0.06095833 -0.035786223
-0.39374495 -0.02134797 -0.6379579 -0.8426126 0.9573895 0.35216823 -0.079037264 0.024353802
-0.0011041869 0.14352411 -0.0255998 0.21706314 -0.037170134 -0.18647133 -0.120285995 -0.026426483
-0.041413426 0.15857622 -0.016997045 0.22295809 -0.044153146 -0.16440003 -0.19724102 0.00016609677
-0.010108699 0.15363419 0.042579856 0.21432544 -0.049345914 -0.14134389 -0.109415315 -0.0034740258
-0.04045149 0.15862925 -0.016072446 0.22289573 -0.043872736 -0.16388159 -0.1958245 -0.0002226375
-0.0404519 0.15871054 -0.01617858 0.22290677 -0.043691684 -0.16391993 -0.19589615 -0.00022748596
-0.042989496 0.1578297 -0.018533466 0.22248861 -0.04585255 -0.16467015 -0.19923168 0.001365541
0.7774925 -0.048514675 -0.02761177 -0.94340235 1.1933618 0.4126367 0.121352755 -0.061961237
-0.04032591 0.15869081 -0.016736398 0.22301854 -0.042609747 -0.16361472 -0.19470933 -0.00087760214
-0.009625905 0.15707096 -0.005494571 0.21844968 -0.013869167 -0.16259402 -0.057972103 -0.03985819
-0.022158533 0.1590512 -0.0122935 0.22073363 -0.027463496 -0.1691038 -0.08722835 -0.0459521
0.17200188 0.001378954 -0.44015485 -1.0734731 1.2190422 0.5498676 0.09332168 -0.0701135
-0.041154105 0.1586311 -0.016970955 0.2229886 -0.043602813 -0.16409601 -0.19614963 -0.00014663428
-0.04069278 0.15868618 -0.01640506 0.22292876 -0.04379662 -0.16405112 -0.19677813 -0.00010921641
-1.3583312 0.016514106 -1.4789529 -0.13309975 0.6432924 -0.31799197 -0.037476122 0.020239463
00000000: 04f0 05bb 1c95 16bb 9868 bcba b480 7339
00000010: b636 c439 228c ed39 ae84 aeb9 3099 d4b9
00000020: d962 11bd 4dc9 a93d 0f0e c2be 3968 8d3d
00000030: 99f4 37bf 1fd6 4fbf 50f8 75be 7b77 3a3d
00000040: 08a2 24bd be82 223e 0ead 80bc b725 643e
00000050: e501 34bd f7c7 27be 7a1d 49be f2a6 31b9
00000060: 0e91 28bd c166 223e 0170 8fbc 8d78 643e
00000070: 8ff8 2fbd 1d10 28be 72cb 47be fd9d 3dba
00000080: 847e b33c b3eb a539 5a39 1ebe 6caf 98bf
00000090: fc08 423f 8ec0 923f 03db 743e 7fc8 ef3c
000000a0: 4ba4 25bd 267d 223e 2cd8 82bc ad30 643e
000000b0: a446 34bd 72e7 27be 14cd 48be 6b12 a7b8
000000c0: 7066 41c0 bd79 d13c 0156 d1bf 1f88 2cbf
000000d0: 4a90 59c0 fe1c 9e3d 213a 69bd ba4c 4cbd
000000e0: ba05 26bd 1c53 213e f7f3 18bc 7e1e 643e
000000f0: 1071 52bd 7930 25be 872f 4bbe 887c 033b
00000100: f68d dd3e d317 98be 2b0b c63c d28c 7fbd
00000110: a45d 943d 3d2c 0c3f 9519 25bd 424f 87bd
00000120: 14be 26bd 2a7e 223e 4288 86bc 2b4a 643e
00000130: c96f 33bd d2fe 27be df37 49be f407 d1b8
00000140: 748f 863f 6c76 c33c 45d7 4b3f 2e67 c6bd
00000150: 75a4 8dbf 8e68 d8bf 667d 95bd 35a2 0b3d
00000160: 16c7 d3bc 7616 213e e77f bebb 7470 5f3e
00000170: 8631 0dbd 1c84 1ebe 9828 1fbe 5323 ecba
00000180: 8df9 25bd e47a 223e ba8e 83bc a433 643e
00000190: ef54 34bd 70f2 27be 1613 49be ca6c 40b8
000001a0: 8220 053e 45c9 083e 646b d73e c400 373e
000001b0: e7ca 03be a02d 0cbc feff 9ebd 5870 d2bc
000001c0: 262e c2be f6ac eabd 53d8 ed3e 0716 9dbe
000001d0: 2b58 82bf 4890 81bf e015 9ebd f113 2b3d
000001e0: 85b8 67bc cca5 203e 2e99 56bb 74b1 5f3e
000001f0: 8552 61bc 8436 25be bcbb 6ebd 66f1 98bc
00000200: a158 893e b7fc 33bd d901 00bf 98ef abbf
00000210: 8d95 95be 179e c0be 71af 793d 9394 12bd
00000220: f098 c9be f0e1 aebc 3551 23bf 76b5 57bf
00000230: 7a17 753f 654f b43e 4ade a1bd a081 c73c
00000240: 5dba 90ba fcf7 123e acb6 d1bc cd45 5e3e
00000250: b63f 18bd 57f2 3ebe 8158 f6bd 5a7c d8bc
00000260: 20a1 29bd ce61 223e 633d 8bbc 204f 643e
00000270: eed9 34bd 7b58 28be 8df9 49be 432a 2e39
00000280: f59e 25bc 4852 1d3e 3768 2e3d 2178 5b3e
00000290: f11e 4abd 74bc 10be 2315 e0bd 7bac 63bb
000002a0: 76b0 25bd b56f 223e 5daa 83bc c73e 643e
000002b0: e6b3 33bd 93d0 27be 3886 48be cd73 69b9
000002c0: e4b0 25bd 0485 223e f188 84bc ac41 643e
000002d0: 0df6 32bd a0da 27be 0099 48be 4c89 6eb9
000002e0: c115 30bd 1c9e 213e 7fd3 97bc 0ed4 633e
000002f0: e2cf 3bbd 4b9f 28be 6403 4cbe f4fb b23a
00000300: c009 473f 53b7 46bd 1432 e2bc d182 71bf
00000310: 14c0 983f 1e45 d33e cb87 f83d 11cb 7dbd
00000320: c82c 25bd d87f 223e c51a 89bc f95e 643e
00000330: 8f87 2ebd 9e8a 27be e261 47be e20e 66ba
00000340: f9b5 1dbc 36d7 203e cd0b b4bb 46b1 5f3e
00000350: 813b 63bc 0c7f 26be 2874 6dbd 5742 23bd
00000360: d085 b5bc 51de 223e ad6a 49bc ff07 623e
00000370: 20fb e0bc 8c29 2dbe c7a4 b2bd 4538 3cbd
00000380: 4321 303e 05be b43a fa5b e1be 9167 89bf
00000390: 9309 9c3f 1fc4 0c3f 701f bf3d ab97 8fbd
000003a0: 3591 28bd 3170 223e ac06 8bbc 2057 643e
000003b0: dd98 32bd c908 28be 73db 48be d7c1 19b9
000003c0: 79ad 26bd a17e 223e e863 86bc 7047 643e
000003d0: 1664 33bd 04fd 27be 3580 49be 1d0b e5b8
000003e0: ccdd adbf 9748 873c 544e bdbf 4d4b 08be
000003f0: d0ae 243f d8cf a2be 9080 19bd 3bcd a53c

layer1.bias f4 [128]
-0.005845028 0.80661964 1.2323837 1.2320142 -0.6089744 1.2322723 -0.13481115 1.2283996
-0.07579509 1.2322106 -0.4864073 1.2340419 1.2322145 1.2078552 -0.75539154 1.2393051
0.3125393 -0.5164638 1.2347193 1.2317302 1.2256007 1.2321048 1.2323544 1.2293226
-1.2059681 1.2325518 1.2388357 1.238833 -1.2877445 1.2319143 1.2322128 -0.8268431
-1.3501573 1.2355977 1.232219 1.2317054 -0.9601987 1.2286153 1.221209 0.2748529
-0.95779586 1.223388 -0.4213662 0.46041998 -0.9977485 1.2087007 -0.0057520964 -1.5911176
-0.5862984 1.2210822 1.2320919 0.31942847 1.2321894 1.232186 -0.88407516 1.2184436
1.2341877 1.232382 -0.0060020583 1.2330453 -0.6593076 0.34686694 -1.0816737 0.14861764
1.2331572 1.2924408 1.2337884 1.2678434 1.232367 1.2335637 0.08053574 -0.0057541863
-1.0521932 1.2579178 -1.065699 1.2334846 1.2398678 -0.9297569 1.2322024 -1.432119
1.2478207 1.2323968 1.2320426 -0.8393465 -1.4572915 1.213467 -0.82903343 1.2443556
-0.907422 1.2322317 1.2322019 -0.9193114 1.2321656 1.2290857 -1.5009496 1.2322062
1.2316442 1.2334158 1.2322222 1.2325488 -0.9742142 -1.1014138 1.2314411 -0.7383799
1.3146472 -0.2624394 1.2344098 -0.9242268 1.2256912 1.2321583 0.06473269 1.2033483
1.2321217 1.3107902 1.2174551 1.1364242 0.80528563 -0.9031674 1.2322321 -1.3399128
1.232319 -0.8967284 1.3087034 1.2266576 1.2367548 -1.1239972 1.2358879 -0.23369493
00000000: a687 bfbb a07e 4e3f c0be 9d3f a4b2 9d3f
00000010: bfe5 1bbf 19bb 9d3f ef0b 0abe 333c 9d3f
00000020: 753a 9bbd 14b9 9d3f 610a f9be 16f5 9d3f
00000030: 34b9 9d3f 009b 9a3f 5761 41bf 8da1 9e3f
00000040: 2705 a03e f936 04bf 480b 9e3f 56a9 9d3f
00000050: 7ce0 9c3f 9cb5 9d3f cabd 9d3f 715a 9d3f
00000060: 2a5d 9abf 42c4 9d3f 2b92 9e3f 1492 9e3f
00000070: d0d4 a4bf 5eaf 9d3f 26b9 9d3f fdab 53bf
00000080: f4d1 acbf 1128 9e3f 5ab9 9d3f 86a8 9d3f
00000090: 95cf 75bf 4443 9d3f 9450 9c3f 85b9 8c3e
000000a0: 1c32 75bf fa97 9c3f 50bd d7be 2bbc eb3e
000000b0: 726c 7fbf b4b6 9a3f 157c bcbb bea9 cbbf
000000c0: a717 16bf 6c4c 9c3f 30b5 9d3f 218c a33e
000000d0: 62b8 9d3f 45b8 9d3f c052 62bf f6f5 9b3f
000000e0: ddf9 9d3f b2be 9d3f eaac c4bb 6ed4 9d3f
000000f0: 62c8 28bf 8b98 b13e 4974 8abf 392f 183e
00000100: 18d8 9d3f b36e a53f c7ec 9d3f b148 a23f
00000110: 34be 9d3f 6ae5 9d3f ecef a43d 9d8d bcbb
00000120: 44ae 86bf 7303 a13f d368 88bf d3e2 9d3f
00000130: fdb3 9e3f 8c04 6ebf cfb8 9d3f ad4f b7bf
00000140: 97b8 9f3f 2ebf 9d3f 92b3 9d3f 6adf 56bf
00000150: 8788 babf e352 9b3f 893b 54bf 0b47 9f3f
00000160: cf4c 68bf c5b9 9d3f cbb8 9d3f fe57 6bbf
00000170: 9ab7 9d3f ae52 9d3f 1e1f c0bf efb8 9d3f
00000180: 84a6 9d3f 92e0 9d3f 75b9 9d3f 29c4 9d3f
00000190: 1a66 79bf 21fb 8cbf dd9f 9d3f 7706 3dbf
000001a0: 5c46 a83f 755e 86be 2401 9e3f 219a 6cbf
000001b0: 73e3 9c3f 5db7 9d3f 9392 843d 5107 9a3f
000001c0: 2ab6 9d3f f9c7 a73f 92d5 9b3f 5976 913f
000001d0: 3327 4e3f fb35 67bf c8b9 9d3f 4382 abbf
000001e0: a1bc 9d3f fe8f 65bf 9883 a73f 1e03 9d3f
000001f0: fb4d 9e3f 24df 8fbf 9331 9e3f b94d 6fbe

layer2.weight f4 [64, 128]
0.0103951 0.032628268 -0.010517876 -0.010051086 -0.002282114 -0.010368501 -0.0089713475 -0.012400859
-0.011139642 -0.010187052 0.1825 -0.022628192 -0.010319565 -0.13357003 0.0012398011 -0.025378447
-0.2852499 0.26775742 -0.04684152 -0.009781586 -0.03283472 -0.010391332 -0.010343305 -0.008881168
-0.12756248 -0.010558795 -0.028231898 -0.019830385 -0.10047673 -0.009954045 -0.010193594 0.17347762
0.24916539 -0.027860697 -0.0102228075 -0.009821631 -0.01399646 -0.008951142 -0.0015343587 -0.345352
0.10418529 -0.009144022 0.11178115 0.26262224 0.21912807 0.0056396993 0.007510227 0.30685368
0.14277518 -0.0087351985 -0.010168725 0.261632 -0.010188612 -0.010178185 0.068377 0.0046786703
-0.014691084 -0.010501583 0.012240975 -0.0108872 0.10959617 -0.45385736 -0.04769856 -0.04334051
-0.011058163 -0.13495216 -0.012812974 -0.33777496 -0.010390413 -0.0115767 0.11141954 0.010092122
-0.10851491 -0.24110699 0.08131803 -0.011437324 -0.02359863 -0.061537698 -0.010247099 0.2915035
-0.14878155 -0.010330939 -0.014584562 0.07707102 0.27731246 -0.36695674 -0.22649607 -0.06543021
0.06852395 -0.010219027 -0.0101775825 -0.16925487 -0.010311646 -0.032600123 0.20754494 -0.010196174
-0.012418864 -0.012027996 -0.010282368 -0.010995854 -0.25555494 -0.11281913 -0.009719073 -0.12172476
-0.16077787 -0.24164733 -0.01543132 0.058414046 -0.032034807 -0.010133154 -0.14184202 0.033851493
-0.010144648 -0.2545004 -0.057429988 0.013922715 -0.122727655 -0.36320516 -0.010235599 0.2048177
-0.010402805 -0.09559031 -0.29616174 -0.023325417 -0.028629823 0.23733841 -0.019999783 -0.064226955
1.0927945e-08 -1.9522142e-09 7.889942e-09 1.0741353e-08 -8.862131e-10 9.636764e-09 -1.8752381e-08 6.05233e-09
-4.9490905e-09 8.4542755e-09 -2.246913e-08 -6.9630173e-09 -1.2075732e-08 4.57234e-09 4.6540243e-09 -1.5525148e-09
-1.5589894e-08 -1.485969e-08 -2.059923e-08 1.9552758e-10 -1.7781689e-08 1.3865016e-08 3.294264e-09 -1.6045156e-08
1.9031082e-08 3.7291095e-09 -1.8475523e-08 3.2412522e-09 -1.4060773e-09 -1.7707745e-08 -1.1151933e-08 1.1150792e-08
4.384085e-09 -1.2580249e-08 -2.1552585e-08 -1.44574175e-08 1.8276518e-08 5.48073e-09 3.5666694e-09 -1.828881e-08
5.060845e-09 -7.916027e-09 -2.187673e-09 -3.0812473e-09 -5.7082588e-09 -3.967534e-09 -1.9987676e-08 -2.9457639e-09
-8.134279e-09 -1.391159e-08 2.0480362e-09 8.059881e-09 1.6054427e-09 -1.0466805e-08 1.3668869e-08 -1.9730535e-08
-1.6692818e-08 -1.25082815e-08 3.0953964e-09 -2.0338107e-09 -7.143043e-09 -1.6775846e-08 -6.9202937e-09 -9.4854755e-09
-1.7419728e-08 8.073124e-09 -8.948938e-09 -1.8828278e-08 -1.9609578e-08 -1.1472903e-08 -1.4639786e-08 9.95079e-09
-1.8911113e-08 -2.2847941e-09 -6.986361e-09 -1.815253e-08 -9.135123e-09 1.3930734e-09 -7.780172e-09 1.37109595e-08
-1.4953443e-08 -2.1801196e-08 8.7855384e-10 1.5957873e-08 1.2929614e-09 -1.576155e-08 -1.9850875e-08 -7.328715e-10
-6.5830403e-09 -2.9072222e-08 -2.5198851e-08 1.5678019e-08 1.1643637e-08 -1.1112114e-08 -1.8339598e-08 -1.2419495e-08
4.3422332e-09 8.001433e-09 1.321206e-08 7.429761e-09 1.8426041e-08 1.1438465e-08 -3.0333056e-09 -4.578781e-09
-1.348719e-08 -1.853003e-08 -1.5084964e-08 4.2661683e-09 -6.463246e-09 -4.4487e-09 1.3212165e-08 -1.2835753e-08
5.1653964e-10 1.1481598e-08 -1.2613392e-08 6.7370474e-09 -3.2557386e-09 -1.1751312e-08 -5.505812e-10 -1.854586e-08
-1.9092822e-08 -4.7157904e-09 1.0331439e-08 1.0440276e-08 -9.94772e-09 -6.946915e-09 8.327677e-09 9.992132e-09
00000000: 3650 2a3c 38a5 053d 2b53 2cbc 4fad 24bc
00000010: 858f 15bb a5e0 29bc 8ffc 12bc f92c 4bbc
00000020: 0c83 36bc 98e7 26bc 48e1 3a3e c25e b9bc
00000030: 6513 29bc 95c6 08be d280 a23a 76e6 cfbc
00000040: 460c 92be 8017 893e e5dc 3fbd f242 20bc
00000050: b37d 06bd 6840 2abc f776 29bc 5282 11bc
00000060: bd9f 02be ccfe 2cbc 9546 e7bc 5573 a2bc
00000070: bec6 cdbd 4a16 23bc 0803 27bc 1ea4 313e
00000080: 3625 7f3e 1e3c e4bc 907d 27bc e8ea 20bc
00000090: 6851 65bc d0a7 12bc 891c c9ba fad1 b0be
000000a0: 195f d53d cfd0 15bc 84ed e43d 6c76 863e
000000b0: 1c63 603e 3acd b83b 5a18 f63b ed1b 9d3e
000000c0: a833 123e 141e 0fbc b99a 26bc a1f4 853e
000000d0: 23ee 26bc 67c2 26bc 3e09 8c3d 884f 993b
000000e0: dfb2 70bc d50e 2cbc 5f8e 483c 3a60 32bc
000000f0: f573 e03d fe5f e8be 915f 43bd d285 31bd
00000100: 4c2d 35bc e630 0abe 82ed 51bc d7f0 acbe
00000110: 8d3c 2abc 33ac 3dbc ee2f e43d 6d59 253c
00000120: 113d debd c0e4 76be 118a a63d 9d63 3bbc
00000130: ea51 c1bc f40e 7cbd 73e3 27bc f23f 953e
00000140: 315a 18be 1943 29bc 16f4 6ebc 69d7 9d3d
00000150: e6fb 8d3e c1e1 bbbe 96ee 67be 4600 86bd
00000160: 4956 8c3d b56d 27bc e0bf 26bc 2651 2dbe
00000170: 2ef2 28bc b587 05bd a986 543e da0d 27bc
00000180: 7e78 4bbc 1211 45bc 6177 28bc f427 34bc
00000190: 19d8 82be b70d e7bd bf3c 1fbc d54a f9bd
000001a0: f4a2 24be 6672 77be a6d3 7cbc 9143 6f3d
000001b0: ee36 03bd 8705 26bc 093f 11be dda7 0a3d
000001c0: bd35 26bc e04d 82be b53b 6bbd 191c 643c
000001d0: a358 fbbd 07f6 b9be 37b3 27bc bbbb 513e
000001e0: 8770 2abc dac4 c3bd 83a2 97be f214 bfbc
000001f0: 1789 eabc d708 733e 96d6 a3bc 6c89 83bd
00000200: 9cbd 3b32 b727 06b1 558c 0732 f888 3832
00000210: b499 73b0 f08e 2532 ec14 a1b2 dcf4 cf31
00000220: a90c aab1 4c3e 1132 2402 c1b2 593f efb1
00000230: a275 4fb2 ba1a 9d31 3be9 9f31 4260 d5b0
00000240: 8aea 85b2 9c49 7fb2 30f2 b0b2 1ffc 562f
00000250: 59be 98b2 fc32 6e32 4e61 6231 acd3 89b2
00000260: cb79 a332 9821 8031 1bb4 9eb2 b6bc 5e31
00000270: f23f c1b0 be1b 98b2 b896 3fb2 b491 3f32
00000280: d2a2 9631 8520 58b2 a322 b9b2 6560 78b2
00000290: 7dfe 9c32 0351 bc31 8319 7531 8519 9db2
000002a0: aae3 ad31 0eff 07b2 f355 16b1 e0bd 53b1
000002b0: 6022 c4b1 cc52 88b1 5db1 abb2 6d6e 4ab1
000002c0: f0be 0bb2 d2ff 6eb2 6fbd 0c31 bb77 0a32
000002d0: 7ea6 dc30 7fd1 33b2 52d4 6a32 e87b a9b2
000002e0: e563 8fb2 01e4 56b2 cab6 5431 2dc3 0bb1
000002f0: df6e f5b1 7a1a 90b2 8cc7 edb1 90f5 22b2
00000300: 63a2 95b2 fab1 0a32 d8bd 19b2 d2bb a1b2
00000310: eb71 a8b2 5c1a 45b2 7682 7bb2 0af4 2a32
00000320: fa71 a2b2 8602 1db1 ae0c f0b1 d6ed 9bb2
00000330: b2f0 1cb2 6a76 bf30 8fa9 05b2 708d 6b32
00000340: f872 80b2 5645 bbb2 bb7e 7130 bc13 8932
00000350: 09b4 b130 0464 87b2 8984 aab2 3f73 49b0
00000360: 0931 e2b1 7eba f9b2 dc74 d8b2 54ac 8632
00000370: 4209 4832 98e7 3eb2 3489 9db2 845d 55b2
00000380: b032 9531 ad76 0932 41fb 6232 de48 ff31
00000390: 4b47 9e32 e782 4432 7a72 50b1 6253 9db1
000003a0: 4ab5 67b2 f82b 9fb2 3094 81b2 9d95 9231
000003b0: 5013 deb1 2edb 98b1 b7fb 6232 3d84 5cb2
000003c0: 3ffc 0d30 9a40 4532 49b2 58b2 b27b e731
000003d0: 8fbb 5fb1 d1e2 49b2 b557 17b0 c74e 9fb2
000003e0: 8f01 a4b2 8808 a2b1 267e 3132 d25c 3332
000003f0: 89e6 2ab2 b6b1 eeb1 8311 0f32 dca9 2b32

layer2.bias f4 [64]
-0.14661387 -6.090765e-09 1.3380075 -4.7700515e-09 1.4456676 1.3476777 -0.09442056 1.3106457
1.3837264 -4.7545394e-09 1.382269 1.2872214 -0.0028758384 -0.1447385 0.5521801 1.4009316
1.3426913 1.3872167 0.85777396 1.3379595 -1.923908e-08 1.3835709 -0.13811506 1.3712729
-1.2411793e-07 -1.29490925e-08 -0.95412844 -0.15286912 1.3380629 -0.15090163 1.3358669 -9.7888055e-08
1.3507841 -1.8565967e-08 -0.8231368 1.3723077 -1.8340838e-08 -2.1822794e-08 1.3810141 -2.5430232e-08
-0.00039117623 -1.6757349e-05 -1.5034312e-08 1.3826518 1.3685839 1.2962153 0.3260183 1.2828404
1.3770051 -0.001112147 0.8104471 -0.0020125099 1.3388133 -0.7295125 -0.0008757653 0.74182034
1.3382386 1.3423132 1.3297625 1.2809887 1.3380349 1.3438236 -1.3428515e-08 -0.8350677
00000000: f221 16be ef46 d1b1 d443 ab3f d1e5 a3b1
00000010: a30b b93f b480 ac3f 915f c1bd 3dc3 a73f
00000020: f21d b13f 5f5d a3b1 31ee b03f acc3 a43f
00000030: 9078 3cbb 5436 14be ad5b 0d3f ba51 b33f
00000040: 4fdd ab3f 5190 b13f 1397 5b3f 4242 ab3f
00000050: 2f43 a5b2 da18 b13f 096e 0dbe df85 af3f
00000060: 4745 05b4 b676 5eb2 c341 74bf b989 1cbe
00000070: a545 ab3f f585 1abe b0fd aa3f 8736 d2b3
00000080: 7ee6 ac3f fe7a 9fb2 18b9 52bf c7a7 af3f
00000090: ee8b 9db2 d574 bbb2 12c5 b03f ac71 dab2
000000a0: c916 cdb9 2292 8cb7 cd24 81b2 bcfa b03f
000000b0: c22d af3f 62ea a53f dfeb a63e 1d34 a43f
000000c0: b441 b03f 76c5 91ba 7679 4f3f 50e4 03bb
000000d0: 3c5e ab3f 55c1 3abf 9d93 65ba f0e7 3d3f
000000e0: 674b ab3f ebd0 ab3f a835 aa3f 70f7 a33f
000000f0: ba44 ab3f 6902 ac3f 3cb3 66b2 ffc6 55bf

layer3.weight f4 [4, 64]
-0.16057314 -3.896129e-10 0.9370293 2.402364e-08 0.44888613 0.90150225 -0.055318534 0.92522484
0.7352308 1.2647338e-08 0.741119 0.95394105 -0.005558576 -0.15908305 1.2162054 0.7489165
0.904565 0.7251312 1.3723913 0.93585634 -7.1133264e-09 0.7389645 -0.16049364 0.78947246
-2.361708e-08 3.5039731e-09 -2.271546 -0.12211072 0.9367001 0.027852949 0.90646726 1.4899374e-09
0.88284385 5.6788828e-08 -2.1725416 0.7878577 -9.3184935e-09 9.787481e-09 0.746199 -1.1590254e-08
0.002942382 1.549116e-05 9.642003e-09 0.73985237 0.8076847 0.9417371 2.4380143 0.7065539
0.843294 -0.00031293067 1.4066494 -0.0036975082 0.902891 -2.0285268 0.0005564356 0.7520974
0.9384028 1.0473319 0.90412694 1.1127753 0.93769914 0.90068805 -9.429135e-09 -2.3133373
-0.19158192 2.8974192e-08 0.97246855 -1.3123228e-08 0.35551885 0.9376666 0.034035563 0.95098114
0.76156956 -1.806701e-08 0.7672362 0.96504635 -0.0069844853 -0.15204538 0.9516067 0.7116669
0.9397842 0.74776566 1.2668831 0.97225446 6.824518e-09 0.76984566 -0.20434625 0.81823885
4.4715085e-09 2.2138056e-09 -2.2237945 -0.14227557 0.97107303 -1.6443502 0.9375498 9.403817e-09
0.9199062 -6.856357e-08 -2.2105262 0.8202438 -6.6567107e-09 -1.7241177e-08 0.77213156 3.0701723e-09
0.00026093033 -9.385368e-06 -1.3312628e-08 0.766179 0.83716935 0.9765432 2.6493635 0.2925571
0.94006985 2.972067e-09 1.7122742 -0.004183512 0.9344099 -1.4309742 9.672201e-05 0.46572566
0.9742042 1.0438491 0.94325936 1.0797524 0.9724839 0.937087 -2.0536953e-08 -2.1366787
-0.075446665 3.1437752e-09 0.94543606 8.521485e-09 0.94040614 0.9213431 -0.13239197 0.905767
0.83303815 -2.9861624e-09 0.83460754 0.90503806 -0.00905191 -0.08202995 0.49920586 0.8640311
0.9197803 0.8305301 0.8546461 0.9444724 2.3497797e-08 0.8348743 -0.08830052 0.8591536
1.0956815e-07 -1.9897476e-08 -2.3680394 -0.12656397 0.944983 -0.7870719 0.91574925 5.7221268e-08
0.9095439 -2.2795035e-08 -2.4271274 0.8600707 5.8334932e-09 2.8969833e-09 0.8368821 4.831219e-09
-0.0019245404 2.2537658e-07 -1.0764299e-08 0.83416045 0.87106586 0.9041151 2.4738019 0.79583967
0.9115697 1.2829318e-09 0.74113536 -0.009480956 0.9140955 -1.9075332 -0.0055041197 0.5659812
0.9471801 1.070813 0.9063914 1.1723696 0.9463656 0.91805243 7.416826e-10 -2.4581404
-0.14619938 1.0264598e-08 0.9095698 6.844012e-09 0.59850526 0.8932448 0.050140236 0.896375
0.77818716 6.6533716e-09 0.7835891 0.9341892 -0.0050013554 -0.17101714 1.1500244 0.77872306
0.89247525 0.7697639 1.0752615 0.90785074 1.6412253e-08 0.7796701 -0.13085113 0.8158884
-2.0911115e-08 2.3638366e-08 -2.5145853 -0.097638205 0.9098811 1.3559045 0.89815307 -1.5272562e-08
0.8783169 -4.4145082e-08 -2.0795677 0.81160986 -1.8677329e-09 3.626292e-09 0.78819954 1.2154569e-08
0.0041826544 -2.638993e-05 -3.865694e-08 0.78194916 0.8323207 0.8899869 0.23621516 0.92384654
0.7572368 8.695525e-09 0.9413935 -0.00233922 0.8962966 -2.4469352 -0.0008173175 1.1276138
0.9097491 1.0151345 0.87924695 1.1238381 0.91029024 0.8889122 1.811828e-09 -2.4081614
00000000: 496d 24be 2431 d6af 27e1 6f3f 8b5c ce32
00000010: 67d4 e53e dac8 663f b095 62bd 89db 6c3f
00000020: 1638 3c3f 9547 5932 fab9 3d3f 7b35 743f
00000030: b724 b6bb abe6 22be 9eac 9b3f feb8 3f3f
00000040: 9291 673f 33a2 393f 85aa af3f 4894 6f3f
00000050: 7b69 f4b1 c72c 3d3f 7258 24be de1a 4a3f
00000060: 82de cab2 8cca 7031 0261 11c0 2f15 fabd
00000070: 94cb 6f3f de2b e43c 3d0e 683f 83c6 cc30
00000080: 0e02 623f fae7 7333 ec0a 0bc0 0bb1 493f
00000090: 2b17 20b2 cc25 2832 e606 3f3f 7a1e 47b2
000000a0: fad4 403b 03f3 8137 faa5 2532 f766 3d3f
000000b0: 6dc4 4e3f af15 713f 6d08 1c40 b7e0 343f
000000c0: 1ee2 573f d810 a4b9 160d b43f e551 72bb
000000d0: dd23 673f 62d3 01c0 c3dd 113a 7589 403f
000000e0: 2a3b 703f f90e 863f dd74 673f 6c6f 8e3f
000000f0: 0d0d 703f 7e93 663f c6fd 21b2 b80d 14c0
00000100: 0d2e 44be ece2 f832 b3f3 783f 9174 61b2
00000110: 9106 b63e eb0a 703f e068 0b3d 8073 733f
00000120: 39f6 423f c631 9bb2 9769 443f 470d 773f
00000130: 1cde e4bb c9b1 1bbe 7f9c 733f cd2f 363f
00000140: b395 703f 926d 3f3f 3a29 a23f abe5 783f
00000150: 187d ea31 9b14 453f 2540 51be 1a78 513f
00000160: cea3 9931 ae21 1831 a652 0ec0 b0b0 11be
00000170: 3e98 783f 117a d2bf 4403 703f 6d8e 2132
00000180: f97e 6b3f 393d 93b3 4379 0dc0 7ffb 513f
00000190: 0cb9 e4b1 c019 94b2 6aaa 453f 0bfb 5231
000001a0: 7acd 8839 d975 1db7 8fb5 64b2 4f24 443f
000001b0: bb50 563f bcfe 793f 2c8f 2940 0bca 953e
000001c0: 6ba8 703f 283d 4c31 cd2b db3f d815 89bb
000001d0: 7d35 6f3f 2a2a b7bf 3cd7 ca38 9873 ee3e
000001e0: 7265 793f d99c 853f 7279 713f 5435 8a3f
000001f0: b4f4 783f efe4 6f3f 3d69 b0b2 58bf 08c0
00000200: c883 9abd e109 5831 1908 723f e365 1232
00000210: 75be 703f 24dd 6b3f c391 07be 59e0 673f
00000220: fd41 553f 2035 4db1 d7a8 553f 93b0 673f
00000230: 764e 14bc 52ff a7bd e997 ff3e 2431 5d3f
00000240: b976 6b3f 9f9d 543f 16ca 5a3f f1c8 713f
00000250: 34d8 c932 52ba 553f e7d6 b4bd 7ef1 5b3f
00000260: ba4b eb33 03eb aab2 f58d 17c0 fc99 01be
00000270: 68ea 713f 8b7d 49bf 8b6e 6a3f 73c3 7533
00000280: ded7 683f d0ce c3b2 0e56 1bc0 982d 5c3f
00000290: f36f c831 4514 4731 e83d 563f daff a531
000002a0: dc40 fcba 0bff 7134 e3ed 38b2 8a8b 553f
000002b0: 2cfe 5e3f 1674 673f c552 1e40 26bc 4b3f
000002c0: a25c 693f 2653 b030 0cbb 3d3f 0356 1bbc
000002d0: 2a02 6a3f 0c2a f4bf e75b b4bb 25e4 103f
000002e0: 657a 723f 6610 893f 4409 683f 3510 963f
000002f0: 0445 723f 7c05 6b3f 46df 4b30 2c52 1dc0
00000300: 4ab5 15be 2e58 3032 91d9 683f 9128 eb31
00000310: a437 193f b1ab 643f d95f 4d3d d578 653f
00000320: 4637 473f ad9b e431 4c99 483f 0627 6f3f
00000330: 69e2 a3bb 1e1f 2fbe 0034 933f 655a 473f
00000340: 4279 643f 3f0f 453f 2ba2 893f e868 683f
00000350: edfa 8c32 7698 473f d7fd 05be 10de 503f
00000360: 07a0 b3b2 510d cb32 f7ee 20c0 8af6 c7bd
00000370: f8ed 683f 478e ad3f 5ced 653f b830 83b2
00000380: 60d9 603f 089a 3db3 a317 05c0 aac5 4f3f
00000390: 8159 00b1 6732 7931 72c7 493f 5cd0 5032
000003a0: a60e 893b f15f ddb7 c107 26b3 d22d 483f
000003b0: f812 553f 2ed6 633f 63e2 713e 3581 6c3f
000003c0: 45da 413f 5363 1532 2aff 703f 994d 19bb
000003d0: b273 653f 969a 1cc0 4041 56ba a655 903f
000003e0: 51e5 683f edef 813f 5416 613f edd9 8f3f
000003f0: c808 693f c08f 633f 0804 f930 511f 1ac0

layer3.bias f4 [4]
0.03916796 0.5209713 1.673171 0.61771697
00000000: 956e 203d 605e 053f 782a d63f b322 1e3f
