Exported_models/Soft_update_0.999_4_822.pth (torch, 41111 bytes, 6 tensors)

layer1.weight f4 [128, 8]
00000000: 610d bdbc 51be a0bf b5c2 39be ad1c f5be
00000010: 9f41 7f3f d105 eb3d ebb1 8bbd 6c1b a93d
00000020: 0cda bdbc ffcb 10be c3c4 3a3d d46e 4dbc
00000030: 21f8 bdbc c8d4 de3e 6259 4d3e 49ea 833c
00000040: 0e30 a9be e3b3 80be 834e c2bc 5933 1ebe
00000050: 260a 013e 504d e53c 5011 f4bc b764 3dbd
00000060: b08a 16bf cbdb 6a3d aba4 61be 8816 a93e
00000070: 1008 ca3d 9015 c23d f7a9 c03c e548 39be
00000080: 8156 6ebe a7cf 53bf 70d0 49bd bd10 1fbf
00000090: 268b 053f ea22 a03e 22cc bfbd 78fa 023e
000000a0: d7d8 7abd f62a 8a3c 030f c1bc db2d 1a3d
000000b0: 097e c73f dc74 2a3d c123 09be 2869 5bbe
000000c0: 1dc4 7b3d 1848 d1be 3b43 ffbd cc40 13bf
000000d0: 8f30 df3d 20e9 dcbd 4220 24be c73f acbd
000000e0: c932 c03e cb25 0f3f 51bd bbbe 3d10 35bf
000000f0: b3f9 1c3d a7fa 6e3d f85d 823e 6d2b 1e3d
00000100: 2a8e 02be b941 0dbf 775f 713e b7e1 a8bd
00000110: 8eef d5be 56df a13e 9070 953d 3958 e9be
00000120: 2709 bfbd 4cdd a6be 8542 883d a27f 24bc
00000130: 031f a13f 73d4 953e 959e 00be b73f ee3d
00000140: c19f 2b3e 40e8 ecbe 4fdb 643e ed5b 0bbf
00000150: 1070 71bc 3282 8abe 40ed cabe e69d 893c
00000160: ba07 0dbe f2d4 063d e7e4 b3bd 4916 993e
00000170: 54ef 1f3f e7ca eb3e a5bc 45be 940b 83bd
00000180: 446f 48bf 6bfc cd3e e9af d33e ea82 42bd
00000190: 22f0 ddbe 5345 10be da12 a2be 505b 543e
000001a0: 67d9 bebd 5235 2e3b f2a9 a83d f95f f53d
000001b0: 1fe3 53be 6a25 f6bd 43a7 d03d 319e a3bd
000001c0: 6a87 663e da00 edbc 6599 01bf 4f46 5cbd
000001d0: 03a4 0e3d 53e9 a1be ca44 82bd 0878 25be
000001e0: ee79 12be 6ccc 55bf 6279 053e 0086 d7be
000001f0: 29dc 233f 4ee5 ff3e 56a9 a53d d24d c2bd
00000200: f1dd 1abe 4c9d 0c3f d614 8bbe 4793 2dbf
00000210: 3502 16bf 5e75 85be fdee 72be 3eee a23b
00000220: a33b a13d 836f 98bd 8f2a 9bbd dc1e 903d
00000230: f04c 8dbe 28fe d8be a469 6dbe 7925 c33c
00000240: f0a5 15be 65c9 963c 3b72 fc3e 469b b53f
00000250: bb49 8f3d 506e babd 85d6 9a3e d832 863e
00000260: 1c81 06bf 0372 b6be f63c 76be 76b0 e0be
00000270: 97ba 7c3e b5e6 c43e de56 f8bd 9649 febe
00000280: 812c bebe 50e5 a13c a8ee f43e 9d23 48be
00000290: 2477 583f 752d ba3e 862f 223e a4b6 e23e
000002a0: ce84 25bd 397b 8c3b 465e 71bc 6d10 75bb
000002b0: 46d0 e8bf 9020 d13d abbb 9fbe 64ad 58be
000002c0: c630 0fbf 4359 94bf 6cbb fb3e 455b b2be
000002d0: b9f7 8bbe d344 22be 165e 79be 9395 723a
000002e0: cf8f de3e 5f7b 5abe 80dc c73e f6bc 24be
000002f0: 579a 86bf 1cbf 11be 1c25 bb3d c93f 14bc
00000300: c61e a1bd 3fb5 113f 9f0b e33d 5f07 c2be
00000310: 61b1 f6bd 46b5 523c bdf6 83be a17e 913d
00000320: a713 8fbd 5ebf 2ebf f450 05bc 0010 e93e
00000330: 7358 1a3e 4b49 10bf 1cd7 b6be 9e00 2a3e
00000340: a116 a53c a572 813d 605b 583f 8ad3 ab3f
00000350: 3d4e 24bc 88ac 8d3d bf27 3ebd af43 33be
00000360: f0dd 97be a42f 76be 292b 18bd adb4 6bbe
00000370: 3825 443e 27b9 13be 19c9 3dbe fcfb 9dbe
00000380: 1b81 0dbf 4fdd 4fbf f812 c5be f999 f0be
00000390: a52f 0c3f 8168 e23e 40be 0d3d 410c 38be
000003a0: 739b 853e 8ac5 28be 25a9 a7bd c7cd c7bc
000003b0: dbad 623d 0821 37be 15b3 bcbd a7fa 8c3d
000003c0: 72fa 05bd cb73 63bf e8a2 f13c aeb2 21bf
000003d0: d03d 52bf 4e75 c7be 49c5 7c3e e147 e8bd
000003e0: 68d4 8e3e 36aa 9ebd 9318 eb3e cd15 59be
000003f0: 2bfc 10be 2a28 1e3e e1d0 6dbd 5bec ffbd
-0.023077669 -1.255808 -0.18140681 -0.4787344 0.99709505 0.11475719 -0.068210445 0.082571834
-0.023175262 -0.14140318 0.045597803 -0.0125386305 -0.023189606 0.43521714 0.20053628 0.016102927
-0.33044475 -0.25137243 -0.023719078 -0.15449275 0.12601528 0.027990967 -0.029793411 -0.046238627
-0.5880537 0.057338517 -0.22035472 0.33025002 0.09864819 0.09476769 0.023518546 -0.18094213
-0.23275186 -0.8273873 -0.049271047 -0.62134916 0.5216545 0.31276637 -0.09365107 0.12790859
-0.06124195 0.016866188 -0.023566728 0.037641387 1.5585338 0.041615352 -0.13392545 -0.21426833
0.061466325 -0.40875316 -0.12463995 -0.5752075 0.10897934 -0.107866526 -0.1602793 -0.08410602
0.37538746 0.5591704 -0.36667874 -0.707279 0.03832407 0.05834451 0.25462317 0.038615633
-0.12749544 -0.5517841 0.23571573 -0.08246177 -0.41784328 0.31615704 0.0729686 -0.4557512
-0.093279175 -0.3259071 0.066533126 -0.010040196 1.2587589 0.29263648 -0.12560494 0.116332464
0.1676016 -0.46270943 0.22349285 -0.5443714 -0.01473619 -0.27052456 -0.39634132 0.016798925
-0.13772479 0.032917924 -0.08783894 0.29899815 0.6247456 0.4605324 -0.19310243 -0.06398693
-0.7829478 0.40231642 0.41345146 -0.04748813 -0.4334727 -0.14088945 -0.31655008 0.20737958
-0.0931881 0.0026582074 0.082355395 0.11981196 -0.20692109 -0.12018855 0.10188153 -0.07989157
0.22512594 -0.02893107 -0.50624686 -0.05377799 0.034824383 -0.31623325 -0.06360777 -0.1615907
-0.14304325 -0.8351505 0.13034585 -0.4209442 0.6400781 0.49979633 0.08088939 -0.09487499
-0.15123726 0.54927516 -0.27164334 -0.6780285 -0.5859712 -0.26066107 -0.2372398 0.0049722483
0.07872703 -0.07443144 -0.07576477 0.07037136 -0.2759776 -0.42381406 -0.2318483 0.02382158
-0.14614081 0.01840658 0.493059 1.4188011 0.06996485 -0.09103072 0.3024179 0.26210666
-0.52540755 -0.3563386 -0.24046692 -0.4388463 0.24680553 0.38457265 -0.121259436 -0.49665517
-0.3714333 0.019762665 0.4783833 -0.19544835 0.84556794 0.36362806 0.15838441 0.4427997
-0.040409856 0.00428715 -0.014731949 -0.0037393824 -1.818856 0.10211289 -0.31197867 -0.21159893
-0.559338 -1.158974 0.4916643 -0.34835258 -0.27337435 -0.15846567 -0.24352297 0.00092538557
0.43469092 -0.21336125 0.39035416 -0.16087708 -1.0515851 -0.14233059 0.091379374 -0.009048411
-0.07867198 0.56917185 0.11086201 -0.3789625 -0.12045551 0.012860602 -0.25774184 0.07104231
-0.0698617 -0.68260753 -0.0081369765 0.4552002 0.15072803 -0.56361836 -0.3571099 0.16601798
0.020152392 0.06320695 0.8451443 1.3423932 -0.010028419 0.06917673 -0.046424624 -0.17506288
-0.29661512 -0.24041611 -0.037150536 -0.23018141 0.19154823 -0.14426099 -0.18533744 -0.3085631
-0.55275124 -0.81197065 -0.38491035 -0.46992472 0.547602 0.44220355 0.034605265 -0.17973424
0.2609516 -0.16481605 -0.08186559 -0.024390114 0.055341583 -0.17883694 -0.09213845 0.06883746
-0.032709546 -0.8884856 0.029496625 -0.6316327 -0.8212557 -0.38956684 0.24684633 -0.11341835
0.27896428 -0.07747309 0.45917186 -0.21199723 -0.14158694 0.15445009 -0.05806053 -0.12496253

layer1.bias f4 [128]
00000000: 0628 efbd 8538 493e 1be2 763e 21eb ed3d
00000010: d6a6 edbd 480d 1bbc 5be6 1a3e 3ef8 113e
00000020: 6dbe 40be 6b09 febb 4791 3fbe af51 813e
00000030: 709a b7bd e5c8 91be c574 b93d 34ed 82be
00000040: 0430 033e 9c6f 4e3e 6e61 6e3b 2cf8 afbd
00000050: 7e43 b73d f35e 34bb 782e 913d 5b3a d2bd
00000060: 03b8 a33c 7f7f 42be d65b 73bc 4fd9 6d3e
00000070: b437 22be e465 2c3e 641f 19be 0200 243e
00000080: c13b 0fbc d718 78be 6fb9 b73d 58ae 2ebe
00000090: a1ac 753e b1ab 0cbe adbc 34be 6e0a 20be
000000a0: cfce 1ebb 2529 e53d 9dc8 7abc 8b48 3d3e
000000b0: bbe1 98bd f4e3 433e cb31 4dbe 730c 613e
000000c0: 81ec 38bb 9e04 41bc 93b2 bb3d 1f39 93be
000000d0: 4d71 033d e14e 8a3e a46d 2f3e 535e 903d
000000e0: 3259 e7bd 96dc 0ebe 5635 903c 5bb3 64be
000000f0: 91f5 933e d234 8e3c c59a a43c 3500 16be
00000100: 1cbd 9fbe b976 003e 7af3 2abd 4526 d53c
00000110: d4e6 9c3e ecf9 e5bd 725c 73bd c86d 593e
00000120: 36d2 863e 9b83 22be 3e0d 0ebe 24de 84be
00000130: a33b 53be a8ad f13d a04a e03c 848c 8dbe
00000140: bb55 4e3e 7f2b 843e 20ff aa3e 0ed3 633e
00000150: 7f0b 163e 17f3 243e 8886 13bd b107 20bd
00000160: 804f 1bbe 8fa0 bcbd e9e8 22be c330 84be
00000170: 6c92 53be be84 b1be 9bbe 8f3c 3929 023e
00000180: 4131 49be 7c30 643e daca 15bd 79ba 3dbe
00000190: 6bbc ddbd de7e 96be ece1 d23d 7987 6bbe
000001a0: 7768 b93c 8dbc 08be 711d 9ebe 0d9f f5bd
000001b0: 4ed5 30be 2497 543e ec41 6abe dbaf 2bbe
000001c0: 18dd 88bc b77c 7c3e cdb6 4cbb fc7c 493e
000001d0: e86c 88be 7499 9abb 972b 083e 7255 343e
000001e0: 600d 303d d16a 90bc a608 11be d83b bc3d
000001f0: 5347 9b3e 52e6 073e ffe3 403e aeee 81be
-0.11677556 0.19650467 0.2410969 0.11617113 -0.11604087 -0.009463616 0.15126936 0.14254853
-0.18822642 -0.0077525876 -0.18707763 0.25257632 -0.089650035 -0.28473583 0.09055475 -0.25571597
0.12811285 0.20159763 0.003637399 -0.08592257 0.0894842 -0.0027522414 0.07088941 -0.10265037
0.019985205 -0.18993948 -0.014853438 0.23227428 -0.15841562 0.16835743 -0.14953381 0.16015628
-0.008742274 -0.24228226 0.089709155 -0.17058694 0.23991634 -0.1373737 -0.17650099 -0.15628979
-0.0024232154 0.11189488 -0.015306619 0.18484704 -0.0746493 0.19129926 -0.20038526 0.21977405
-0.002821714 -0.011780886 0.0916492 -0.28754517 0.032090474 0.27013305 0.17131668 0.07049241
-0.112963095 -0.13951334 0.017603558 -0.22334044 0.2889829 0.017359171 0.020093331 -0.14648516
-0.31198967 0.12545289 -0.041736104 0.026019225 0.30644858 -0.112293094 -0.059414335 0.21233284
0.26332253 -0.15870516 -0.13872239 -0.2595073 -0.20628218 0.118007004 0.027379334 -0.27646267
0.20149891 0.25814435 0.3339777 0.2224848 0.14652823 0.16108356 -0.03601697 -0.039069835
-0.15167046 -0.092103116 -0.1590916 -0.25818452 -0.20661324 -0.34671587 0.017546942 0.12711038
-0.19647695 0.2228412 -0.036570407 -0.18528165 -0.108269535 -0.29393667 0.102969974 -0.23000897
0.02263282 -0.13353176 -0.30881837 -0.11993227 -0.1726887 0.2076078 -0.2287671 -0.16766302
-0.016706988 0.2465695 -0.0031236887 0.19676584 -0.2664559 -0.004718 0.13297878 0.1761072
0.042981505 -0.017629059 -0.14163455 0.09191102 0.30327854 0.13271454 0.18836974 -0.2537741

layer2.weight f4 [64, 128]
00000000: 3be2 1a3f a457 a83d e724 043e 4f6f 323e
00000010: 5f1a e63e 7956 3cbf f813 9dbd 22f7 23bc
00000020: a91a 983e 35f3 fa3e 583a a63e af8e b93e
00000030: 3eac 08bf 8766 643d 7de6 d03d 61f7 fa3e
00000040: 98e2 c13d 9c9a 6e3e ed7c 61bf f409 5e3f
00000050: 22e2 9cbe 2fa1 8abf df7d 73bf e867 ca3e
00000060: 6664 1c3d 08c6 eabe 6fbe 2abf e708 313e
00000070: d469 c53e 1f96 a63d 06c7 193f 0c7f 623d
00000080: be57 e5be 9b81 c13e 7c1b 0d3d 8daa 603d
00000090: a873 d23e 4df8 8a3e cb99 483f 94dc fc3e
000000a0: ff43 ddbe 7ef9 8abf 6e91 ce3e a70e 8d3e
000000b0: 29f8 883e e582 933e 64dd f53e 99af 1d3e
000000c0: cde1 38bf 72fd 33be b2ae a93d 3887 4e3f
000000d0: cf8c a83d 6254 613e b761 0a3f 23ce 923e
000000e0: 84ac 6bbe 7565 263f d294 a63a fd8f 6c3e
000000f0: 7de5 0d3e 9402 fcba 385b ca3e c002 e43e
00000100: de95 293f f78f 4f3d 29ca c03d 7199 2abe
00000110: 09ad c43d 6e54 153f 13f8 b1be 6d7c 003e
00000120: 7939 083e 29d9 453f 9289 213f 21f0 083e
00000130: 59de a53e 841d 263e aa05 853c a4c0 153f
00000140: 07aa 843e e785 633e fb05 5d3d e425 f2bf
00000150: 2806 013e f65c 063d 00a6 bbbe e4a3 173f
00000160: c57d c23e 6d2f 043f 2680 043f bf72 203f
00000170: c303 613f c939 0a3e 8e85 bf3e 29e1 413e
00000180: a58c 0c3f 67be f03d 42e7 85be 6c16 a13d
00000190: 05ba cf3e 91c1 463f abd8 b13c d155 503f
000001a0: 7f0c bc3e 2dc3 f33e 73ee 5c3f ad4c 823e
000001b0: 0968 11be dcb1 113e 5b00 053f 2fb0 cf3e
000001c0: c686 dcbe dad8 813d 560f 0fbf c4cc 6e3e
000001d0: f180 103f cdb1 56bf 7d01 263e 11d3 393d
000001e0: 5fc2 413e 5ac9 adbe 5efa 5bbf 552a 6fbe
000001f0: ac3f f03d 643e 773e 9175 983d 53ad 92be
00000200: b8f8 b03e 815e 213c e2a2 183d 8f14 76bd
00000210: 1e31 993d 4595 65bf 9cba 5ebd b0dc 81bc
00000220: 6346 b83d 43ec d3bd 72d4 443c 065b 763e
00000230: 62bb d1be 5258 dd3d 039a 183d b883 dcbe
00000240: 14b0 333e d6a6 9b3e e50a 4bbf 374a c63e
00000250: 7ad8 83bf 884b 84bf 96aa 88bf 6dbe 723f
00000260: 87e6 28bd 90a1 e6bd 92aa ccbe 4ef9 683e
00000270: 702f ae3b fcc1 013e 0f63 823f cd09 253e
00000280: 1bcb e5be b82f db3e f92b b13e 5922 8ebd
00000290: 3819 c53e 18b2 3a3e 7fdb a73f 33eb 9f3d
000002a0: 1d22 26be e924 0cbf 15f8 1a3f f561 f13e
000002b0: c17d 8a3e 047b 973e f27d b33e 152f 773e
000002c0: e3fa f7be ca62 8ebe b505 133e 6c78 a53f
000002d0: 6a1d d33d b85f b43e 7228 0e3f d20b 023f
000002e0: 9c5d 34be 3067 e43e 11ce cdbd 1e6f ba3e
000002f0: e006 0f3e 270e df3d 0b17 3dbe bcf8 323f
00000300: b432 25be 5233 363e 95f2 373e ef88 3f3c
00000310: e681 6e3d 7bda 303d c1da bfbe 7dcd ef3d
00000320: 8941 823e 79a2 b03f f7cc 4b3c 68cb d43e
00000330: 4820 063e 1f8c c93c 0fee 2d3e 7536 38be
00000340: 2906 db3d f353 1b3e ce45 ab3d 5a52 82bf
00000350: 2148 6d3d 391e 443e 19a5 01bf 7827 8b3f
00000360: ebc2 a4be 5705 1d3f 1fcc 2a3f 9e02 b2be
00000370: aeca 5e3f 225a 833d 1127 223f 7ab0 643e
00000380: 5627 cf3d 9467 e23d 63e7 b73d ae13 9d3e
00000390: 3551 9f3e 030d 9f3f 532c 3e3e 7af3 353f
000003a0: 3b10 023e 5f5a af3e b6c7 ad3f 01b7 ef3e
000003b0: 6911 3cbd 4d64 ae3b a3c8 583d ba23 493e
000003c0: a3b6 89be 7f2f e33d ebdb b9be d360 253e
000003d0: 55e2 013c 6941 b8bf a661 c53e 085c 42bc
000003e0: bb3b a53e 87e4 a7be 4071 3ebf 3f37 c9be
000003f0: abf2 223e 2b3a 033f 41f7 e13d d381 6abe
0.6050145 0.08219841 0.12904702 0.17425273 0.44941995 -0.73569447 -0.07669824 -0.0100076515
0.2970784 0.49013677 0.32466388 0.3624167 -0.5338782 0.05576184 0.10200212 0.4901686
0.094670475 0.23301166 -0.88081247 0.8673394 -0.30641276 -1.0830439 -0.9511394 0.395324
0.038181685 -0.4585421 -0.6669683 0.17288552 0.38557303 0.08134102 0.6006931 0.055296943
-0.44793504 0.37794194 0.03445004 0.05485015 0.41103864 0.27142563 0.7835967 0.49387038
-0.4321594 -1.0857389 0.4034533 0.2755024 0.2675183 0.28810802 0.4802047 0.15399016
-0.72219545 -0.1757715 0.082852736 0.8067508 0.08229982 0.22004846 0.5405535 0.28672895
-0.23015028 0.6499856 0.0012709147 0.23101802 0.13857074 -0.0019226843 0.3952272 0.44533348
0.66244304 0.050674405 0.09413559 -0.16660096 0.09603316 0.58331954 -0.34759578 0.12547465
0.13303174 0.77284485 0.6310054 0.13372852 0.323962 0.16222197 0.016238052 0.5849707
0.2591097 0.22219048 0.05396078 -1.8917813 0.12600005 0.0328035 -0.36650085 0.5923445
0.3798658 0.51634866 0.5175804 0.6267509 0.87896365 0.13498606 0.37406582 0.18933548
0.54902107 0.11755066 -0.26152998 0.07865605 0.4057161 0.7763911 0.02170976 0.81380945
0.36728284 0.47609845 0.86301345 0.25449124 -0.14199843 0.14228004 0.5195367 0.40564105
-0.43071574 0.06340189 -0.55882776 0.233203 0.5644675 -0.8386505 0.16211505 0.045367304
0.18921803 -0.33942682 -0.85928905 -0.23355992 0.117308944 0.24144894 0.07444299 -0.2864786
0.34564757 0.009849192 0.037264712 -0.0600782 0.074800715 -0.8968089 -0.054377183 -0.015852302
0.089978 -0.10347798 0.012013542 0.2405816 -0.40963274 0.108078614 0.037256252 -0.43069243
0.17547637 0.30400723 -0.793135 0.38728496 -1.0300438 -1.033555 -1.0677059 0.94821817
-0.041235473 -0.11261284 -0.39973885 0.22751352 0.0053157136 0.12671655 1.018648 0.1611702
-0.4488152 0.42809844 0.3460386 -0.06940145 0.38495803 0.18232 1.311386 0.078085326
-0.1622395 -0.5474382 0.60534793 0.47145048 0.27049068 0.2958604 0.35057026 0.24139054
-0.484336 -0.27809745 0.14357646 1.2927375 0.10308345 0.35229278 0.55530465 0.50799286
-0.17613834 0.44609976 -0.1004907 0.364129 0.13967466 0.10891371 -0.18465821 0.6991079
-0.16132623 0.17793015 0.17963631 0.011690362 0.05822935 0.04317711 -0.37471583 0.11709116
0.25440624 1.3799583 0.012439004 0.41561437 0.13098252 0.024602948 0.16985343 -0.17989524
0.10694534 0.15168743 0.083629236 -1.0181382 0.057930116 0.19152154 -0.50642544 1.087142
-0.3217996 0.6133627 0.66717714 -0.34767622 0.87028015 0.06413676 0.6334086 0.22332945
0.101149246 0.11054912 0.089796804 0.30679077 0.31116644 1.2425846 0.18571596 0.7107464
0.12701504 0.34248635 1.3576572 0.46819308 -0.04591504 0.0053220154 0.052925717 0.19642535
-0.26897153 0.110930435 -0.36300597 0.16150217 0.007927497 -1.4394962 0.38551062 -0.011862762
0.32272133 -0.3279154 -0.74391556 -0.39299962 0.15912883 0.5126063 0.11033488 -0.22901087

layer2.bias f4 [64]
00000000: d89d b53d 0da0 753e 6804 df3d 7a4a f6bd
00000010: 3019 5abc 3255 f53d c4f5 c93d d460 0f3e
00000020: 2a25 afbd 34cc bf3d 53ad 443e 51f0 263e
00000030: d5d9 52bd 24b7 2f3e d436 96bc b6d7 eebc
00000040: 960d e3bc 3561 1b3e b880 093e 0a53 303c
00000050: 63bb c2bc bb4d c6bd d111 c53e 1da0 85bd
00000060: 60a2 c5bd 2be2 adbc ce73 843d a242 80bc
00000070: 31a8 6f3e 6c54 fdbc ecfc 213e cbb4 4c3e
00000080: c0b2 ee3d 7023 d2bc f36e ac3c 72e5 273e
00000090: f656 ce3d 61ed d53d 9e19 643e 14a1 b7be
000000a0: 3ec3 7ebe 6e7f e5bd a396 d93d aed2 4abc
000000b0: ae37 863e 0def 9fbc d554 85bc 8175 173e
000000c0: d8ab 0e3e 0243 e63d 2549 1e3e b1da eabc
000000d0: 6a4b b63e 102b 133e 3022 843e 8bc0 5d3e
000000e0: e2fd 803e e5f7 58bd e42d 17be fddd a43e
000000f0: 95d6 5cbd ad09 8b3e 7d4e 123e b40a 013d
0.08867997 0.23986836 0.10889512 -0.12025924 -0.013311669 0.1197914 0.09861329 0.14001781
-0.0855201 0.093651205 0.19206743 0.16302611 -0.051477272 0.17159706 -0.018336691 -0.029155593
-0.02771644 0.151738 0.13428009 0.010761986 -0.023770994 -0.09682795 0.38490155 -0.0652468
-0.09650111 -0.02122601 0.064674005 -0.015656773 0.23404004 -0.030924045 0.15819138 0.19990842
0.116551876 -0.025651664 0.021048998 0.1639612 0.1007518 0.10445667 0.22275397 -0.3586508
-0.24879166 -0.11205946 0.10624435 -0.0123793315 0.26214355 -0.019523168 -0.016275803 0.14790918
0.1393274 0.112432495 0.1545759 -0.028668733 0.3560441 0.14371896 0.25807333 0.2165548
0.25193697 -0.052970786 -0.147636 0.32200614 -0.05391558 0.2715582 0.14287753 0.031504348

layer3.weight f4 [4, 64]
00000000: 9109 08bf 5ebb 67bf e972 27bf d73f 983f
00000010: c383 2abc bef1 8a3f 1966 0fbf b921 0abf
00000020: e509 113e c6dc 273f 86d7 2dbf 09f8 913f
00000030: b450 e9bc f1b7 4abf 2d8b 9e3c cd14 91ba
00000040: c98e 0fbc c403 21bf 1ef8 0fbf cf66 a4bc
00000050: 8851 55bc f646 263f a8d6 b63f 1fe3 8a3f
00000060: 6ad9 553f 847e 4a3c d867 a03f ebc3 823c
00000070: 1dc4 26bf e15d 3a3f 39d9 85be 7058 80bf
00000080: 47d7 063e 17e6 aa3b eeca 743f 2c22 a03f
00000090: 46d5 1fbf 6d97 08bf 995e 37bf d70c 8b3f
000000a0: 6994 b33f d97b dcbd c690 0fbf 5e77 7dbc
000000b0: 0daf 50bf e498 e9bb da77 7dbc 7c31 0ebf
000000c0: c6ec 19bf 4eea 0cbf 3a0c 18bf a7f2 f5bc
000000d0: 210c aa3f 5d0a 0cbf fd12 ac3f e997 2dbf
000000e0: df3d 87bf da6f 66bc 8ca9 873f 4e54 6fbf
000000f0: c313 c2be db4a f9be 7b79 1bbf be3d 823f
00000100: 7100 1cbf 3d9d d7be 50db 0cbf 35e3 973f
00000110: f959 d6bc 4d7b 703f d692 1dbf 4022 39bf
00000120: 29a9 583f 8ff8 0b3f 48d5 1ebf 01ad 7d3f
00000130: 75fd 9a3c 4016 22bf ec8b 833c bbe0 78bc
00000140: f963 8fbc cb64 21bf fbcc 25bf d4ef 53bc
00000150: 2b97 363d 9ba3 103f 9081 a73f 0a21 8b3f
00000160: 5fa5 713f c030 d9bc c788 8e3f 1b05 0ebc
00000170: b65d eebe 6ac1 803f 18f6 17bf a48e d8be
00000180: 005e 39be e5cc 90bc 44c9 4a3f fcca 7f3f
00000190: 8ae0 1dbf a805 2bbf fbb6 29bf 465c 1e3c
000001a0: 3507 d13f 5b28 aa3e 1984 19bf a53e ce3b
000001b0: 1222 54bf 6a96 1ebc 5a92 223c bf10 3bbf
000001c0: 3b1b 2dbf 7cde 29bf c550 3fbf 3260 8ebb
000001d0: ea52 933f f7ce 62bf 445a 9d3f c281 06bf
000001e0: 835b 7bbf a9e0 eb3a ec49 533f 2aa6 4bbf
000001f0: 4a1c 48bf aed4 3abf 4713 2cbf afe8 a53f
00000200: 906e 41bf e1d0 2fbf e979 3dbf 3e5a ba3f
00000210: 72af 943c c00f 6e3f a1b9 2abf fda3 18bf
00000220: 987b 963f 58bc 2a3f a550 15bf 4d62 853f
00000230: aea3 643c ef15 25bf bda8 933a 416f f33b
00000240: 911f 8d3b b191 08bf e1aa 17bf 42fc 4abb
00000250: 03c8 9d3c f3ed 893f fb37 1d3f b928 803f
00000260: 3f4f 893f e5e8 843c c483 2f3f dddf 8dbc
00000270: cbb3 4bbf 7dd9 883f 8d9e 53bf 66db 2abf
00000280: c301 273f 0241 bb3b 3a81 853f 31ab 533f
00000290: 322e 4ebf 74ad 27bf 4f64 0bbf 6d95 f3be
000002a0: 59ad 2d3f c78f 4e3f cfbe 23bf 8c27 f73b
000002b0: 34ec 26bf 8607 013b 1232 8dbc 2dfe 2ebf
000002c0: d82f 34bf 6952 21bf f3c4 0cbf 60e1 b5bc
000002d0: f14a a73e 99dd 2ebf f8b9 5b3f 79fa 8cbe
000002e0: 4af6 5dbf f214 323c b74f 723f 07e0 08bf
000002f0: 249b 86be 1a4a 52bf 3354 2ebf 5e3d 9b3f
00000300: ec6f 27bf 24ef 08bf c975 1fbf 2a86 853f
00000310: 212a d33c ba35 843f 6a3e 1fbf 1e9f 22bf
00000320: ada0 7f3e 40f2 8b3f d87f 30bf b67b 613f
00000330: 5032 a8bb 2019 18bf ad83 a53c 6f45 b93c
00000340: bafc a1ba 4a45 1ebf a64d 20bf 716e c13c
00000350: ded7 9a3c 7564 563f 53c7 993f 0931 5a3f
00000360: 4153 643f 0383 e6bc 2950 b83f e9c6 703c
00000370: 2e37 5abf db6f 5a3f 61a1 0ebf ffe5 85bf
00000380: e198 293f d463 cf3b 0f93 703f 7a4b 6c3f
00000390: a7e3 1bbf 40d8 18bf 25dc 2bbf 9cfc 9fbe
000003a0: 61ab 523f d316 183f e80b 25bf 55af e0bc
000003b0: 7606 15bf cdd2 443c 48bb 10bc 3673 3cbf
000003c0: c8e7 35bf 7293 19bf f602 14bf cc4e 44bc
000003d0: 1aa6 ae3f 9f0d 10bf 6142 863f 4649 4cbf
000003e0: e428 30bf 1cf8 853c 455d 863f 668b 3fbf
000003f0: 7440 953e b580 51bf abe1 1abf 01d9 9d3f
-0.531396 -0.90520275 -0.65409714 1.1894482 -0.010407391 1.0855024 -0.56015164 -0.53957707
0.1416393 0.6557125 -0.6790699 1.1403819 -0.028480865 -0.7918692 0.019353474 -0.0011068821
-0.00876207 -0.6289637 -0.5623797 -0.020068554 -0.013019927 0.6495203 1.4284258 1.0850562
0.8353487 0.012359265 1.2531691 0.015962562 -0.65142995 0.727995 -0.2614229 -1.0026989
0.1316806 0.005215417 0.95622146 1.2510428 -0.62434804 -0.5335606 -0.7162872 1.0863293
1.4029666 -0.107658096 -0.5608028 -0.015470354 -0.81517106 -0.0071288217 -0.015470469 -0.5554426
-0.6012691 -0.5504502 -0.59393656 -0.030022932 1.3284951 -0.54703313 1.3443295 -0.6780992
-1.0565757 -0.014064753 1.0598617 -0.93488014 -0.37905702 -0.48689923 -0.6073224 1.0175092
-0.60938174 -0.4211215 -0.55022144 1.1866213 -0.02616595 0.9393814 -0.6155218 -0.72317886
0.8463312 0.54676145 -0.6204419 0.9909211 0.018919686 -0.633152 0.01605793 -0.015190299
-0.017503725 -0.6304442 -0.647659 -0.012935597 0.04457776 0.5649964 1.3086414 1.0869458
0.9439296 -0.026512504 1.1135491 -0.008668209 -0.4655587 1.0059025 -0.59359884 -0.42296326
-0.18102264 -0.017675826 0.79213357 0.99919105 -0.61670744 -0.66805506 -0.6629483 0.009665554
1.6330324 0.33233914 -0.5996719 0.006294089 -0.8286449 -0.009679416 0.009922588 -0.7307243
-0.67619675 -0.6635511 -0.7473262 -0.0043449635 1.1509678 -0.88597053 1.2293172 -0.52541745
-0.9818651 0.0017996031 0.8253467 -0.7955042 -0.78168166 -0.72980773 -0.67216915 1.2961634
-0.7555933 -0.686781 -0.74014145 1.455879 0.018150065 0.9299278 -0.666895 -0.59625226
1.1756468 0.6669364 -0.5832618 1.0420624 0.01395504 -0.64486593 0.0011265498 0.007429034
0.0043067415 -0.5334731 -0.59245116 -0.0030973111 0.019260412 1.0775741 0.61413544 1.0012428
1.0727309 0.016224334 0.68560433 -0.01731866 -0.7957122 1.0691372 -0.82663804 -0.66741025
0.65237063 0.0057145366 1.0430062 0.8268309 -0.8053924 -0.65499043 -0.54449934 -0.4757494
0.6784263 0.80688137 -0.63963026 0.007542556 -0.6520417 0.0019688322 -0.01723579 -0.6835659
-0.70385504 -0.6301637 -0.5498802 -0.022202194 0.32674363 -0.6830688 0.8583064 -0.27534845
-0.8670393 0.010869252 0.94652885 -0.5346684 -0.26290238 -0.8214432 -0.6809723 1.2128103
-0.65405154 -0.534899 -0.622891 1.0431569 0.025776925 1.0328896 -0.6220461 -0.63524044
0.24963637 1.0933304 -0.68945074 0.8807939 -0.005132951 -0.5941334 0.02020439 0.022616116
-0.0012358644 -0.61824477 -0.6261848 0.023612233 0.018901762 0.83747035 1.2013954 0.8523107
0.89189535 -0.028138643 1.4399463 0.014695861 -0.8524045 0.8532693 -0.55714995 -1.0460814
0.662489 0.006329039 0.93974394 0.9230267 -0.60894245 -0.5970497 -0.6713279 -0.31247413
0.82292753 0.59409827 -0.6447129 -0.027427355 -0.58212984 0.012013149 -0.008833714 -0.736133
-0.71056795 -0.5999061 -0.5781702 -0.011981677 1.364444 -0.56270784 1.0489007 -0.79799306
-0.68812394 0.01635366 1.0497214 -0.7482208 0.29150736 -0.81837016 -0.6050059 1.2331849

layer3.bias f4 [4]
00000000: 9842 b63e dd36 abbd dfdb 3bbf 3dd7 57bd
0.35597682 -0.08360074 -0.7338237 -0.0526955
