Exported_models/Soft_update_0.999_4_1000.pth (torch, 41119 bytes, 6 tensors)

layer1.weight f4 [128, 8]
000000 e6 19 49 3e 2a 72 96 3e 30 61 e6 be 24 02 47 bf
       0.19638786 0.29383975 -0.44996023 -0.7773764
000010 36 88 e4 3e 80 60 b5 3e 83 9c 99 3d 08 9b 63 3e
       0.4463517 0.35425186 0.07500555 0.22227108
000020 34 53 2e 3e e5 f2 07 3d 33 11 16 3f 65 ed 9d 3f
       0.17023927 0.033190627 0.58619994 1.2338072
000030 bc 07 7e 3c 11 21 28 3d e3 67 a7 3e 94 6f bb 3e
       0.015504774 0.04104716 0.32696447 0.36608565
000040 32 c1 57 3e 07 06 47 3d 9b fa 25 3f 24 ae 72 bf
       0.21069792 0.048589732 0.6483552 -0.9479697
000050 20 69 8e 3e d2 76 2b bd 16 20 22 3e a2 b0 28 3e
       0.2781458 -0.041861363 0.15832552 0.1647363
000060 97 8f 3a be 95 45 da bd 42 3a 02 bf 98 70 10 bd
       -0.18218838 -0.10657803 -0.50870144 -0.035263628
000070 d0 5e 55 bd ce ac 74 be 6a 7e f8 bd 4e 85 c1 3c
       -0.052092373 -0.23894045 -0.121334866 0.023623135
000080 ad c9 47 bc dc a5 37 be 29 d5 fb be 28 31 6f 3f
       -0.012194079 -0.17934364 -0.49186066 0.9343438
000090 83 58 ce bd 8d e9 26 3f 42 7e 30 3e 6e b7 ab bc
       -0.10075476 0.6520012 0.17235664 -0.02096149
0000a0 a8 80 0d 3d cd 9e cc bc 67 c7 c1 bd a3 5a 05 3d
       0.034546524 -0.024978066 -0.09461861 0.03255714
0000b0 3a 03 ee 3d 81 a0 78 3e 6f 9c 12 bd e6 b1 36 3e
       0.11621709 0.24279977 -0.035793718 0.178413
0000c0 c7 4b 9e bc de 2a 00 3f 58 fe 09 3b 1b eb fc be
       -0.019323243 0.5006541 0.0021056142 -0.4939812
0000d0 c6 ba 3a bd 08 9a 8f 3c b0 5b a6 bb 08 73 8e 3e
       -0.045588277 0.017529503 -0.005076848 0.27822137
0000e0 dd 4b aa be f3 45 bb be ed b6 fa bd fb 43 12 bf
       -0.33261004 -0.36576805 -0.122419216 -0.5713498
0000f0 ca 39 e0 3e 9b b5 19 3e 2c f0 5d be 55 a1 20 3d
       0.4379409 0.15010683 -0.2167365 0.03921636
000100 46 9d d5 3e bb e7 91 bf e8 31 fa 3d 81 b2 4a bf
       0.41721553 -1.1398844 0.1221655 -0.79178625
000110 1c 80 db be b7 b8 3b bd cb 21 af 3c 5c 82 1f 3e
       -0.42871177 -0.045830455 0.021378418 0.15577072
000120 ad 49 bb bd e5 9f d2 be 75 a0 37 bf 86 a0 81 be
       -0.09144912 -0.41137615 -0.71729213 -0.25317782
000130 69 9b 2e 3f ab 62 14 3e 87 a1 4c 3c d3 8b 29 3e
       0.6820589 0.14490764 0.012489683 0.16557245
000140 ce 2e eb be b5 6a 48 be 9f 61 c2 be 31 9e 6b be
       -0.45934147 -0.19571956 -0.37965104 -0.23009564
000150 b3 64 3f 3f 4e 7b 9c 3d 2b 51 cd bd d7 61 e8 3d
       0.7476303 0.07640706 -0.10025247 0.113467865
000160 cf 6b 8c bb d0 b3 c7 be 98 48 a3 3d ee 50 0b bf
       -0.0042853127 -0.39004374 0.079728305 -0.54420364
000170 fe 86 09 bf 8b 6c f4 be 54 d6 9c be c3 a2 cb 3d
       -0.53721607 -0.47739062 -0.3063227 0.09943154
000180 3e 55 55 be 57 e4 09 3f 74 b8 00 3f 05 14 28 bd
       -0.20833299 0.53864044 0.50281453 -0.041034717
000190 b1 63 9c be 2d 1f 57 be 27 d4 0f be f9 6a d1 be
       -0.30544809 -0.21007986 -0.14045773 -0.40901926
0001a0 7f 6a 10 3f 52 26 14 bf 26 02 ae 3e 24 3a 19 bf
       0.564125 -0.5787097 0.33986014 -0.5985434
0001b0 4d ae 69 3e 5d 2b 0d 3d 45 6c b8 bb 00 16 fe 3d
       0.22820397 0.034465183 -0.005628141 0.1240654
0001c0 2f b4 48 bc 37 29 06 3f 84 73 8b 3d 39 8b 98 be
       -0.01224999 0.5240664 0.06809142 -0.29793718
0001d0 ab ae 97 3d 57 f0 32 3d 40 6a 5c 3d a0 1d 20 3e
       0.07406362 0.043686237 0.053812265 0.15636301
0001e0 04 5e 3d 3d 3b cd 0e 3f 59 25 b9 3d 1a 60 f0 be
       0.04623224 0.55781907 0.090403266 -0.4694832
0001f0 b5 64 75 bd 83 e1 85 bd c5 77 1e 3e 88 da 13 3e
       -0.059910495 -0.065371536 0.15475376 0.14438832
000200 be c6 27 3d b5 92 1c 3f ea fd 01 be fa a5 0b bf
       0.04096102 0.6116136 -0.12694517 -0.54550135
000210 d8 2d 81 bc 37 57 6b 3d ab 39 57 bc 9b 9e be 3e
       -0.01576893 0.05745622 -0.013136308 0.3723038
000220 1d 60 ca 3c 4c 44 70 bd f4 0a 74 3e 73 e8 a0 bf
       0.024704034 -0.058658883 0.23832303 -1.2570938
000230 e5 26 e9 3d 7a 02 7a bd 1d 0b 4f bf d9 db 08 3e
       0.11384372 -0.061037518 -0.8087633 0.13365115
000240 18 dc 06 3f 6b 7a ab be d0 2e 91 3e 74 4c 09 be
       0.52679586 -0.33491835 0.28356028 -0.13408071
000250 6d 40 92 be ef 9e 07 3e ac b5 00 be ed 09 2b be
       -0.28564778 0.13244222 -0.12569302 -0.16703005
000260 0c 2c fe 3b f2 cc 1c 3f 37 12 84 3d 4a aa fa be
       0.0077567156 0.6125022 0.06448787 -0.48958045
000270 8b c0 96 be 9d 5a ba 3c 39 22 85 3e 22 3f f8 bd
       -0.29443774 0.022748286 0.26002672 -0.12121417
000280 34 a0 66 3d 0c 4f a9 bf 89 40 96 be 4c 1b 53 bf
       0.056305125 -1.3227248 -0.2934611 -0.82463527
000290 97 dc 0a 3b 1f 83 a3 3c 5b 1b 03 be bd 51 8b bd
       0.002118861 0.019959984 -0.12803404 -0.068027
0002a0 69 09 20 be 2a 7e a9 bd 13 73 ef 3e 4e 66 4e bd
       -0.1562859 -0.08276017 0.46767482 -0.050390534
0002b0 0f 6e 01 bf 59 93 c6 be 2d 39 84 3c 8b 69 f7 bd
       -0.5055856 -0.38784292 0.016140545 -0.120806776
0002c0 89 eb a8 3e 1a f9 55 bc 9c e4 0d 3e 25 69 24 3d
       0.329922 -0.013059879 0.13856739 0.040139336
0002d0 34 38 06 bf 75 aa 84 be c3 4f a1 be 34 d2 50 3e
       -0.5242951 -0.25911298 -0.31506166 0.20392686
0002e0 9e e6 ad 3e 42 49 32 be 0c 5c 1c 3e 1a 25 b2 bd
       0.3396501 -0.17410758 0.15269488 -0.08698483
0002f0 5b 09 f6 be a6 af e3 be 28 8b 99 be ba 41 fa be
       -0.48054013 -0.44469947 -0.2998898 -0.4887827
000300 e6 47 9b bc 49 1d 01 bf f0 9e 47 bf d0 7b c8 be
       -0.018955182 -0.5043531 -0.77976894 -0.3915696
000310 fd b4 a8 3e a3 a3 98 bc e0 95 2b 3d 41 bd e7 3d
       0.32950583 -0.018632716 0.04189098 0.11315394
000320 71 08 c8 3d 84 70 cb be 0c 6f 05 bf 43 3c 25 3e
       0.09767235 -0.3973428 -0.5212257 0.1613627
000330 e3 a2 21 bf ad ee 8a 3e 7c 9c 88 3e 40 80 07 3e
       -0.6313917 0.2713522 0.26681888 0.13232517
000340 13 ab 96 bc d9 13 da 3d 7e 09 90 bc 33 87 06 3d
       -0.018392121 0.10648317 -0.017582651 0.03284378
000350 b7 45 52 3e 37 0f bc 3e 14 5a 8d 3d 7b d2 f5 be
       0.20534407 0.36730358 0.06901947 -0.48012146
000360 ea 29 87 3e 47 1b 4b bf 44 70 08 bf 51 4d 10 3c
       0.26399165 -0.79338497 -0.53296304 0.008807496
000370 5e 93 23 bf 63 02 cd 3e 6f fd b6 bd 36 48 88 3e
       -0.6389674 0.40040883 -0.08935057 0.26617593
000380 46 19 51 be d1 9e 1d be e6 a2 e0 be 85 b9 f4 3c
       -0.20419797 -0.15392615 -0.43874282 0.029873619
000390 55 53 a8 3e f2 c4 99 3e 2b d3 0c bf 6f 64 0b bf
       0.32876077 0.3003307 -0.55009717 -0.54450125
0003a0 b2 96 61 3f d5 40 02 be ea f7 ee 3d 95 9c 5b 3d
       0.8812057 -0.12720044 0.116683796 0.053616125
0003b0 33 57 1d bf ae 28 b4 bd 08 4f 14 3d 57 f6 0d be
       -0.6146118 -0.087968215 0.036208183 -0.13863502
0003c0 a9 68 ea 3c 60 7b ef 3e 42 ea 37 bd e4 79 86 bd
       0.028614359 0.46773815 -0.04490114 -0.065662175
0003d0 a1 ca 1d bf 61 d9 1d 3f 19 27 99 be 7d 08 8c 3d
       -0.6163731 0.6165982 -0.29912642 0.068375565
0003e0 75 91 6f bc 30 bb 02 3d ed 87 45 bf c5 d3 13 3e
       -0.014622082 0.031916797 -0.7716053 0.14436252
0003f0 6a 43 13 3f a5 d6 1d bc b1 6e f8 bd c8 2d 35 3c
       0.5752474 -0.009633695 -0.12130488 0.011058278

layer1.bias f4 [128]
000000 8a 74 af 3d da 0d 89 bc 8c 8e 03 3e 73 78 b0 3d
       0.0856715 -0.016730238 0.12847346 0.08616724
000010 35 30 2c be 59 0d 80 3d 88 3b bf 3e 81 c7 d1 3d
       -0.16815265 0.06252546 0.37350106 0.102431305
000020 c4 57 86 be 7b 49 33 be 87 06 30 3c de 95 a2 be
       -0.26238835 -0.175085 0.010743744 -0.31754965
000030 8d 43 7e bd e1 d2 27 be 9d 1a 9b 3e 60 01 cd 3e
       -0.06207614 -0.16389038 0.30293742 0.40040112
000040 3f fa be 3e ee 9b 63 bc c3 a8 07 be 62 70 bf 3e
       0.37300298 -0.013892157 -0.13247971 0.3739043
000050 ed a2 06 be ed 87 0b bf 5b 3f d0 3d 88 f7 df 3d
       -0.13148089 -0.5450428 0.10168334 0.10935885
000060 ab e8 22 be 97 73 23 be c4 77 87 be 9f 35 93 bd
       -0.15909068 -0.15962063 -0.2645856 -0.07187962
000070 71 73 1c 3e d4 f9 a4 3d bf 60 01 3d ce 8f e5 3d
       0.15278412 0.080554634 0.031586405 0.11209069
000080 91 ff 4f be 28 fa 84 be 55 83 eb 3e 5a 07 00 3e
       -0.20312335 -0.25972104 0.45998636 0.12502804
000090 fa 0d 09 bb fe fc aa 3e 26 f1 11 3d 3c d9 66 bc
       -0.0020912872 0.33396143 0.035630368 -0.014089879
0000a0 86 37 47 be 51 92 3d be 8b 2a 89 be 63 60 3e 3e
       -0.19454774 -0.18512847 -0.2679027 0.18591456
0000b0 84 50 a5 be 72 5d f7 3e c6 23 1a 3e 28 f2 7e 3e
       -0.3228799 0.4831348 0.15052709 0.24897063
0000c0 52 c7 83 be 32 b0 f6 bd 67 c8 ba bb 44 bc 26 3d
       -0.25738007 -0.12045325 -0.0057001594 0.040706888
0000d0 f6 ab cc 3e 58 dd 0a 3a 03 ae 79 be 0b 9a 8c be
       0.39974946 0.0005297265 -0.24382786 -0.27461275
0000e0 8a f7 53 be 19 fe 20 3e f7 04 3c 3e 79 38 d7 3d
       -0.20699897 0.1572193 0.18361269 0.10508818
0000f0 2d 1c 89 be 86 0f 78 be 3c cd c2 3d 40 85 1d be
       -0.2677931 -0.24224672 0.095118016 -0.15382862
000100 b2 d7 63 be 44 21 80 3e a5 c8 47 bd 3d 00 c1 be
       -0.2225025 0.2502538 -0.048775334 -0.37695494
000110 74 98 3e 3e 3f 78 1f be ad 04 ff 3c 8d b9 b4 3c
       0.18612844 -0.15573214 0.03113016 0.022061134
000120 80 7f c4 3d 15 bf ca 3d f5 fb 5b be 90 d6 80 3e
       0.09594631 0.09899727 -0.21482833 0.25163698
000130 35 ba a5 be 45 45 a4 be 4a 09 da 3d f5 c4 9c 3d
       -0.32368627 -0.32084098 0.10646303 0.07654754
000140 e3 9c d8 bc f3 9e 0b 3d 48 92 9a bd b6 da c5 be
       -0.026441997 0.034087133 -0.07547432 -0.38643426
000150 bd cb 86 bc 8b fd 34 3d 6f 9b 9d 3c bc 68 73 3d
       -0.016454572 0.04418711 0.019239156 0.059426054
000160 58 8b 2e be 3c 9f cc bc 6c 09 1b bf 48 ff c6 3d
       -0.17045343 -0.024978273 -0.6056125 0.0971666
000170 ca c9 3b be 30 a1 c0 be 16 45 10 3d 46 9a 05 3e
       -0.18338695 -0.37622976 0.035222135 0.13047132
000180 d9 25 0c bc a9 f2 62 be 48 f8 37 be 8d 58 4d be
       -0.008553945 -0.2216288 -0.17965806 -0.2005331
000190 0d 11 23 be 98 94 ba 3d ad ef 16 3e 37 49 92 be
       -0.15924473 0.09110373 0.14739867 -0.28571483
0001a0 64 bd 32 bc f7 5a 9e be 15 18 04 bf 7d 77 1b 3e
       -0.010909412 -0.30928776 -0.51599246 0.151823
0001b0 09 02 43 be 36 5d f9 bb ce 15 9f bb fb 57 11 be
       -0.19043745 -0.0076099886 -0.0048548942 -0.14193718
0001c0 d4 da e3 3c 5b 61 a2 be 15 6b 68 be 8c 70 b0 bc
       0.027814306 -0.317149 -0.22697099 -0.021538042
0001d0 06 81 96 3c 4a b4 8d be 27 8e 39 3e 0f 5d 48 be
       0.01837207 -0.27676612 0.18120633 -0.19566749
0001e0 b4 a7 0b 3d 8b a4 d8 3d 7e c9 57 3e bc 69 be be
       0.03409548 0.10578259 0.21072957 -0.37190044
0001f0 8e 6b 16 3e 8f 61 b8 3e 1f 1e a0 be 1b bf 65 3e
       0.14689466 0.3601193 -0.3127298 0.22436182

layer2.weight f4 [64, 128]
000000 e1 f5 c1 3e ac 6d 93 3e d2 a0 02 3f 2c 8a 1b bd
       0.37882903 0.2879461 0.5102664 -0.037973568
000010 06 ab 51 be 18 0c 96 3a ce dc ba 3e 52 a3 27 be
       -0.20475397 0.0011447696 0.36496586 -0.16370896
000020 59 58 75 bf 66 d2 d4 be b8 a3 d2 bc 56 95 76 bf
       -0.9583793 -0.4156677 -0.025712833 -0.9632162
000030 78 e8 0f 3f 27 05 da be 4f ab 87 3e 14 a8 aa 3e
       0.56214094 -0.42582056 0.26497886 0.33331358
000040 37 5c d4 3e ab 9a a6 3f b6 47 8b be 83 70 a4 3e
       0.41476604 1.3015951 -0.2720315 0.3211709
000050 af bb 88 bf 29 87 9f bf cb 17 9c bd f2 93 fe be
       -1.0682276 -1.2463123 -0.07621726 -0.49722248
000060 6e d3 ce be ae 42 34 3e 91 38 04 bf e5 85 57 3f
       -0.40395683 0.17603561 -0.51648813 0.8418868
000070 99 a4 f5 be de ed 34 bf ad 68 04 3f 34 a0 ba bd
       -0.4797714 -0.70675457 0.5172222 -0.091125876
000080 92 f3 cc bf b8 9a 93 bf 4c 96 ba 3e 70 a0 7d 3f
       -1.6011832 -1.1531591 0.36442792 0.99072933
000090 ed 01 95 3e 92 39 6b 3e bc 14 84 3f 0c 18 91 3e
       0.29103032 0.2297118 1.0318828 0.2833866
0000a0 37 f3 a3 bd 94 68 5b bf 27 1d 44 bf 95 ea 9e 3e
       -0.08005374 -0.8570645 -0.7660698 0.31038347
0000b0 51 44 75 bf cf 50 af 3e 98 1c 48 be f2 03 c0 3e
       -0.9580737 0.3424134 -0.19542158 0.3750301
0000c0 e9 a7 a0 bf ef 2f 3d 3f 07 ee e9 3f 37 8b 6d 3f
       -1.2551242 0.73901266 1.8275765 0.9279055
0000d0 4a 94 42 3e c2 28 52 3f a5 08 45 bf 20 ca 8e bf
       0.1900188 0.8209344 -0.76966316 -1.1155434
0000e0 17 37 16 be 47 e0 5c be 0b 97 11 3f fd 4a 30 be
       -0.14669453 -0.2156993 0.568711 -0.17216106
0000f0 13 fa 0e bf d3 50 95 3d 13 14 c0 3e bb c9 fb be
       -0.5585033 0.072908066 0.37515315 -0.49177346
000100 c9 88 2c bf 64 87 bd 3e e9 b4 8d 3c 79 b4 84 bf
       -0.6739622 0.37017357 0.017298179 -1.0367576
000110 37 0d ba 3e e3 6c d0 be e0 86 c0 3d ee a2 60 3f
       0.36338207 -0.40708074 0.09400725 0.8774861
000120 e9 77 b0 be 03 d5 be 3e 68 f4 59 bd 2d d8 b5 3e
       -0.34466484 0.3727189 -0.0532116 0.35516492
000130 9e 55 68 be f1 cd f3 be 0c 2d dd 3e e6 25 1a 3f
       -0.2268891 -0.47618058 0.4319843 0.6021408
000140 d4 f9 28 3d 6f d1 79 3e 58 21 83 3f 12 9e 9a bf
       0.04125388 0.24396299 1.0244551 -1.2079489
000150 08 43 97 3b d0 00 28 3e 00 5c 93 3e ec be 9d 3f
       0.004616145 0.1640656 0.28781128 1.232389
000160 71 7d 54 bf 70 63 35 3f 69 a4 88 bf 38 a0 c1 be
       -0.8300391 0.70854855 -1.0675174 -0.3781755
000170 bf 29 f4 be 1d b8 10 bf 87 7b f1 3e f0 b3 65 be
       -0.476881 -0.56530935 0.47164556 -0.22431922
000180 dd 2b ce 3d eb 6a 2f bf 7c 2c 2f bf 05 38 da be
       0.1006696 -0.6852252 -0.6842725 -0.42620865
000190 37 a1 87 be da 71 04 bd 17 56 f4 bd 37 48 dc be
       -0.26490185 -0.03233514 -0.11930483 -0.43023846
0001a0 42 34 02 3f d8 d7 9e bf 82 2f a3 bf 60 82 e2 bd
       0.5086099 -1.240962 -1.2748873 -0.11060023
0001b0 b7 5b 32 3d 32 8f 2d 3f 5c bd 76 3f d0 34 0c bf
       0.043544497 0.67796624 0.9638269 -0.54768085
0001c0 a2 ce 17 3f 20 c6 83 bf df 5d 2e 3f 77 48 5e 3f
       0.5929967 -1.0294838 0.68111986 0.8682932
0001d0 3d da e4 3f 1c 9f f7 be 4e 3f c8 3d 19 7c 21 3f
       1.7879101 -0.48363578 0.097776994 0.63079983
0001e0 5c d6 23 3f 29 d3 6d 3d 3e a7 a5 3e 82 2a 13 bf
       0.6399896 0.058062706 0.32354158 -0.57486737
0001f0 cf 44 60 3f 3b 15 d5 3e e3 29 47 bf f6 c0 a2 bd
       0.87604994 0.4161776 -0.7779829 -0.07946961
000200 cc 3b cb bb 09 23 20 bf 25 a9 8c 3e 50 30 14 be
       -0.0062021967 -0.6255346 0.27472797 -0.14471555
000210 9f cf 03 bf 47 4f 10 3c 99 f1 fa bd 70 40 d3 be
       -0.5148868 0.008807964 -0.12253112 -0.412601
000220 12 45 2e be 79 ba ec bd 0e 89 04 bf 7b 53 df be
       -0.17018536 -0.11559004 -0.5177163 -0.43618378
000230 69 c8 85 be 71 e8 0a bf e1 8f d7 3d e7 90 4b 3e
       -0.26129463 -0.5426093 0.105254896 0.19879495
000240 0d ab 47 bd b5 57 7e bf 60 97 49 3e 6d f4 a7 3e
       -0.04874711 -0.9935258 0.19686651 0.3280367
000250 d7 6e e6 be 78 92 5d be 0d d7 25 bf 78 30 de 3c
       -0.4500644 -0.21637905 -0.64781266 0.027122721
000260 a3 39 4c be 04 c5 05 bf 86 0f 87 3e 8b ce 8a bd
       -0.19943862 -0.52253747 0.2637903 -0.06777676
000270 f7 f0 a2 3e 56 bc ac bb 87 cb 84 3e 18 05 a0 3d
       0.31824467 -0.005271475 0.2593653 0.078134716
000280 c3 f1 55 3f 61 89 71 3c 9c 6f a3 3d c5 7b e6 3e
       0.83572024 0.014742226 0.07980272 0.45016304
000290 1b 45 89 3d 60 86 78 bd 26 70 88 bf e7 f3 13 be
       0.06702634 -0.060675025 -1.0659225 -0.1444851
0002a0 3b e8 f7 be 10 1e 51 3d 33 fd a8 be d4 0a 20 be
       -0.48419365 0.05105406 -0.33005676 -0.1562913
0002b0 75 34 86 3e 63 3a 28 3e bb 13 8b bf a5 c4 6b 3e
       0.26211897 0.16428523 -1.0865396 0.23024233
0002c0 6c 0e 5b bd 9b 9d 5b 3e 51 ac 9b 3e a8 71 0d bc
       -0.05348055 0.2144684 0.30404904 -0.008633055
0002d0 bf bc f2 3d 48 d5 26 be dd 8b 5a be a2 e3 8d be
       0.11852407 -0.16292298 -0.21342416 -0.27712733
0002e0 25 91 6c 3e e3 bd 92 bf 79 a0 d9 3e 31 07 a0 3e
       0.23102243 -1.1464199 0.42505243 0.31255487
0002f0 9d ad 29 bf de 54 b1 be c1 88 45 bf 9c 7a 23 3e
       -0.6628054 -0.3463506 -0.77161795 0.1596474
000300 b8 ed ae 3d 3d 94 b1 3e 7b 7b 5e bc d2 69 72 be
       0.08541435 0.3468341 -0.013579245 -0.2367318
000310 63 47 2e 3e d3 e0 c4 3e 72 f4 67 3f bd 80 43 be
       0.1701942 0.38452777 0.9060737 -0.19092079
000320 1a 2f be 3e 65 74 ac 3e cf 68 5f 3e 57 29 22 3e
       0.3714531 0.33682552 0.21817325 0.15836082
000330 1e 3a 88 be 84 63 d9 3d 11 4a e2 be 75 f4 87 3d
       -0.2660684 0.10614684 -0.44197133 0.06638423
000340 69 6d 8a 3e 1e 02 74 bf ae 7d e1 3e fd 8f a4 be
       0.27036598 -0.9531573 0.44041198 -0.32141104
000350 38 be 45 3e bd 49 37 be 41 e4 5b 3d 7a d9 39 bd
       0.19310844 -0.17899223 0.053684477 -0.045373417
000360 77 c8 23 3e 79 b4 ec bf b2 41 e5 be ab f6 d1 3e
       0.1599444 -1.8492576 -0.44776684 0.41008505
000370 79 6f 3e bf 20 1e 0e be 60 3d a2 3e d6 9b a6 3d
       -0.74388844 -0.1387868 0.3168745 0.08135192
000380 d5 71 c6 3e 9e 04 15 be bc f3 b8 3e 49 bf d0 be
       0.38758722 -0.14552543 0.36123455 -0.4077094
000390 76 bd 97 be 96 6d a7 be f3 2b 5b be 1c 7f cb bd
       -0.29636735 -0.32700795 -0.21403484 -0.099363536
0003a0 58 78 d8 b9 d9 96 bc be 69 ef db be 3d 7b fa be
       -0.00041288394 -0.36833838 -0.42956093 -0.48922148
0003b0 ab 10 62 be 2f 3a e0 bf b8 59 c8 3e c8 fc 03 bf
       -0.22076671 -1.7517756 0.3913095 -0.5155759
0003c0 90 eb de be 34 11 88 3e 5f c5 a5 bf b2 30 d1 3e
       -0.43539095 0.26575625 -1.2950858 0.40857464
0003d0 39 b6 9a 3e de c7 a5 be d9 7e 0f be 31 0a a5 3e
       0.3021715 -0.3237905 -0.14013232 0.32234338
0003e0 78 48 75 3e d8 f5 ee bd 78 b3 24 3e e6 f2 cc be
       0.23953426 -0.11667985 0.16084087 -0.40029067
0003f0 6d 05 bd 3e 94 db 3b 3d f8 60 5e 3d db e0 95 3e
       0.36918202 0.045863703 0.054291695 0.29273114

layer2.bias f4 [64]
000000 e8 37 ab 3e 20 75 6c 3e 1c 84 8d 3d ee 33 b9 3b
       0.3344109 0.23091555 0.069099635 0.0056519425
000010 3e c0 8b 3a 05 50 b5 bb f0 3d ae bc b2 7f e1 3d
       0.0010662151 -0.0055332207 -0.021269768 0.11010684
000020 38 f4 a1 3d e0 91 2c bc f0 dd 4d bd 49 ae f3 3c
       0.07907909 -0.010532826 -0.050260484 0.029746192
000030 1f 40 b5 3c 3f 4b cb 3d 5c 24 db 3d ba aa 6e 3d
       0.022125302 0.099264614 0.107002944 0.058268286
000040 01 6f 40 bc 57 4f 11 3d 9e 79 da 3d f5 39 dd 3e
       -0.011745215 0.035476055 0.10667728 0.4320828
000050 65 37 b0 3d d1 71 79 bc fc 27 13 3e 29 ea 2e 3e
       0.08604316 -0.01522489 0.14370722 0.17081513
000060 2b 9c e7 3d b7 3a b2 3e 09 96 a8 3d 56 55 d3 3e
       0.113090836 0.3481042 0.08231742 0.41276044
000070 ea 79 4b 3d 90 b7 93 3d 31 42 87 bb 6f 3c 1c 3e
       0.049676813 0.07212746 -0.0041277637 0.15257429
000080 75 25 dc 3d 21 43 cc 3e 09 cb 94 3d d9 7b 8a 3e
       0.10749332 0.39894965 0.072652884 0.27047613
000090 b9 15 a1 bd d9 bf 1d bc 63 eb 08 3d e8 64 76 be
       -0.078654714 -0.00962826 0.033427607 -0.2406193
0000a0 2b 05 76 be 04 ff 96 3d 26 3e 86 bd 85 33 80 3e
       -0.24025409 0.07372859 -0.065548226 0.25039306
0000b0 80 cc 43 bc 79 60 4c 3e ae 0d 10 3e 03 56 d6 3e
       -0.011950612 0.19958676 0.14067718 0.41862497
0000c0 7e 76 7b bb 43 eb 8f 3d 74 05 65 bb 84 54 9f 3c
       -0.0038370187 0.070272945 -0.0034945877 0.01944948
0000d0 31 ef 0f 3d d5 3f b5 3d 9a 72 d3 3e ea cb f8 bb
       0.03514022 0.088500656 0.41298372 -0.007592668
0000e0 9d 11 8f bd 26 07 13 3e 3f 06 46 3d 09 69 f2 bd
       -0.06985781 0.14358196 0.0483458 -0.1183644
0000f0 a9 72 d2 3d ba 82 53 3d e3 b5 5c 3d 69 84 ce 3e
       0.10275776 0.051638342 0.0538844 0.40335396

layer3.weight f4 [4, 64]
000000 94 e4 99 3f 7f e1 b2 3f ca 2c 4e bf f4 24 48 bf
       1.2022882 1.3975066 -0.8053709 -0.78181386
000010 19 e8 c0 bc da 4b 3d bf f1 5a a2 3c b2 9b 52 bf
       -0.023548173 -0.73943865 0.019818755 -0.8226882
000020 c9 9b 58 bf d3 df 1f 3c d2 50 18 bd c9 2f 24 bf
       -0.8461271 0.009757954 -0.03718645 -0.64135414
000030 78 d6 45 bf 86 7c 7e bf 86 dc 4f bf 97 96 32 3e
       -0.7728038 -0.9940876 -0.8119587 0.17440258
000040 cf 65 c4 3c af 2c 27 bf 34 1e 1f bf ac f9 91 3f
       0.023974327 -0.65302557 -0.6215546 1.1404319
000050 1c 9d 4c bf 07 f3 41 3c c8 03 5b bf 98 ff 30 bf
       -0.7992723 0.011837727 -0.85552645 -0.69140005
000060 5e 71 69 bf a1 87 8d 3f 46 f1 55 bf 42 2d 86 3f
       -0.9118861 1.1057016 -0.8357128 1.0482562
000070 88 2a 68 3e f2 13 5f bf 75 bb 84 bc 80 82 fb 3e
       0.22672474 -0.8713981 -0.016202668 0.49123
000080 15 c5 2f bf 8e af 90 3f 1f 7b 4f bf ba 59 96 3f
       -0.686601 1.1303575 -0.8104724 1.1746132
000090 73 24 b6 3f fd 69 69 bc 75 a8 19 bf df d5 8f bd
       1.4229873 -0.014246461 -0.6002267 -0.070232145
0000a0 30 81 65 3e 61 29 41 bf ae 94 51 bf 47 2f d2 bc
       0.22412562 -0.75453764 -0.8186749 -0.02565731
0000b0 fb db 9c bb 9a 93 87 3f 58 2f 85 3e ee 0c a6 3f
       -0.004786966 1.059192 0.26012683 1.2972696
0000c0 01 07 d3 3b 6c d1 35 3e de 5f 38 3c 9e 4a 2d 3e
       0.006440044 0.1775567 0.011253325 0.16922995
0000d0 7e f9 44 bf e5 f3 3d bf 32 ec 91 3f ee df 4e bf
       -0.76943195 -0.7420028 1.1400206 -0.8081044
0000e0 26 e2 bf bf 67 94 68 bf a6 b0 51 bf 0e 99 06 bf
       -1.499089 -0.90851444 -0.8191017 -0.5257729
0000f0 81 6e 56 bf 5b 4b 0e bf ed 0f 63 bf 98 f9 8f 3f
       -0.83762366 -0.55583733 -0.88696176 1.1248045
000100 79 22 86 3f ac e6 91 3f bb ea 32 bf 56 49 a3 bf
       1.047927 1.139852 -0.6988942 -1.2756755
000110 ec 70 c5 3c c0 02 41 bf cb 65 76 ba 7e dc 80 bf
       0.024101697 -0.7539482 -0.00093993236 -1.0067289
000120 b6 af 4f bf fe f4 da 3c d3 b2 50 3b 97 0a 85 be
       -0.8112749 0.02672815 0.0031844869 -0.25984642
000130 97 a6 2f bf 7d 09 ed be 70 cb 45 bf 7a 5a 5c be
       -0.6861357 -0.462963 -0.77263546 -0.21518889
000140 df 40 c0 bc 07 7b 21 bf 2d d6 1f bf 20 ec 97 3f
       -0.023468433 -0.6307835 -0.6243618 1.1868935
000150 12 52 5d bf cf a9 a7 bc fa ba 6f bf 2a 2e 45 bf
       -0.86453354 -0.020466713 -0.9364468 -0.77023566
000160 f1 1a 92 bf e5 8a 76 3f 37 ef 42 bf 87 14 91 3f
       -1.1414472 0.96305686 -0.7614626 1.133439
000170 2c 5d 09 3f 4b 10 65 bf 35 6c 9e 3b 45 72 3c 3f
       0.53657794 -0.89477986 0.0048346766 0.7361186
000180 ae ed 50 bf d7 59 8d 3f 1e 11 51 bf 59 03 0b 3f
       -0.8161267 1.1043042 -0.81666744 0.54301983
000190 50 8c a3 be a9 3d f4 3b 2e 64 49 bf cf d2 43 3b
       -0.31942987 0.0074536395 -0.7866849 0.002988029
0001a0 b8 a6 89 3d d7 81 4d bf e5 d6 ba be b5 80 04 bf
       0.06721252 -0.80276245 -0.36492077 -0.5175889
0001b0 a1 b4 e3 3b 7d 94 c8 3f 57 6b 69 3e 67 97 8c 3f
       0.006949023 1.5670315 0.22794853 1.0983704
0001c0 aa 26 cf bc 67 32 83 3f e5 9d f4 bb 49 62 44 3f
       -0.025286991 1.0249757 -0.0074651116 0.7671247
0001d0 43 60 54 bf 42 98 62 bf 7f cb 92 3f 64 15 2a be
       -0.82959384 -0.88513577 1.1468352 -0.16609722
0001e0 ed 82 5a bf 58 9e 46 bf 54 0b c8 bf 9c 9b b9 be
       -0.85356027 -0.77585363 -1.5628457 -0.36251533
0001f0 e4 96 71 bf fe f6 20 bf 74 f8 7d bf 2d 9b 8c 3f
       -0.94370866 -0.6287688 -0.99207234 1.0984856
000200 7a 59 a1 3f 35 45 59 3d 97 6d 38 bf d5 84 37 bf
       1.2605431 0.053044517 -0.7204222 -0.7168706
000210 6c 0e 72 bb 9a 8c d4 be aa 6f 36 bb 07 a4 60 bf
       -0.0036934866 -0.4151352 -0.0027837553 -0.87750286
000220 e6 8a 30 bf cc b1 6d bc 87 0a 06 bd b5 e9 2e bf
       -0.6896194 -0.014507722 -0.032724883 -0.6832536
000230 89 51 3d bf d3 4d 77 bf ae 86 34 bf 37 8f 85 3f
       -0.7395254 -0.96603125 -0.70518005 1.0434331
000240 5c 96 7d 3c e1 5d 31 bf 10 fe 88 bf 5e 85 69 3f
       0.015477743 -0.6928387 -1.0702534 0.9121913
000250 a7 c0 1e bf 09 15 fc 3b 34 3c cc bf 87 41 c5 bf
       -0.62012714 0.0076929373 -1.5955873 -1.5410622
000260 46 4a 2e bf 7f c1 91 3f 15 4d 56 bf 58 4b 61 3f
       -0.6808208 1.1387175 -0.8371137 0.8800559
000270 a7 7c 76 bf 96 f8 40 bf 70 b3 f4 3a bc ab 2d 3f
       -0.96283954 -0.7537931 0.0018669199 0.6784017
000280 01 5f 4a bf 4a 02 74 3f a7 c1 20 bf a1 41 b1 3f
       -0.79051214 0.9531599 -0.6279549 1.3848153
000290 52 8c 2c 3f cf f5 97 3b 7a b8 4d bf a5 e9 2f bf
       0.6740161 0.004637457 -0.80359614 -0.6871589
0002a0 a3 05 6c bf 98 de 36 bf c3 53 94 bd ac 8b a7 3f
       -0.921961 -0.714334 -0.07242539 1.30895
0002b0 db 29 cb 3a 85 bc 99 3f 29 ab b9 3f 36 4a 73 3f
       0.0015500145 1.2010657 1.4505359 0.9503511
0002c0 b0 39 37 bc e5 60 49 3f f2 e6 9f 3a b5 8c 38 3f
       -0.011183187 0.78663474 0.0012199564 0.720897
0002d0 73 7d 13 bf e1 58 4a bf b0 36 70 3f 85 23 de be
       -0.57613295 -0.7904187 0.93833447 -0.43386474
0002e0 73 05 61 bf 15 b2 a8 bf 7b 67 08 bf 63 79 64 3f
       -0.8789894 -1.3179346 -0.532829 0.8924772
0002f0 d8 10 52 bf fb b0 40 bf a7 2c 0c bf b9 e7 71 3f
       -0.8205695 -0.7527005 -0.54755634 0.94494206
000300 e5 7c 8c 3f 5e 0d 95 3e 72 6f 36 bf a5 d3 b8 be
       1.0975615 0.2911176 -0.712638 -0.36098972
000310 ca fd 8f 3c 87 06 52 bf 88 89 2f 3c 37 9e 35 bf
       0.01757707 -0.8204121 0.010713942 -0.7094454
000320 3f 11 18 bf 72 68 70 bc fb 8c 6a 3b 72 99 76 bf
       -0.59401315 -0.014673339 0.0035789597 -0.9632789
000330 44 ed 3a bf d5 9c a2 bf fd 01 0b bf 9b 74 94 be
       -0.7301829 -1.2704111 -0.5429991 -0.28995213
000340 a7 04 ea 39 da 60 42 bf b2 8f 18 bf 73 be 8c 3f
       0.00044635424 -0.75929034 -0.5959426 1.099562
000350 22 bf 0e bf 07 f1 cd 3b 4d 3d 8a bf 1a 88 77 bf
       -0.55760396 0.006284836 -1.0799958 -0.9669205
000360 bc 6c 31 bf 66 12 8c 3f 36 c9 1a bf 77 ae 8c 3f
       -0.6930654 1.0943115 -0.60463274 1.0990742
000370 ab f4 4b 3f 95 55 39 bf f8 81 20 3c 87 ab ab 3d
       0.7967021 -0.7239621 0.009796612 0.083823256
000380 fa 98 0a bf 7e 1b 8f 3f 54 80 24 bf ca 0b 7d 3f
       -0.54139674 1.1180265 -0.64258313 0.98846114
000390 1f 99 ea b8 b9 cd 13 bc ff 17 37 bf ab 9c 8c be
       -0.000111865105 -0.009021216 -0.7152099 -0.27463278
0003a0 4a fb 40 bf 5e a3 18 bf ef dc 84 bf ee 61 25 3e
       -0.75383437 -0.5962428 -1.0379924 0.16150638
0003b0 10 b2 2c 3c 4f f1 b6 3f 20 18 42 3f 39 33 96 3f
       0.0105405 1.4292392 0.7581806 1.1734382
0003c0 fb 3e 22 bc d7 d4 e6 3d d4 c4 45 3a 6b eb 51 3f
       -0.009902711 0.11271065 0.0007544283 0.81999844
0003d0 45 43 41 bf 3a e3 d5 be 0c b6 87 3f 23 59 a4 bf
       -0.7549327 -0.41774923 1.0602431 -1.2839702
0003e0 34 38 ae bf 22 e7 98 bf c5 f5 e6 be 91 89 05 3c
       -1.3610902 -1.1945536 -0.45109382 0.008150474
0003f0 3d ac 2e bf 25 b7 44 bf 12 ba b3 bf 34 60 82 3f
       -0.68231565 -0.76841956 -1.4041159 1.0185609

layer3.bias f4 [4]
000000 fe 6e 6d 3e b0 cf 2e 3e da a9 0b bc 51 78 10 3e
       0.23186871 0.17071414 -0.0085243825 0.14108397
