Exported_models/Soft_update_0.999_2_531.pth (torch, 41111 bytes, 6 tensors)

layer1.weight f4 [128, 8]
-0.0946437 -3.5267339 0.018708853 -0.39521083 0.15547189 -0.012342917 0.18435568 -0.8956857
0.10802131 -0.35255334 -0.22610828 -0.017784022 -1.204093 -0.12812062 0.31134218 0.34060177
-0.19899935 0.2645414 -0.47491363 -0.24450882 -0.75645804 -0.13035958 -0.01644703 -0.30554622
0.44954896 0.28393257 -1.106427 0.23845705 -0.053396083 0.30010146 0.09165683 0.38090873
-0.17604913 -0.15101752 -0.4305395 -0.41843215 1.0336546 0.184224 -0.01074468 0.020788027
0.43937004 0.32979396 -0.7219521 -0.45331842 0.23302266 0.038587645 0.06474384 -0.26392433
-0.18879287 0.022835251 -0.27539274 -0.4173925 -0.28934583 -0.12199107 -0.09053385 0.23823743
-0.3821503 -0.1854444 -0.5915971 -0.06528315 0.536676 -0.5081867 0.04677634 0.14859721
-0.8285017 -0.36754164 -0.5348207 -0.2733177 0.46428034 0.07919553 0.10504667 0.081177555
0.59639543 -0.31647605 0.3950461 -0.47382277 -0.59848166 -0.23518488 0.0569857 -0.09894038
-0.87521 -0.070697874 -0.5504898 -0.2435127 0.6373664 0.052362375 -0.019986633 0.06214571
-0.3589741 -1.9964372 -0.40624115 -0.04459083 0.12998986 0.20147036 0.33624157 0.15911545
0.025119305 0.28781328 -0.13020809 -0.15682137 -0.061131977 -0.11847391 -0.23809305 -0.5963406
-0.050385296 -0.99370724 -0.26652792 -0.41423982 0.85692304 0.16215861 -0.00300594 0.01617879
-0.16837542 0.35871848 0.12609884 -0.8925703 0.00533052 -0.015799912 -0.44837144 0.2396454
0.12350098 0.5518489 -0.12568237 -0.38820127 0.17877397 0.033409316 -0.012586977 -0.40131286
0.21283774 0.5317433 -0.26523295 0.10349302 0.41064334 -0.60133195 -0.15436962 -0.39246175
0.5259839 0.06483627 -0.29231694 0.03742441 -0.122760944 -0.518706 -0.21965304 0.2227673
-0.09918521 -0.006367765 -0.7817311 0.08778486 0.68397075 0.25803322 -0.029887851 -0.27115408
-0.1007061 0.039374534 -0.76527643 1.2381557 0.33662698 -0.289958 0.02615028 0.45661184
0.00823817 0.22656222 0.24025622 1.2527919 0.07163965 0.1914572 0.32822204 0.21110502
-0.122200534 -0.02314794 -0.4844072 0.08448157 -0.33515888 -0.22482653 0.039710127 0.3245354
-0.4250853 0.5437156 0.20472252 -0.52699745 0.2182462 0.3171454 -0.32512227 -0.18848604
-0.6496062 -0.73240477 -0.11812598 -0.3101166 0.18188925 -0.008223874 0.24563563 -0.4967011
0.0009929169 -0.7254722 -0.09563887 0.7115069 -0.036782593 -0.3077743 0.21473545 0.12857774
-0.032063406 -0.016651604 -0.1099016 1.987042 -0.16481793 -0.124806136 -0.40801808 -0.0021579145
0.53457344 -0.081286505 0.6475321 -0.14392132 0.5456695 0.4178863 0.076454 0.20290011
-0.56655616 0.05217017 -0.43480903 0.34758982 0.03136579 0.079554304 0.4122739 0.28341463
-0.7339889 -0.19102854 -0.5802631 -0.19777957 -0.38453308 -0.3584586 -0.13009986 -0.19080047
-0.10664189 -0.13207678 -0.07336509 0.22427242 -0.010198278 0.06092123 0.46216178 -0.020383641
-0.41637582 -0.21583982 -0.61790675 0.22950125 0.2994236 -0.69590193 0.15999636 0.37896898
-0.7835071 -1.1552589 0.065475956 -0.22917643 -0.6150713 0.367112 -0.1539528 -0.4070227
00000000: 8ed4 c1bd 02b6 61c0 4f43 993c 1359 cabe
00000010: 0634 1f3e f239 4abc bcc7 3c3e a84b 65bf
00000020: 473a dd3d df81 b4be ee88 67be ccaf 91bc
00000030: b81f 9abf 0d32 03be 3e68 9f3e 5b63 ae3e
00000040: 7cc6 4bbe f871 873e e127 f3be 8560 7abe
00000050: 3ca7 41bf fb7c 05be ecbb 86bc 8e70 9cbe
00000060: 482b e63e 9c5f 913e 669f 8dbf 162e 743e
00000070: dab5 5abd e6a6 993e 93b6 bb3d 7806 c33e
00000080: 3946 34be 56a4 1abe ac6f dcbe bd3c d6be
00000090: cb4e 843f 37a5 3c3e 740a 30bc a74b aa3c
000000a0: 1cf5 e03e c1da a83e dad1 38bf 5a19 e8be
000000b0: 7e9d 6e3e 140e 1e3d 6b98 843d 1721 87be
000000c0: eb52 41be fe10 bb3c 4700 8dbe 78b4 d5be
000000d0: 2325 94be 74d6 f9bd d069 b9bd 83f4 733e
000000e0: 34a9 c3be 23e5 3dbe e872 17bf 2cb3 85bd
000000f0: 9963 093f 8618 02bf 8c98 3f3d de29 183e
00000100: b018 54bf 6b2e bcbe 02ea 08bf 4cf0 8bbe
00000110: 27b6 ed3e 4431 a23d b522 d73d 6b40 a63d
00000120: 5fad 183f 2609 a2be 7b43 ca3e e698 f2be
00000130: 1836 19bf 4ed4 70be d669 693d 41a1 cabd
00000140: c30d 60bf 0cca 90bd e6ec 0cbf 655b 79be
00000150: 722a 233f ee79 563d 02bb a3bc 808c 7e3d
00000160: 74cb b7be 418b ffbf d7fe cfbe e0a4 36bd
00000170: 101c 053e 3f4e 4e3e db27 ac3e 29ef 223e
00000180: 00c7 cd3c 435c 933e 4555 05be c895 20be
00000190: 8665 7abd 73a2 f2bd aace 73be c7a9 18bf
000001a0: d060 4ebd 9963 7ebf 5976 88be 3e17 d4be
000001b0: 4f5f 5b3f e80c 263e 4eff 44bb 6289 843c
000001c0: 9b6a 2cbe f3a9 b73e 0e20 013e 7d7f 64bf
000001d0: a5ab ae3b d16e 81bc f190 e5be 9b65 753e
000001e0: 15ee fc3d f845 0d3f e1b2 00be 51c2 c6be
000001f0: 8610 373e 35d8 083d 9c39 4ebc e178 cdbe
00000200: 23f2 593e 5420 083f 9dcc 87be 26f4 d33d
00000210: d83f d23e e4f0 19bf 1213 1ebe bff0 c8be
00000220: e2a6 063f e1c8 843d 91aa 95be 574a 193d
00000230: 176a fbbd ebc9 04bf baec 60be 1c1d 643e
00000240: 9e21 cbbd afa8 d0bb 881f 48bf 8cc8 b33d
00000250: b518 2f3f ee1c 843e 5ed7 f4bc b5d4 8abe
00000260: 003f cebd 3147 213d 28e9 43bf e37b 9e3f
00000270: 5f5a ac3e 6075 94be 1d39 d63c 07c9 e93e
00000280: 64f9 063c edff 673e ba05 763e 7c5b a03f
00000290: cfb7 923d 5b0d 443e b80c a83e ea2b 583e
000002a0: 4644 fabd c0a0 bdbc 3804 f8be ac04 ad3d
000002b0: f299 abbe ed38 66be 16a7 223d 8129 a63e
000002c0: c8a4 d9be f230 0b3f c8a2 513e 4ee9 06bf
000002d0: ef7b 5f3e e260 a23e 6d76 a6be 7c02 41be
000002e0: 984c 26bf e17e 3bbf 09ec f1bd 9ac7 9ebe
000002f0: 2d41 3a3e 6dbd 06bc e887 7b3e 9b4f febe
00000300: c324 823a 8cb8 39bf 50de c3bd 5125 363f
00000310: 58a9 16bd 9894 9dbe 9ce3 5b3e e2a9 033e
00000320: eb54 03bd f268 88bc 1714 e1bd 6457 fe3f
00000330: 08c6 28be 5c9a ffbd bfe7 d0be cc6b 0dbb
00000340: ced9 083f 8a79 a6bd aac4 253f 1c60 13be
00000350: ffb0 0b3f 31f5 d53e ea93 9c3d 0cc5 4f3e
00000360: d309 11bf 63b0 553d 4a9f debe 4bf7 b13e
00000370: 6a79 003d 5eed a23d 9115 d33e b91b 913e
00000380: b2e6 3bbf fc9c 43be 1f8c 14bf ba86 4abe
00000390: 85e1 c4be e387 b7be e638 05be 3361 43be
000003a0: 1067 dabd 233f 07be 7040 96bd aba7 653e
000003b0: ae16 27bc 8a88 793d 78a0 ec3e 98fb a6bc
000003c0: 362f d5be 1d05 5dbe 232f 1ebf 6002 6b3e
000003d0: 0d4e 993e a126 32bf 16d6 233e 3908 c23e
000003e0: ec93 48bf 86df 93bf 4218 863d 3aad 6abe
000003f0: 5075 1dbf 1bf6 bb3e cea5 1dbe 4865 d0be

layer1.bias f4 [128]
0.38607952 0.26632237 0.2124835 -0.026220191 -0.14501156 -0.047139168 0.23949 0.13964193
-0.2107475 -0.14224902 -0.08266587 -0.07846312 0.38585773 -0.11293752 0.594694 0.3367849
0.15859453 -0.14822577 -0.13166891 0.0024009717 0.3197503 0.2596378 0.005202672 0.02913898
0.31049755 0.1572419 -0.3113127 0.25884774 0.17739792 0.30511114 0.20049153 -0.42375463
0.42372733 -0.26582545 -0.29131436 -0.16218507 0.0058606407 0.40211087 0.52275085 -0.0067246975
0.2274094 -0.0012436924 -0.14642106 0.25316542 -0.13295603 0.010949454 0.23419356 0.18321574
-0.053929787 0.17789757 0.39323103 0.5088442 0.19441648 0.46571085 0.45305255 3.7950096e-05
0.26137272 0.3696686 0.65429455 -0.11495053 0.27195963 0.23030345 -0.20697787 0.13642855
-0.10630506 0.417931 0.15650184 0.12062747 0.2469156 0.097495615 -0.15543602 -0.00067160523
-0.0070258435 0.23214683 -0.32424116 -0.009381331 -0.32604036 0.012013983 0.69443256 -0.00961085
0.24391507 0.49862027 -0.0947996 -0.121580325 0.32136166 0.23742498 -0.0011318513 -0.014109082
0.24235722 0.24960276 0.26337114 0.0038841243 0.42038596 0.37382096 0.0066374117 0.4851905
-0.031054674 -0.0033427244 0.21575627 -0.30310827 -0.011102702 0.36420244 0.35087904 -0.10058896
-0.13811746 0.18674313 0.5489335 0.66535026 -0.1920962 -0.19731045 -0.14810374 -0.0057930397
0.004250014 -0.15248142 -0.114631586 0.44870162 0.39588502 -0.0072277426 0.111623466 0.39145485
0.15686506 0.33846822 0.05789724 -0.1357404 0.26829526 -0.18040238 -0.3280345 0.15475494
00000000: 37ac c53e 685b 883e 4695 593e bacb d6bc
00000010: e97d 14be 0015 41bd de3c 753e 4bfe 0e3e
00000020: 31ce 57be baa9 11be b94c a9bd 46b1 a0bd
00000030: 258f c53e c94b e7bd de3d 183f 126f ac3e
00000040: 9b66 223e 7fc8 17be 37d4 06be 9f59 1d3b
00000050: 50b6 a33e 3fef 843e 2d7b aa3b dfb4 ee3c
00000060: 89f9 9e3e 0504 213e 6164 9fbe b187 843e
00000070: cda7 353e 8737 9c3e a74d 4d3e 5ef6 d8be
00000080: caf2 d83e 461a 88be 2827 95be d813 26be
00000090: 9e0a c03b 7ae1 cd3e 00d3 053f da5a dcbb
000000a0: 02de 683e 6403 a3ba 67ef 15be e69e 813e
000000b0: a025 08be 5765 333c 70d0 6f3e e89c 3b3e
000000c0: 7be5 5cbd c82a 363e 9455 c93e 9d43 023f
000000d0: 1d15 473e a771 ee3e 81f6 e73e 9b2c 1f38
000000e0: a5d2 853e 3445 bd3e d97f 273f 2f6b ebbd
000000f0: 4b3e 8b3e abd4 6b3e 02f2 53be edb3 0b3e
00000100: 78b6 d9bd 0dfb d53e 0542 203e 890b f73d
00000110: 71d7 7c3e c8ab c73d 9f2a 1fbe aa0e 30ba
00000120: 0c39 e6bb e6b7 6d3e f002 a6be 27b4 19bc
00000130: c3ee a6be 4cd6 443c 55c6 313f d476 1dbc
00000140: dfc4 793e 284b ff3e 4b26 c2bd 1bff f8bd
00000150: 8489 a43e 891f 733e a15a 94ba c729 67bc
00000160: 7e2c 783e de97 7f3e 95d8 863e cb8c 7e3b
00000170: d43c d73e 7665 bf3e a57e d93b e46a f83e
00000180: 5f66 febc 9c11 5bbb 36ef 5c3e 0231 9bbe
00000190: 1be8 35bc be78 ba3e 6ba6 b33e 9601 cebd
000001a0: aa6e 0dbe 9739 3f3e e886 0c3f 6554 2a3f
000001b0: deb4 44be c00b 4abe 82a8 17be 8ad3 bdbb
000001c0: b443 8b3b 1724 1cbe f7c3 eabd 38bc e53e
000001d0: 71b1 ca3e b3d6 ecbb d89a e43d c56c c83e
000001e0: 3ca1 203e b54b ad3e a825 6d3d 88ff 0abe
000001f0: ff5d 893e 67bb 38be 23f4 a7be 1478 1e3e

layer2.weight f4 [64, 128]
1.7634906 0.34992966 0.12140243 0.61172295 -0.6137823 0.37313282 0.23639639 -0.0986283
-0.7205816 -0.21284989 -0.4871759 -0.08631659 0.21120806 -0.6783536 0.27678797 0.27702487
0.37077135 0.064267 -0.23446134 0.12911561 0.1472086 0.15092328 0.39620543 0.49910548
0.4379766 -0.4770735 -0.28466573 0.037129965 -0.18367626 0.17813261 0.030264268 -0.998123
0.26507938 -0.5024278 -0.5732592 -0.78575367 0.29447114 0.23752241 0.31284037 1.0118037
0.108756945 0.17240311 -1.1180806 -0.22828944 -0.8155616 0.22296269 -0.14566907 -0.03299016
-0.0089760525 0.058367074 0.338331 0.27258372 -0.170634 0.29872447 0.44899634 0.95731413
-0.23598158 0.062976174 0.31821054 -0.08108244 -0.29727665 0.18548904 -0.073217876 0.24784039
-0.22085936 0.38684088 0.060266495 0.13990214 0.2989656 0.21321441 0.18171962 0.37334573
0.5566511 0.3892468 -0.6355286 0.5888443 -0.48702455 -0.111911096 0.31067994 0.24368906
0.31992176 0.26615778 0.04091243 -0.6524491 0.42488143 0.4229795 0.1817939 0.35895154
1.2205667 0.36190164 -0.022333132 0.6325364 0.47958094 0.33933243 0.45832393 0.3918263
-0.08655526 0.41071618 0.23515168 -0.656258 0.22650328 0.2658422 0.32412124 -0.011883654
-0.28384075 0.35021687 0.28725567 0.26842782 -0.86748856 -0.5520989 -0.4830337 0.46739468
0.40981698 -1.3933009 0.23615333 0.3680094 0.34922904 0.7905431 0.33117288 0.3975044
0.040627737 0.36742133 -0.39644057 -0.5289743 0.95553726 -0.03928717 -0.23405921 0.35507655
0.17633362 0.11165717 0.30019966 -0.039700296 0.28192455 -0.008085888 0.05394524 0.19699807
0.2029795 0.49805844 0.2795524 0.3234754 0.1030746 0.42945337 0.10024642 -0.4096669
-0.726036 -0.077745095 0.23992722 -0.93500537 -0.18890387 0.04527287 -0.65764725 0.018332275
-0.17827457 0.9328407 0.4370788 -0.18171957 0.34050047 0.06941719 0.03757364 0.7048074
-0.41835335 0.24378599 0.4021041 0.7368115 0.17194568 -0.047348164 0.10712449 -0.31008807
-0.013488609 0.24751027 1.2176727 0.10193907 0.9182949 0.08038794 0.08259406 -0.022081614
-0.16849695 0.18023534 0.29240197 -0.484217 0.2599745 0.09921074 -0.6220828 0.03351422
0.38735092 -0.31001046 0.13435905 -0.06459897 0.14198469 -0.079238534 0.4289375 -0.60058916
0.2951669 -0.15478556 0.10795303 0.12603144 -0.37267038 0.3021669 0.31203625 0.50731957
-0.264417 -0.59738535 0.12328754 0.2181658 0.5609048 0.48235747 0.11698873 0.14450158
-0.5542008 0.04540402 -0.17649026 0.5283068 0.18415104 -1.0115471 0.1758564 0.28936216
0.27692464 -0.5763648 -0.00010859056 0.050805498 0.08923825 -0.3009172 0.0017008304 -0.55590355
0.21881269 -0.21179889 -0.18502808 0.14325105 -0.31578556 -0.09145692 -0.2879269 0.030552654
0.20418258 -0.10427376 -0.6373922 0.041818853 0.7380218 0.64084095 0.051856328 0.60173476
-0.42721236 1.3389196 -0.016818156 0.16107818 -0.41250122 -0.06379326 0.055976275 -0.77925694
0.03332536 -0.15138865 0.60556376 0.6779303 -0.20654838 0.76734465 0.7331598 0.022097599
00000000: 0fba e13f fb29 b33e d6a1 f83d e099 1c3f
00000010: d620 1dbf 440b bf3e e511 723e a2fd c9bd
00000020: 0978 38bf 52f5 59be 1f6f f9be c1c6 b0bd
00000030: ed46 583e 95a8 2dbf 27b7 8d3e 34d6 8d3e
00000040: bed5 bd3e 6b9e 833d a216 70be e236 043e
00000050: dabd 163e a28b 1a3e 70db ca3e c18a ff3e
00000060: 783e e03e fa42 f4be b5bf 91be 9715 183d
00000070: a115 3cbe 6568 363e c5ec f73c fd84 7fbf
00000080: 7cb8 873e 1c9f 00bf 1dc1 12bf 2727 49bf
00000090: ecc4 963e 1339 733e 9d2c a03e c982 813f
000000a0: f6bb de3d 718a 303e 441d 8fbf b5c4 69be
000000b0: a5c8 50bf 5550 643e 462a 15be b120 07bd
000000c0: 4b10 13bc 5012 6f3d b939 ad3e 1890 8b3e
000000d0: aeba 2ebe 6af2 983e d9e2 e53e 8a12 753f
000000e0: 28a5 71be a7f9 803d 7eec a23e 8d0e a6bd
000000f0: a534 98be d7f0 3d3e 41f3 95bd dfc9 7d3e
00000100: f528 62be 0210 c63e 00da 763d 8242 0f3e
00000110: 0512 993e e154 5a3e b514 3a3e 2c27 bf3e
00000120: b080 0e3f 5b4b c73e 01b2 22bf 80be 163f
00000130: 485b f9be a531 e5bd 7111 9f3e a089 793e
00000140: c9cc a33e d545 883e cb93 273d e706 27bf
00000150: 0f8a d93e c590 d83e 2e28 3a3e 7fc8 b73e
00000160: 883b 9c3f 2c4b b93e f9f3 b6bc e8ed 213f
00000170: a28b f53e fbbc ad3e 6fa9 ea3e 759d c83e
00000180: e243 b1bd 6449 d23e 9acb 703e 8600 28bf
00000190: 7af0 673e 781c 883e 38f3 a53e a8b3 42bc
000001a0: 9353 91be a04f b33e 2d13 933e 5f6f 893e
000001b0: bb13 5ebf 5a56 0dbf 3150 f7be 5b4e ef3e
000001c0: 88d3 d13e af57 b2bf 2ed2 713e ba6b bc3e
000001d0: 26ce b23e 0861 4a3f 7e8f a93e b285 cb3e
000001e0: 4569 263d a61e bc3e 42fa cabe dc6a 07bf
000001f0: 179e 743f 95eb 20bd 38ad 6fbe 98cc b53e
00000200: cd90 343e 84ac e43d c5b3 993e c79c 22bd
00000210: 6a58 903e ac7a 04bc aff5 5c3d ddb9 493e
00000220: dcd9 4f3e 8401 ff3e 7e21 8f3e 919e a53e
00000230: c718 d33d 50e1 db3e ff4d cd3d dcbf d1be
00000240: 7fdd 39bf d238 9fbd 7baf 753e 835c 6fbf
00000250: 0470 41be 0c70 393d 925b 28bf 912d 963c
00000260: 9c8d 36be a6ce 6e3f cbc8 df3e b214 3abe
00000270: 1456 ae3e 9a2a 8e3d d1e6 193d 426e 343f
00000280: 6932 d6be 09a3 793e 97e0 cd3e ae9f 3c3f
00000290: 8712 303e 26f0 41bd 1664 db3d ddc3 9ebe
000002a0: 54ff 5cbc 5573 7d3e b3dc 9b3f 6ec5 d03d
000002b0: 6015 6b3f 6fa2 a43d 1327 a93d 80e4 b4bc
000002c0: 778a 2cbe 9d8f 383e b6b5 953e 4aeb f7be
000002d0: 611b 853e 002f cb3d d240 1fbf 3546 093d
000002e0: dc52 c63e b1b9 9ebe 6b95 093e 774c 84bd
000002f0: 6f64 113e d047 a2bd b29d db3e 36c0 19bf
00000300: 1e20 973e 1b80 1ebe 7a16 dd3d 630e 013e
00000310: a7ce bebe 9fb5 9a3e 37c3 9f3e b2df 013f
00000320: aa61 87be 3fee 18bf 2e7e fc3d db66 5f3e
00000330: 7597 0f3f 8ff7 f63e ca97 ef3d 39f8 133e
00000340: 1be0 0dbf 91f9 393d ddb9 34be 1d3f 073f
00000350: 1792 3c3e 607a 81bf b313 343e 4727 943e
00000360: 11c9 8d3e a58c 13bf 1dbb e3b8 6d19 503d
00000370: 8bc2 b63d d211 9abe 66ee de3a b24f 0ebf
00000380: 6f10 603e cfe1 58be 0078 3dbe 67b0 123e
00000390: a5ae a1be c44d bbbd 286b 93be 8f49 fa3c
000003a0: 3d15 513e 7b8d d5bd 232c 23bf 3f4a 2b3d
000003b0: ffee 3c3f 270e 243f 4d67 543d 4a0b 1a3f
000003c0: 94bb dabe b861 ab3f 3bc6 89bc aef1 243e
000003d0: 5c33 d3be 0aa6 82bd 6147 653d 627d 47bf
000003e0: 2c80 083d a005 1bbe 3a06 1b3f d78c 2d3f
000003f0: 6b81 53be b370 443f 5cb0 3b3f 0606 b53c

layer2.bias f4 [64]
0.38683772 0.0057320227 0.07967682 0.29059935 0.07339346 -0.017932434 0.20174177 0.094749175
0.047234464 0.039393634 -0.22136623 -0.13570601 -0.01293154 0.571161 0.0050419746 0.27439967
0.31708562 -0.020160345 -0.014861996 -0.08407528 0.45978418 0.06401559 0.11078969 0.24635534
0.022136392 -0.046010066 -0.0155375125 0.02933793 -0.020558234 0.4557546 -0.011692205 -0.04679151
0.16638736 0.26906237 0.25716954 -0.124844514 0.2675565 -0.04261485 0.1371214 0.6463057
0.0030162302 -0.0146482885 0.18806958 0.43914586 0.0028553049 0.06087494 0.06703727 0.55884147
0.26048177 -0.010689815 0.42524356 0.32820994 -0.008548844 0.050710432 0.296273 0.27311084
0.08768534 -0.03184137 0.41968265 -0.026306285 0.17278756 0.106890745 0.13701029 0.05766472
00000000: 980f c63e b1d3 bb3b 9a2d a33d 70c9 943e
00000010: 4f4f 963d 0ae7 92bc 6595 4e3e db0b c23d
00000020: ed78 413d 385b 213d d4ad 62be 84f6 0abe
00000030: cfde 53bc 9b37 123f 2637 a53b 1d7e 8c3e
00000040: 0c59 a23e 4f27 a5bc bb7f 73bc a92f acbd
00000050: d568 eb3e 9b1a 833d b4e5 e23d 9344 7c3e
00000060: 6157 b53c 0d75 3cbd 0d91 7ebc 1956 f03c
00000070: be69 a8bc ab58 e93e aa90 3fbc 74a8 3fbd
00000080: 7361 2a3e 8bc2 893e baab 833e 7bae ffbd
00000090: 2afd 883e e98c 2ebd 8d69 0c3e 4a74 253f
000000a0: f2ab 453b 60ff 6fbc 5095 403e bad7 e03e
000000b0: 1120 3b3b 0058 793d d64a 893d 3c10 0f3f
000000c0: de5d 853e 5524 2fbc 86b9 d93e 220b a83e
000000d0: 7310 0cbc beb5 4f3d 18b1 973e 2fd5 8b3e
000000e0: 5f94 b33d 196c 02bd a5e0 d63e 4780 d7bc
000000f0: 39ef 303e 89e9 da3d 6d4c 0c3e d731 6c3d

layer3.weight f4 [4, 64]
0.5510833 -0.39675906 0.18119907 0.4366874 -0.88399786 0.007974865 1.5369889 -1.0385519
-0.6141395 -0.19620436 -0.5830901 -0.5204009 -0.5605531 0.9669239 -0.64769936 1.6717985
1.6657591 -0.023074303 -0.021492662 -0.52225864 1.019 -0.8345656 -0.7114666 0.40532407
0.16238655 0.004806005 0.022238648 -0.6844791 -0.008602765 0.9701671 0.0076214042 -0.031188395
-0.7988944 0.399464 1.297947 -0.5523225 -1.0506712 0.0144818695 0.67199695 0.8010954
-0.02385138 -0.0053586396 0.0069390344 0.6171601 -0.00426372 -1.0182694 -0.7239714 0.8402823
-1.4831867 -0.002634859 0.6324009 -1.6344439 0.0018571835 -0.6984609 1.4148101 -1.6769229
-0.62809926 0.025712986 0.6699381 -0.007339697 -1.1482308 -0.5692115 -0.8231539 -0.21279354
0.89265823 -0.7081128 0.67656136 0.20194443 -0.66693556 -0.013042709 1.3713583 -1.1981488
-0.83185977 -0.81905395 -0.61581826 -0.590008 -0.58145404 1.1397707 -0.5814922 1.5213159
1.5035243 -0.027912369 0.024133343 -0.604009 0.696227 -0.5803779 -0.6982003 -0.8089795
-0.05294835 0.030753016 0.0034971058 -0.56834 -0.004061326 1.0768563 -0.015922355 0.020949889
-0.77470595 0.64160275 1.4243835 -0.56129384 -1.3045546 -0.00885092 0.5028531 1.1345308
-0.013111666 0.011241505 0.28719595 0.81168044 -0.0017509537 -1.0903882 -1.0582106 0.968521
-1.2305845 -0.0064621693 -0.5243542 -1.5700426 -0.018460123 -0.99290425 1.1959184 -1.4324143
-0.7731707 -0.010143231 0.70452183 -0.014897558 -0.9920228 -0.5310314 -0.65831345 -0.5912885
0.8418092 -0.66956234 -0.33599335 1.0312734 -0.99408805 -0.023845598 1.4819826 -1.1613882
-0.5217952 0.055833373 -0.80450994 -0.58561677 -0.2889788 0.84850484 -0.06967259 1.4940422
1.8507912 0.007269547 0.017978506 -0.35562488 0.8789405 -0.41936693 -1.0673175 0.69388145
-0.14647415 -0.013826164 -0.01730508 0.027277654 -0.005228481 1.3311914 0.004411391 -0.025913168
-0.10540558 0.62334573 0.84898096 -0.5336067 -0.9170687 -0.026581787 0.80066985 0.6032339
0.018190179 0.020155204 0.15294215 0.73672897 0.006493758 -0.5262297 -0.9219597 0.7559795
-1.13749 0.008394094 -0.6776943 -1.7332506 0.02305751 -0.6743546 1.0012633 -1.3688141
-0.8571188 0.028759088 0.64819664 -0.005313788 -0.77141577 -1.0778203 -1.19713 0.34403524
0.56081384 -0.19906887 -0.14295155 0.7713809 -0.75613165 -0.033091404 1.6852382 -0.92254204
-0.73684746 -0.37060422 -0.62954795 -0.48029524 -0.6040779 0.72520846 -0.52678597 1.4693613
1.6146783 -0.006244721 0.011257736 -0.556205 0.9963428 -0.62713283 -0.8120754 0.51878995
-0.24612007 -0.0013865425 -0.019187458 -0.6684859 0.024033975 1.2385648 0.022746714 -0.005177133
-0.2044872 0.22319953 1.1572162 -0.46758288 -1.8925909 -0.013587111 0.5236396 0.82402855
0.014888007 0.01569752 -0.47623283 0.6900488 -0.0054501235 -0.94668037 -0.70973754 0.75184554
-1.1197157 0.0006786496 0.62237287 -1.5771703 0.0021737712 -0.7616816 1.3702953 -1.1358342
-0.7777587 -0.0003461638 0.7622535 0.008151648 -1.2043978 -0.7294835 -0.8876448 -0.51674694
00000000: cc13 0d3f 0124 cbbe 408c 393e 7e95 df3e
00000010: af4d 62bf 02a9 023c 0dbc c43f 45ef 84bf
00000020: 3f38 1dbf cce9 48be 6545 15bf fe38 05bf
00000030: 6880 0fbf 5388 773f a0cf 25bf 7efd d53f
00000040: 9837 d53f 5206 bdbc 6111 b0bc beb2 05bf
00000050: 986e 823f 17a6 55bf ad22 36bf a386 cf3e
00000060: a948 263e b17b 9d3b d32d b63c 063a 2fbf
00000070: 9df2 0cbc df5c 783f f9bc f93b ce7e ffbc
00000080: 5884 4cbf 8c86 cc3e 2123 a63f 0265 0dbf
00000090: 657c 86bf 5d45 6d3c fe07 2c3f 9714 4d3f
000000a0: f863 c3bc 8797 afbb d760 e33b 34fe 1d3f
000000b0: adb6 8bbb a756 82bf 3156 39bf be1c 573f
000000c0: 10d9 bdbf 99ad 2cbb 06e5 213f 7535 d1bf
000000d0: bd6c f33a 55ce 32bf 7f18 b53f 69a5 d6bf
000000e0: 1dcb 20bf 0aa4 d23c 1081 2b3f d781 f0bb
000000f0: 3af9 92bf d8b7 11bf 37ba 52bf 8de6 59be
00000100: 4085 643f e146 35bf 2033 2d3f 85ca 4e3e
00000110: 4abc 2abf 16b1 55bc ab88 af3f f15c 99bf
00000120: c3f4 54bf 85ad 51bf 44a6 1dbf c40a 17bf
00000130: 2cda 14bf 02e4 913f acdc 14bf 7bba c23f
00000140: 7c73 c03f 7ba8 e4bc 4ab3 c53c 55a0 1abf
00000150: ef3b 323f a593 14bf 41bd 32bf 4819 4fbf
00000160: 5ee0 58bd c0ed fb3c b32f 653b bb7e 11bf
00000170: df14 85bb 6dd6 893f 996f 82bc 1a9f ab3c
00000180: 2153 46bf 1440 243f 3352 b63f f4b0 0fbf
00000190: a5fb a6bf 7303 11bc fbba 003f 4e38 913f
000001a0: 50d2 56bc 4a2e 383c 590b 933e 4aca 4f3f
000001b0: 4280 e5ba d791 8bbf 7273 87bf fef0 773f
000001c0: cb83 9dbf 9bc0 d3bb 143c 06bf 28f7 c8bf
000001d0: af39 97bc f92e 7ebf db13 993f 5a59 b7bf
000001e0: 84ee 45bf cb2f 26bc 8b5b 343f e314 74bc
000001f0: 35f5 7dbf adf1 07bf 3b87 28bf af5e 17bf
00000200: cf80 573f 7068 2bbf 5207 acbe c400 843f
00000210: 8e7c 7ebf d857 c3bc 9bb1 bd3f 5ea8 94bf
00000220: 5f94 05bf 89b1 643d 5df4 4dbf fbea 15bf
00000230: 07f5 93be 9d37 593f 81b0 8ebd c63c bf3f
00000240: bae6 ec3f 6135 ee3b a947 933c 7714 b6be
00000250: 3f02 613f 43b7 d6be dc9d 88bf 37a2 313f
00000260: 52fd 15be 2387 62bc 62c3 8dbc 6375 df3c
00000270: ad53 abbb 7b64 aa3f 6e8d 903b da47 d4bc
00000280: e1de d7bd 9693 1f3f d156 593f 739a 08bf
00000290: 04c5 6abf 0cc2 d9bc b3f8 4c3f 896d 1a3f
000002a0: 9203 953c 871c a53c de9c 1c3e 459a 3c3f
000002b0: 97c9 d43b fdb6 06bf 8d05 6cbf df87 413f
000002c0: 4699 91bf 6287 093c 607d 2dbf 28db ddbf
000002d0: 1ae3 bc3c 81a2 2cbf 6529 803f 4d35 afbf
000002e0: 236c 5bbf 2e98 eb3c 37f0 253f 491f aebb
000002f0: 817b 45bf 04f6 89bf 8e3b 99bf 6325 b03e
00000300: 7f91 0f3f b6d8 4bbe e461 12be 3879 453f
00000310: d891 41bf da8a 07bd e3b5 d73f b72b 6cbf
00000320: 09a2 3cbf d6bf bdbe 0e2a 21bf 42e9 f5be
00000330: d9a4 1abf 43a7 393f 72db 06bf 0814 bc3f
00000340: c7ad ce3f 84a0 ccbb 5e72 383c 7363 0ebf
00000350: 5210 7f3f c78b 20bf 2ce4 4fbf 6bcf 043f
00000360: e606 7cbe a5bc b5ba 042f 9dbc e421 2bbf
00000370: e6e2 c43c 4b89 9e3f 5157 ba3c f0a4 a9bb
00000380: 1865 51be 6b8e 643e a91f 943f 0667 efbe
00000390: 6b40 f2bf 799c 5ebc 3f0d 063f 89f3 523f
000003a0: d4ec 733c 1698 803c cad4 f3be 0aa7 303f
000003b0: f396 b2bb a559 72bf 5cb1 35bf f378 403f
000003c0: d852 8fbf 67e7 313a d453 1f3f b7e0 c9bf
000003d0: d475 0e3b 91fd 42bf d665 af3f 0463 91bf
000003e0: 321b 47bf 527d b5b9 0c23 433f 7d8e 053c
000003f0: b529 9abf 6ebf 3abf b13c 63bf 8749 04bf

layer3.bias f4 [4]
0.34378374 0.2704559 0.020721711 0.17948118
00000000: 6c04 b03e 3279 8a3e 94c0 a93c eac9 373e
