Exported_models/Soft_update_0.999_4_762.pth (torch, 41111 bytes, 6 tensors)

layer1.weight f4 [128, 8]
-0.025650509 0.17453407 -0.29389542 -0.6855028 0.44327074 0.35833395 0.102619655 0.17498493
0.08991817 -0.16986667 0.7507761 1.434337 0.010823302 0.040787354 0.34836602 0.32738683
0.199856 0.12079021 0.596781 -0.816958 0.25337854 0.034942586 0.11298651 0.10553923
-0.2308144 -0.11055541 -0.53446335 -0.014643519 0.002360421 -0.1922615 -0.09520386 -0.018215358
-0.11916219 -0.1400149 -0.45407292 0.601907 0.064463906 0.403931 0.16355646 -0.08324222
-0.09417434 -0.08348089 -0.00087119703 0.07179829 0.17895135 0.41193408 0.044978958 0.13425906
-0.1118947 0.4667119 0.10806425 -0.5038908 -0.03555954 -0.013138562 -0.032731097 0.21709274
-0.30410606 -0.44172218 -0.32024142 -0.44404486 0.39558768 0.10044306 -0.2668293 0.08419101
0.36463884 -0.83607984 -0.1371224 -0.5715365 -0.5301691 -0.15463266 -0.0056893146 0.10126919
-0.17668894 -0.39246958 -0.6891817 -0.18314351 0.53455573 0.16921926 -0.12651892 0.2365428
-0.43160844 -0.32079247 -0.5409596 -0.16466172 0.68985826 0.064996354 -0.11690589 0.15288632
0.22975951 -0.30783036 0.049538784 -0.5148633 -0.4924236 -0.5086722 -0.2696125 0.023270626
-0.37362114 0.47756132 0.4365301 -0.040056605 -0.38810134 -0.06436476 -0.25897864 -0.18870173
0.45241043 -0.2992864 0.33288783 -0.37239403 0.037108358 0.012313346 -0.16207023 0.2691526
-0.106593 0.5120509 0.19329958 -0.34547845 0.11488756 0.03533465 0.04205639 0.0788752
-0.014562028 0.5764961 0.17835222 -0.5345637 -0.01974731 -0.0856427 0.14720584 0.06854905
-0.024895726 0.5874175 -0.015642414 -0.567436 0.01647116 0.036383327 -0.043231413 0.31571922
-0.07319897 -0.058962848 0.262975 -1.2921771 0.048853848 -0.053262524 -0.71222967 0.13664061
0.44662318 -0.10966109 0.33539322 -0.057054147 -0.36960012 0.022095801 -0.23304316 -0.07354437
-0.0022016834 0.67364407 0.1322711 -0.5161978 -0.23216146 -0.022810148 0.25268474 -0.25030884
0.088838816 -1.0552264 -0.3174832 -0.8379492 -0.14989614 -0.10729129 -0.16043518 -0.06762931
0.17493753 -0.047695804 0.4425503 -0.25662678 -0.42186445 -0.23715085 -0.104724295 -0.17587891
0.4266151 -0.051153027 -0.11572173 0.04528904 -0.40183106 -0.25525305 -0.27154028 0.17423601
0.40181667 -0.29515094 0.22008535 -0.19341023 -0.39686728 -0.38616228 -0.3602109 -0.4335481
0.014398384 -0.57122505 -0.64486676 -0.4392723 0.032685876 0.052396256 -0.04263016 0.13069956
-0.011978444 -0.33305588 -0.36155787 0.3655506 -0.39487165 0.26374033 0.18677776 0.25157017
-0.10681672 0.15980242 -0.08971347 -0.033823293 0.35828584 0.3048205 0.074487746 -0.35873866
0.29252177 -0.3666675 -0.32365483 0.1080789 -0.5621731 0.40111926 0.014401292 0.16174306
-0.16181765 -0.11604707 -0.429223 0.16367972 0.44707608 0.21986859 -0.56262416 -0.49282807
0.70795965 -0.14644516 0.37385172 0.10572603 -0.5491836 -0.11831802 0.010193697 -0.10945698
-0.025834661 0.45919204 0.16128102 -0.26889881 -0.534351 0.5123871 -0.29286942 -0.044041973
-0.15984829 -0.0014509627 -0.7379037 0.12591875 0.62971884 0.08326284 -0.17201899 0.100427486
00000000: 0421 d2bc 0fb9 323e 7679 96be 1d7d 2fbf
00000010: 62f4 e23e 8c77 b73e 412a d23d 402f 333e
00000020: 0427 b83d 87f1 2dbe dd32 403f 5b98 b73f
00000030: 3854 313c a410 273d 085d b23e 3f9f a73e
00000040: 0da7 4c3e dc60 f73d a4c6 183f 2924 51bf
00000050: d5ba 813e f51f 0f3d 7965 e73d f424 d83d
00000060: 9c5a 6cbe e06a e2bd 97d2 08bf 5feb 6fbc
00000070: 4bb1 1a3b 33e0 44be 3efa c2bd 6038 95bc
00000080: 4e0b f4bd 1160 0fbe 3f7c e8be 9416 1a3f
00000090: a705 843d 0bd0 ce3e 587b 273e e67a aabd
000000a0: 7ade c0bd 07f8 aabd 0b61 64ba fb0a 933d
000000b0: 063f 373e 06e9 d23e db3b 383d 357b 093e
000000c0: 0c29 e5bd ddf4 ee3e ca50 dd3d fdfe 00bf
000000d0: e1a6 11bd 2043 57bc 0b11 06bd 8f4d 5e3e
000000e0: cab3 9bbe 6929 e2be aff6 a3be d959 e3be
000000f0: 788a ca3e 17b5 cd3d da9d 88be 566c ac3d
00000100: f1b1 ba3e 5409 56bf d069 0cbe 3750 12bf
00000110: 2ab9 07bf 0658 1ebe 6e6d babb 3966 cf3d
00000120: f2ed 34be c6f1 c8be 366e 30bf f989 3bbe
00000130: a5d8 083f d047 2d3e 2d8e 01be 4738 723e
00000140: c8fb dcbe e93e a4be 547c 0abf 159d 28be
00000150: 8d9a 303f cf1c 853d 5b6c efbd 3b8e 1c3e
00000160: 1446 6b3e f19b 9dbe 2ee9 4a3d 15ce 03bf
00000170: f21e fcbe 5738 02bf a60a 8abe 0aa2 be3c
00000180: 454b bfbe eb82 f43e e080 df3e 6512 24bd
00000190: 38b5 c6be acd1 83bd d998 84be 073b 41be
000001a0: 57a2 e73e 113c 99be 4670 aa3e 6eaa bebe
000001b0: effe 173d ebbd 493c bdf5 25be 5fce 893e
000001c0: 6e4d dabd c515 033f 53f0 453e 8de2 b0be
000001d0: 2b4a eb3d 11bb 103d 5243 2c3d 5289 a13d
000001e0: 9395 6ebc 4095 133f f7a1 363e 2bd9 08bf
000001f0: 1cc5 a1bc 7165 afbd 21bd 163e 7263 8c3d
00000200: 1ff2 cbbc fe60 163f 8524 80bc 7c43 11bf
00000210: 87ee 863c af06 153d 6c13 31bd f3a5 a13e
00000220: 57e9 95bd 0783 71bd a9a4 863e 0f66 a5bf
00000230: f91a 483d ce29 5abd af54 36bf 84eb 0b3e
00000240: cbab e43e fe95 e0bd a9b8 ab3e 9cb1 69bd
00000250: 3a3c bdbe 4102 b53c dea2 6ebe 6e9e 96bd
00000260: 1e4a 10bb f073 2c3f 1372 073e 8a25 04bf
00000270: bcbb 6dbe 59dc babc e55f 813e 7b28 80be
00000280: 20f1 b53d a911 87bf 288d a2be d783 56bf
00000290: 607e 19be 89bb dbbd 1f49 24be 3c81 8abd
000002a0: d322 333e ad5c 43bd f495 e23e 9664 83be
000002b0: 9efe d7be acd7 72be b179 d6bd 9a19 34be
000002c0: 4b6d da3e d685 51bd 84ff ecbd 0081 393d
000002d0: cdbc cdbe 87b0 82be 5407 8bbe ed6a 323e
000002e0: eaba cd3e 061e 97be 0e5e 613e 550d 46be
000002f0: 3032 cbbe 10b7 c5be 906d b8be 04fa ddbe
00000300: 33e7 6b3c ce3b 12bf fd15 25bf 4de8 e0be
00000310: a0e1 053d 759d 563d f69c 2ebd 1bd6 053e
00000320: 3c41 44bc 4d86 aabe 1d1e b9be 7329 bb3e
00000330: 9e2c cabe f908 873e ab42 3f3e cecd 803e
00000340: b9c2 dabd 3fa3 233e b2bb b7bd 4b8a 0abd
00000350: 3e71 b73e 6f11 9c3e 088d 983d 98ac b7be
00000360: 6ac5 953e d8bb bbbe 16b6 a5be 7858 dd3d
00000370: 94ea 0fbf 815f cd3e 66f3 6b3c f99f 253e
00000380: 87b3 25be 16aa edbd 1ec3 dbbe a89b 273e
00000390: 28e7 e43e 3b25 613e 2308 10bf f653 fcbe
000003a0: d83c 353f b8f5 15be 7e69 bf3e e486 d83d
000003b0: 4c97 0cbf b850 f2bd 7703 273c fb2a e0bd
000003c0: 36a3 d3bc 381b eb3e da26 253e 1bad 89be
000003d0: 3acb 08bf cd2b 033f fbf2 95be 5b65 34bd
000003e0: 45af 23be 3b2e beba 42e7 3cbf d8f0 003e
000003f0: 4135 213f b585 aa3d bf25 30be edac cd3d

layer1.bias f4 [128]
0.11106144 0.0075343787 0.048617907 0.09691276 -0.07034344 0.11831489 0.2973258 0.17033742
-0.23412699 -0.13280839 0.05434268 -0.25544772 -0.035796907 -0.073745884 0.20868494 0.32894614
0.2814921 -0.003529886 -0.024676539 0.2811847 -0.14498079 -0.27076334 0.10450875 0.17537117
-0.1500614 -0.10614655 -0.3179179 -0.06698337 0.14752693 0.056452252 0.111538365 0.14570883
-0.14795092 -0.30837035 0.39326772 0.07335225 0.037459526 0.2521856 0.0024571535 -0.027652794
0.031856574 -0.22794127 -0.2827191 0.16227135 -0.24421245 0.4178889 0.1514814 0.20027888
-0.21743266 -0.1104598 -0.009283625 0.040234428 0.3264593 -0.018450592 -0.22139448 -0.25178176
-0.07287609 0.13770235 0.044831913 0.16946848 -0.13688463 -0.2012728 0.102914155 -0.15934584
-0.185967 0.19733906 -0.057444125 -0.24982338 0.11621382 -0.15877797 -0.10994684 0.0077413223
0.12149535 0.11154347 -0.22848302 0.2026213 -0.2306449 -0.30699918 0.07081187 0.017169684
0.12508255 0.047331173 -0.035170574 -0.3081386 0.112912886 0.20658347 0.01687673 0.032910958
-0.14695008 -0.042744488 -0.2972873 0.12277832 -0.19329087 -0.33231023 0.0050597484 0.1168747
-0.027399873 -0.2048934 -0.17047957 -0.1845014 -0.14048822 0.08599956 0.19303471 -0.2952722
-0.02180176 -0.30966562 -0.20938106 0.17006251 -0.2045454 -0.03953168 -0.005430763 -0.18074694
-0.02631755 -0.21082595 -0.087780595 -0.024498655 -0.0043152994 -0.31499937 0.13652492 -0.048910543
0.014865704 0.15924174 0.21605164 -0.2978344 0.069074795 0.28905597 -0.19270067 0.19367373
00000000: 2e74 e33d f3e2 f63b 9223 473d 327a c63d
00000010: 3910 90bd 144f f23d 163b 983e ef6c 2e3e
00000020: fcbe 6fbe ecfe 07be 6e96 5e3d 0bca 82be
00000030: c79f 12bd 1508 97bd 81b1 553e a16b a83e
00000040: bc1f 903e a955 67bb 7426 cabc 71f7 8f3e
00000050: d875 14be 7ea1 8abe af08 d63d 8094 333e
00000060: b2a9 19be 5d63 d9bd 23c6 a2be 942e 89bd
00000070: 4d11 173e 7a3a 673d 3a6e e43d b234 153e
00000080: 7280 17be b8e2 9dbe 635a c93e b439 963d
00000090: 296f 193d 791e 813e 3208 213b 1d88 e2bc
000000a0: 0a7c 023d 7069 69be 8fc0 90be 762a 263e
000000b0: d412 7abe 89f5 d53e f11d 1b3e e815 4d3e
000000c0: aba6 5ebe bf38 e2bd 581a 18bc dbcc 243d
000000d0: ac25 a73e b225 97bc 3cb5 62be 8ae9 80be
000000e0: 0f40 95bd d801 0d3e aba1 373d 2589 2d3e
000000f0: 7c2b 0cbe 751a 4ebe a8c4 d23d 8e2b 23be
00000100: 226e 3ebe 4013 4a3e 884a 6bbd b3d1 7fbe
00000110: 8301 ee3d b196 22be cf2b e1bd ebaa fd3b
00000120: 8ed2 f83d e770 e43d 74f7 69be f57b 4f3e
00000130: 2d2e 6cbe ff2e 9dbe d005 913d 70a7 8c3c
00000140: a415 003e 55de 413d 050f 10bd 58c4 9dbe
00000150: df3e e73d 9e8a 533e 1141 8a3c a4cd 063d
00000160: 157a 16be d814 2fbd 0a36 98be 3373 fb3d
00000170: 0bee 45be 9124 aabe 3fcc a53b 015c ef3d
00000180: b375 e0bc 93cf 51be 3292 2ebe efed 3cbe
00000190: 25dc 0fbe 8a20 b03d e4aa 453e eb2d 97be
000001a0: 9b99 b2bc 7e8c 9ebe fd67 56be de24 2e3e
000001b0: 5974 51be f9eb 21bd 8bf4 b1bb ba15 39be
000001c0: e797 d7bc c2e2 57be 50c6 b3bd 67b1 c8bc
000001d0: 5b67 8dbb 9947 a1be 30cd 0b3e 6c56 48bd
000001e0: 488f 733c 4410 233e a43c 5d3e c07d 98be
000001f0: 1677 8d3d 25ff 933e 5353 45be 6852 463e

layer2.weight f4 [64, 128]
0.32838905 0.33613127 0.48505273 -0.09573727 -0.103208736 -0.07968115 0.33211026 -0.22897601
-0.64445627 -0.32038444 -0.086624384 -0.8842881 0.46868083 -0.3552983 0.23415351 0.29556277
0.38169912 1.2767891 -0.26738358 0.29951918 -0.99084294 -0.6516902 -0.08669839 -0.5713326
-0.27509782 0.050977483 -0.6166494 0.46266735 -0.53471464 -0.6249308 0.43502343 -0.13564095
-0.9869802 -1.0397052 0.32291967 0.59333056 0.23669687 0.18101005 1.2600448 0.2242757
-0.00980692 -0.5067253 -0.7226737 0.24356234 -0.8772366 0.29772958 -0.097718365 0.3160606
-0.94003606 0.7264014 1.9587634 0.8559235 0.13104424 0.87007487 -0.5149878 -1.0050292
0.009769007 -0.13791017 0.3158274 -0.23677473 -0.389524 0.031904083 0.34455705 -0.56221944
-0.6293185 0.35820287 0.020372417 -0.7712457 0.3152183 -0.32829463 -0.19590276 0.8962442
-0.38979194 0.32080173 0.0013462992 0.36610213 -0.23802295 -0.54616535 0.20247291 0.67743075
-0.062526025 0.22753629 0.9194804 -0.8644621 -0.12777969 0.078150205 0.13122115 1.2669296
-0.682003 0.7926178 -0.38483912 -0.3065518 -0.41228303 -0.33311072 0.4704838 -0.2991886
-0.034668926 -0.595118 -0.6444118 -0.40179843 -0.35126674 -0.096029036 -0.2322009 -0.4261664
0.454849 -1.1504585 -0.5254582 -0.10867604 0.024955973 0.76904213 0.8694876 -0.5257577
0.37763745 -0.76680136 0.6013684 0.9739805 1.8530302 -0.5700653 -0.0500789 0.37406132
0.60168827 -0.04718479 0.27545074 -0.67673427 0.7188301 0.40262783 -0.55782944 -0.12879172
-0.049977243 -0.5825714 0.26213598 0.0036377616 -0.2898603 -0.13604705 -0.18976311 -0.2527758
0.13430674 0.045454692 -0.34757102 -0.1407738 -0.22114758 -0.097421065 0.06965311 0.16538121
-0.074792236 -0.39944947 0.47582385 0.27559152 -0.24974574 0.22487384 -0.49804047 -0.011452787
-0.1059482 -0.44513884 0.30626726 -0.16626897 -0.24212973 0.05015385 0.004815604 0.038854707
-0.17196874 0.1264307 0.046342444 0.16670264 0.15663145 -0.12425454 -0.2701572 -0.27481648
-0.51188654 0.060125355 -0.22789365 -0.18467069 0.41303143 0.1138297 -0.7179158 0.16266173
0.18305217 0.40627328 0.17827812 0.025806205 0.04051906 0.098233655 0.25217754 0.08234346
0.29757205 -0.73378986 -0.06076889 0.309457 -0.21328883 -0.4018006 -0.6381648 0.054485053
0.22362116 0.31037563 -0.01599272 -0.34674168 0.10799326 0.29550323 -0.11624992 0.21267469
0.18598431 0.3769607 0.14074573 0.12761919 -0.15723655 0.068197496 -0.27166402 0.09401629
0.26211873 -0.6349337 0.5089349 0.14166339 -0.08500308 -0.2551598 -0.26897052 -0.21483855
-0.16256486 -0.94328934 0.12878966 0.25518018 -0.2645389 0.18273965 -0.04727689 0.16531795
0.3818552 0.14047973 0.4483519 -0.38462347 -0.29872468 -0.14088966 -0.12979016 -0.070821315
-0.037715636 -0.06106852 0.06810947 -0.34295297 -0.2943317 -1.1990882 0.5108085 -0.09819185
-0.2769492 0.19889352 -0.45021486 0.44908732 0.1596564 -0.38133895 -0.22595568 0.043153916
0.31575617 -0.17234007 0.11910348 0.018639732 0.16750093 0.010560739 0.3133176 -0.11628537
00000000: 9c22 a83e 6619 ac3e d558 f83e e711 c4bd
00000010: 1a5f d3bd df2f a3bd 5b0a aa3e b078 6abe
00000020: 16fb 24bf 6e09 a4be 2068 b1bd b460 62bf
00000030: eff6 ef3e a9e9 b5be f0c5 6f3e 0154 973e
00000040: 116e c33e d36d a33f 80e6 88be 945a 993e
00000050: e2a7 7dbf 2bd5 26bf ed8e b1bd da42 12bf
00000060: 9fd9 8cbe c4cd 503d bcdc 1dbf bce2 ec3e
00000070: 0fe3 08bf 77fb 1fbf 64bb de3e 76e5 0abe
00000080: bcaa 7cbf 0f15 85bf ba55 a53e 83e4 173f
00000090: aa60 723e b35a 393e 2649 a13f 87a8 653e
000000a0: 34ad 20bc c0b8 01bf 2501 39bf 6868 793e
000000b0: 9492 60bf 0370 983e 9120 c8bd b2d2 a13e
000000c0: 34a6 70bf 71f5 393f c2b8 fa3f cd1d 5b3f
000000d0: 7630 063e 3abd 5e3f 3ed6 03bf cca4 80bf
000000e0: 2f0e 203c 5338 0dbe 21b4 a13e 1375 72be
000000f0: b16f c7be dbad 023d c869 b03e 9ded 0fbf
00000100: 041b 21bf 5e66 b73e 0ee4 a63c 5c70 45bf
00000110: 4b64 a13e 3c16 a8be bc9a 48be 4370 653f
00000120: cf92 c7be 2040 a43e 4e76 b03a bd71 bb3e
00000130: 4abc 73be 7ed1 0bbf 0f55 4f3e 1a6c 2d3f
00000140: a50d 80bd 46ff 683e 1163 6b3f 634d 5dbf
00000150: aed8 02be 370d a03d d65e 063e c02a a23f
00000160: c097 2ebf 00e9 4a3f a209 c5be 5cf4 9cbe
00000170: c316 d3be 7d8d aabe 41e3 f03e 402f 99be
00000180: 0101 0ebd a759 18bf 2cf8 24bf 86b8 cdbe
00000190: 3cd9 b3be dfaa c4bd 13c6 6dbe 7b32 dabe
000001a0: f8e1 e83e 3942 93bf 6e84 06bf 8b91 debd
000001b0: 7870 cc3c f2df 443f bd96 5e3f 0e98 06bf
000001c0: b259 c13e 184d 44bf 48f3 193f c956 793f
000001d0: 1830 ed3f cdef 11bf 881f 4dbd f784 bf3e
000001e0: 3e08 1a3f d744 41bd e107 8d3e 753e 2dbf
000001f0: 4005 383f 3c25 ce3e e9cd 0ebf fae1 03be
00000200: f0b4 4cbd 6623 15bf b036 863e 8367 6e3b
00000210: 9268 94be eb4f 0bbe 4351 42be d46b 81be
00000220: b587 093e b32e 3a3d d4f4 b1be 0227 10be
00000230: 8374 62be b284 c7bd 4aa6 8e3d b159 293e
00000240: ac2c 99bd a484 ccbe 2f9f f33e 551a 8d3e
00000250: 59bd 7fbe 5445 663e 29ff febe 78a4 3bbc
00000260: 5ffb d8bd 3de9 e3be 10cf 9c3e 6a42 2abe
00000270: dbf0 77be 206e 4d3d 37cc 9d3b 1d26 1f3d
00000280: 9318 30be 0d77 013e 93d1 3d3d 19b4 2a3e
00000290: ff63 203e 2a79 febd 0b52 8abe bfb4 8cbe
000002a0: ff0a 03bf 0146 763d f45c 69be 501a 3dbe
000002b0: db78 d33e 8c1f e93d 54c9 37bf cc90 263e
000002c0: 0772 3b3e 0d03 d03e 8a8e 363e 8967 d33c
000002d0: 50f7 253d ba2e c93d 6a1d 813e b0a3 a83d
000002e0: 5d5b 983e a7d9 3bbf cde8 78bd 2671 9e3e
000002f0: 6368 5abe cfb8 cdbe c55e 23bf b82b 5f3d
00000300: f2fc 643e 8ee9 9e3e 2a03 83bc 2088 b1be
00000310: 922b dd3d 334c 973e 7014 eebd 65c7 593e
00000320: ac72 3e3e fe00 c13e a61f 103e 9bae 023e
00000330: 9e02 21be 21ab 8b3d 8c17 8bbe 9d8b c03d
00000340: 6d34 863e 048b 22bf 8f49 023f 3510 113e
00000350: 1816 aebd 4ea4 82be 81b6 89be a3fe 5bbe
00000360: 6777 26be 697b 71bf 70e1 033e faa6 823e
00000370: a571 87be 1a20 3b3e 6aa5 41bd 1c49 293e
00000380: 8682 c33e ebd9 0f3e 618e e53e 5eed c4be
00000390: 71f2 98be 6145 10be b6e7 04be c40a 91bd
000003a0: b67b 1abd fc22 7abd fa7c 8b3d 8897 afbe
000003b0: a5b2 96be b97b 99bf 59c4 023f cf18 c9bd
000003c0: 49cc 8dbe beaa 4b3e 9082 e6be c6ee e53e
000003d0: f87c 233e dc3e c3be ed60 67be 29c2 303d
000003e0: cbaa a13e ea79 30be 86ec f33d 5ab2 983c
000003f0: 5d85 2b3e f306 2d3c 2a6b a03e 0627 eebd

layer2.bias f4 [64]
0.23970214 0.08900775 0.12039434 0.117953375 0.001255721 0.04681198 -0.025050135 0.20712407
0.13416027 -0.012404831 -0.05919344 0.14081034 0.11829621 0.20488709 0.16876864 0.0075186808
-0.013832736 0.13984872 0.16140555 0.35442597 0.16219512 -0.017930705 0.1415281 0.13371626
0.20701328 0.25555032 0.13980755 0.3327243 0.007857559 0.13763218 -0.004861365 0.062191892
0.14906232 0.30905986 0.13668002 0.17667142 -0.11855709 -0.011339626 0.08423437 -0.18302777
-0.19623074 0.14855908 -0.06453854 0.19643025 -0.014074699 0.11872284 0.118250206 0.3318044
-0.0045189676 -0.031664208 -0.0041156313 -0.03284608 0.10296732 0.15521738 0.33841854 0.03624802
-0.003830949 0.1750648 0.11245686 -0.1164965 0.19361086 0.13537717 0.120325 0.32897022
00000000: 7a74 753e b249 b63d 4f91 f63d 8a91 f13d
00000010: 0197 a43a ebbd 3f3d f135 cdbc 5518 543e
00000020: 4f61 093e a23d 4bbc d274 72bd 9630 103e
00000030: 4945 f23d eccd 513e b0d1 2c3e 445f f63b
00000040: b3a2 62bc 8134 0f3e 7f47 253e 5277 b53e
00000050: 7a16 263e 6ae3 92bc beec 103e eaec 083e
00000060: 4afb 533e 7ed7 823e b629 0f3e d75a aa3e
00000070: febc 003c 73ef 0c3e 164c 9fbb edbc 7e3d
00000080: cba3 183e 183d 9e3e d9f5 0b3e 5ae9 343e
00000090: 0fce f2bd d7c9 39bc 1283 ac3d a26b 3bbe
000000a0: b6f0 48be df1f 183e c82c 84bd 0325 493e
000000b0: 9199 66bc f624 f33d 2a2d f23d 44e2 a93e
000000c0: d913 94bb 54b2 01bd 6bdc 86bb 9c89 06bd
000000d0: 88e0 d23d 4ef1 1e3e 3245 ad3e ce78 143d
000000e0: a910 7bbb 3044 333e c84f e63d b895 eebd
000000f0: ed41 463e 50a0 0a3e f46c f63d c96e a83e

layer3.weight f4 [4, 64]
1.2002057 1.0155671 -0.5605594 -0.6017967 -0.027733592 -0.5295821 0.023341225 -0.706313
-0.60641646 0.011492184 -0.043795552 -0.39162642 -0.57688475 -0.85324395 -0.5951302 -0.1522156
0.028235335 -0.5173458 -0.42616168 1.1322601 -0.5915212 0.013941712 -0.6063331 -0.5401702
-0.7745929 1.0844895 -0.6247316 1.0226873 0.15455739 -0.74506956 -0.01908224 0.36740974
-0.48178166 1.1123532 -0.5921322 1.170662 0.9642114 -0.01677848 -0.43949234 -0.526542
0.16639799 -0.5497174 -0.4361292 -0.28569004 -0.005637753 1.0416114 -0.092484795 1.3146265
0.007584699 0.38444164 0.0132533265 -0.058438305 -0.55554724 -0.53994584 1.1312008 -0.4609452
-1.319558 -0.6497119 -0.61605424 -0.50691384 -0.6535582 -0.44214022 -0.7112613 1.1161088
1.077674 0.4806837 -0.4829101 -1.0300795 0.028385421 -0.56401336 -0.0011069867 -0.7070901
-0.5911231 0.031478364 0.003750469 -0.15172347 -0.46089298 -0.33622396 -0.53736657 -0.36295697
-0.02763946 -0.4570569 -0.45924053 1.1946727 -0.6122431 -0.024104187 -0.72124976 -0.640186
-0.8294203 0.9711854 -0.5496212 1.1343527 0.36795336 -0.7758137 0.005693916 0.6491378
-0.57576156 1.0973439 -0.5744098 0.50547814 0.095712036 0.008778325 -0.5441203 0.019152714
0.21515068 -0.5502286 -0.24809858 -0.53280044 0.008184124 1.4782388 0.028878754 1.1079433
-0.029781325 0.8733433 -0.008791823 0.47822282 -0.59754765 -0.6062804 1.1489717 -0.109340146
-0.8019138 -0.6275628 -1.4295528 -0.28976786 -0.7128697 -0.45650432 -0.84220797 1.0949292
1.2816006 0.035622682 -0.5011413 -0.4167251 -0.0043498846 -0.22390698 -0.0032785279 -0.6943945
-0.530838 -0.017086182 -0.03854082 -0.3819046 -0.47133338 -0.61815304 -0.5348906 0.7610688
0.01822867 -0.45367715 -0.7540456 0.8825699 -0.49228242 0.0090601565 -1.0332925 -1.104745
-0.5600335 1.1355758 -0.6534234 0.8455796 -0.30453518 -0.6740333 0.0021987138 0.5579921
-0.6044509 0.9199606 -0.46212402 1.3604614 0.3617891 0.0054616625 -0.5678176 -0.5534902
-0.5005851 -0.5233477 0.043440994 0.88513047 0.0018255088 1.261422 0.8761513 0.925717
-0.01317078 0.65839213 0.0014367739 0.5303656 -0.40842676 -0.599342 0.9085306 -0.19967736
-0.55875176 -0.86645216 -0.47523487 0.7481215 -0.65613383 -0.48472014 -0.29377022 0.916493
1.0925219 0.21100649 -0.5066722 -0.23777612 0.020701276 -0.6005365 0.012618138 -0.5578415
-0.4469954 -0.017281264 0.0042150216 -0.731241 -0.50235 -1.0484192 -0.3904496 -0.28015774
0.00052568165 -0.5399009 -0.39045656 1.0861378 -0.40798575 0.0074018594 -0.72318286 -0.47536185
-0.5215007 1.0761702 -0.4502587 1.0895976 0.5745783 -0.48102418 0.011537841 -0.055593
-0.3947138 1.0969251 -0.47227675 0.9480642 -0.13761213 -0.010624551 -0.5270248 -0.18188086
-0.6127493 -0.4228869 -0.6305809 0.19320172 0.012413863 1.407194 0.41188222 1.1776849
-0.0116628 0.14982206 0.0008885158 0.7119657 -0.56964916 -0.26912224 1.0401933 -0.8809702
-0.8933116 -0.891817 -0.39981174 -0.042989552 -0.52791 -0.55263346 -1.2356393 0.99096537
00000000: 57a0 993f 1afe 813f d280 0fbf 590f 1abf
00000010: 8f31 e3bc b192 07bf 1936 bf3c eed0 34bf
00000020: 1c3e 1bbf b749 3c3c f762 33bd 4283 c8be
00000030: b8ae 13bf 326e 5abf 745a 18bf 68de 1bbe
00000040: ca4d e73c c670 04bf dd31 dabe e6ed 903f
00000050: ef6d 17bf c76b 643c a538 1bbf 9848 0abf
00000060: b84b 46bf 8dd0 8a3f 69ee 1fbf 6be7 823f
00000070: 4b44 1e3e e1bc 3ebf 5c52 9cbc 211d bc3e
00000080: 16ac f6be 9761 8e3f fa95 17bf 41d8 953f
00000090: 8fd6 763f 0673 89bc 2405 e1be 75cb 06bf
000000a0: 3c64 2a3e 48ba 0cbf 544c dfbe f745 92be
000000b0: e6bc b8bb 8653 853f ab68 bdbd ae45 a83f
000000c0: 1189 f83b 89d5 c43e 7b24 593c 015d 6fbd
000000d0: 5838 0ebf e439 0abf 30cb 903f 0201 ecbe
000000e0: 47e7 a8bf 8553 26bf bbb5 1dbf 1bc5 01bf
000000f0: 974f 27bf 3460 e2be 3815 36bf a7dc 8e3f
00000100: 39f1 893f 2d1c f63e fe3f f7be a5d9 83bf
00000110: 8b88 e83c 2e63 10bf 4f18 91ba db03 35bf
00000120: d853 17bf 75ef 003d 6eca 753b 665d 1bbe
00000130: 2afa ebbe 8c25 acbe db90 09bf 7fd5 b9be
00000140: 266c e2bc 5d03 eabe 9321 ebbe 09eb 983f
00000150: f7bb 1cbf 2576 c5bc d3a3 38bf 3be3 23bf
00000160: e454 54bf 9b9f 783f fab3 0cbf 7832 913f
00000170: 6264 bc3e ba9b 46bf 0894 ba3b e52d 263f
00000180: 1c65 13bf c475 8c3f 850c 13bf 0467 013f
00000190: ac04 c43d f7d2 0f3c 784b 0bbf 27e6 9c3c
000001a0: 7650 5c3e c8db 0cbf 8e0d 7ebe 9c65 08bf
000001b0: b416 063c ee36 bd3f 2393 ec3c 16d1 8d3f
000001c0: f7f7 f3bc 6d93 5f3f 940b 10bc 9fd9 f43e
000001d0: e2f8 18bf 3135 1bbf 8111 933f baed dfbd
000001e0: 394a 4dbf f5a7 20bf 96fb b6bf 745c 94be
000001f0: a17e 36bf efba e9be f19a 57bf a426 8c3f
00000200: 7d0b a43f 17e9 113d cc4a 00bf fe5c d5be
00000210: 7a89 8ebb df47 65be 92dc 56bb d7c3 31bf
00000220: 00e5 07bf 52f8 8bbc fbdc 1dbd 0089 c3be
00000230: 9c52 f1be 473f 1ebf 97ee 08bf 68d5 423f
00000240: 4b54 953c 5f48 e8be 2209 41bf 1af0 613f
00000250: 710c fcbe 0d71 143c ee42 84bf 4968 8dbf
00000260: 5b5e 0fbf 8c5a 913f c246 27bf e877 583f
00000270: 09ec 9bbe 728d 2cbf 4c18 103b 92d8 0e3f
00000280: 4bbd 1abf 8a82 6b3f 859b ecbe 9923 ae3f
00000290: 6c3c b93e bff7 b23b 7f5c 11bf 89b1 0dbf
000002a0: 5826 00bf 1dfa 05bf 2fef 313d e997 623f
000002b0: e945 ef3a 4776 a13f 744b 603f cafb 6c3f
000002c0: 41ca 57bc 638c 283f 2252 bc3a 0ac6 073f
000002d0: 501d d1be 7a6e 19bf 7695 683f 3978 4cbe
000002e0: 5b0a 0fbf cfcf 5dbf fc51 f3be e484 3f3f
000002f0: 63f8 27bf 3d2d f8be 0d69 96be 499f 6a3f
00000300: c2d7 8b3f 1612 583e 45b5 01bf 957b 73be
00000310: b995 a93c c3bc 19bf 4fbc 4e3c b3ce 0ebf
00000320: 95dc e4be 7091 8dbc 2a1e 8a3b 9c32 3bbf
00000330: 029a 00bf 9a32 86bf 03e9 c7be d670 8fbe
00000340: e6cd 093a f236 0abf ece9 c7be 9006 8b3f
00000350: 82e3 d0be 4c8b f23b 8322 39bf a162 f3be
00000360: 1281 05bf f2bf 893f 4f88 e6be ef77 8b3f
00000370: 9017 133f cd48 f6be 3609 3d3c 7cb5 63bd
00000380: ed17 cabe 0b68 8c3f 42ce f1be 56b4 723f
00000390: 32ea 0cbe 9912 2ebc 19eb 06bf fa3e 3abe
000003a0: 23dd 1cbf a284 d8be c06d 21bf acd6 453e
000003b0: 8463 4b3c ef1e b43f 3ae2 d23e 61be 963f
000003c0: 5415 3fbc f46a 193e 49eb 683a 6243 363f
000003d0: 87d4 11bf 64ca 89be 0e25 853f 4387 61bf
000003e0: 12b0 64bf 1e4e 64bf 20b4 ccbe d015 30bd
000003f0: 1c25 07bf 6379 0dbf 6e29 9ebf e8af 7d3f

layer3.bias f4 [4]
0.13024884 0.1614145 -0.058998458 0.07763446
00000000: f45f 053e d849 253e 5ea8 71bd d1fe 9e3d
