Exported_models/Soft_update_0.999_1_534.pth (torch, 41111 bytes, 6 tensors)

layer1.weight f4 [128, 8]
00000000: aa1f a6bd 9602 93be beab 23bb 26cd 803e
00000010: 0135 21bf 5268 7abe 5928 933d de7d 27be
00000020: 2d1f ecbe d315 7dbe ff37 a2bd 6870 fa3a
00000030: a5f3 05bf 1761 723d cff2 023f 2a6b 24bf
00000040: 1990 573d da31 423e 356b 613e df9c cc3d
00000050: 4995 973d 01c9 aabe 7b32 2b3e 863c 9e3c
00000060: e4c2 243e 53d1 b23e 7725 443d 0035 383e
00000070: 8003 813d 2edf 16bf e08c 78bd 8a71 b5be
00000080: 363c 19be 752d 24bf bc00 a9bc 8e84 8dbf
00000090: 9911 f53e 7c6c b43e 34e3 2ebc d7b8 05bf
000000a0: b40c efbc c467 d43e 35bb 813c 1fbe 303e
000000b0: 1630 28bd 012e fcbd 9c73 0d3e 8b7a 153e
000000c0: 9e24 7a3f 0264 b6bf 9d8e db3e 5f2d 7fbf
000000d0: ec9a 3abe 0051 953d 4c81 5cbd f884 ae3d
000000e0: 70c5 3dbe f25b bc3d 8166 473f 3884 cc3d
000000f0: ea82 493e a4c3 9f3d db49 94be 8d2d 37be
00000100: 5bd5 d63e 30da 0abe f919 98be 8138 cb3e
00000110: a80e 8e3d acf9 21bf f3c0 91be 4269 4abe
00000120: f9c8 10be af45 f03e 436d 2d3c 4e2c cd3c
00000130: e212 0abd d7ee 91bd 6131 7e3c 21a9 823d
00000140: 3b56 693e f381 f43d ed86 0d3e b7ba e93d
00000150: 2c00 833e 7588 7abf 4a24 b33d 404f 683c
00000160: d471 90be 044f df3e 46c6 19bf 816c 5ebe
00000170: 2518 2d3e 132a 07bf f640 02bf 1aad fcbe
00000180: 3fba b3bd a8d4 ab3e 1978 cf3c abc5 733d
00000190: 6331 0b3e 3c12 c5bd 1335 7f3e feec aabd
000001a0: 6bba b53e 23c0 f4be 147a 0dbe 94e7 283f
000001b0: bfb4 d53d b83c eabe 2c3c 87be 8e9d 3abe
000001c0: f66d a53e 1e4c b7be ccdf a73e 01fd 9f3f
000001d0: ef6e 8c3d 361a b1be 6cb3 3cbe e86f ab3c
000001e0: 2091 fc3e cd11 27bf a839 4bbe e23d be3d
000001f0: ef0c 363f 32e0 f63b 40ed 4ebf ef6e 3d3e
00000200: c7f0 183d 1c0a c9be 4bb5 8a3d b951 13bf
00000210: ffc8 fb3e f94b 713e 878e 88bc 12bd 2dbf
00000220: a355 f6be a50f 00be e48f 11bf 0577 ccbd
00000230: 4710 1e3f ce57 053f 9c5b b7bd 05e8 c63d
00000240: 10e2 10bf 2abb 5abe f5fe bebe f08c 483c
00000250: c863 0b3f 4dc9 203e c089 d1be d15f 48bf
00000260: 1e2c e2be 56f3 9d3e 865b b53e c41e 363d
00000270: 9a14 c9be 786d 773e 7099 28bf c865 59bd
00000280: 799c ff3e 4b56 843e c3f8 f43d ca0b 20be
00000290: 479c e03d 7633 ee3e 3d22 9e3e 3e61 c5be
000002a0: 771b cc3e 5795 173d 3c34 573e 1c34 2abe
000002b0: 0176 293e 4bfe 023f ca4b b43e e92b cdbe
000002c0: 1638 283d 64eb b63e 0ed1 cf3d fe42 ddbd
000002d0: 6e4d cc3d 5f7b d1be b32e bb3e eb93 493e
000002e0: c20a fbbe fd2b ba3e bec7 51be be12 08bf
000002f0: 77bf 31bf 37d9 abbe e052 443f 9b7f 44bf
00000300: e116 35be 82d7 17bf 9967 0ebf 3f11 17bf
00000310: 4faa 513e db36 1dbe ce1d 483d 38e7 b2be
00000320: 540b cf3d d1f6 b13e 2221 fa3d d934 203e
00000330: 980b 37bd 7f56 a0be bf95 c3bc 0ab2 a1be
00000340: 7673 dabe e421 1dbf 9186 c43e 2e4c 613e
00000350: 502e bfbe df99 db3d 7c62 f3bd 52a2 2c3e
00000360: 1bda b03e 6b1f f7be 74cb 55be e3bf 893e
00000370: 9525 31be 46dc b4bc daa3 9cbe 0242 0d3e
00000380: e713 4bbd f503 ac3e 19f8 10be 61a2 053e
00000390: acf2 85be d328 f8be 2e16 293e 4ab3 353d
000003a0: 5671 3fbe 3a7f bb3e 99b4 d33e bbef 4dbe
000003b0: 5185 eb3c 70f0 82be a0ac 21be 39a4 2dbe
000003c0: 9f8f 2abe a265 c33e 5264 d33d e923 bebd
000003d0: b2b8 70bd cede f3bc 4ad3 1d3e 1334 35bd
000003e0: 256a 263f 25df 92bf b80f f23e 4f01 043f
000003f0: 0aeb cdbe 9bf5 dc3e c7bf c43d 7728 363d
-0.08111508 -0.2871291 -0.0024974192 0.25156516 -0.629715 -0.24453858 0.0718543 -0.16356608
-0.46117535 -0.24715357 -0.07920837 0.0019106986 -0.523249 0.059174623 0.51151747 -0.6422602
0.052627657 0.1896433 0.22013552 0.09990858 0.07401521 -0.3335648 0.16718476 0.01931597
0.1608997 0.34925327 0.04788729 0.17988968 0.06299496 -0.58934295 -0.060681224 -0.35438186
-0.14964375 -0.6413186 -0.020630233 -1.1056077 0.47864988 0.35239017 -0.010674287 -0.5223517
-0.029180862 0.41485417 0.015836338 0.17260025 -0.041061483 -0.12313462 0.13813633 0.14597528
0.97712123 -1.424927 0.42882243 -0.99678606 -0.1822316 0.0729084 -0.053834245 0.085214555
-0.18532348 0.09197225 0.77890784 0.09986156 0.19678846 0.07800987 -0.28962597 -0.1788847
0.41959652 -0.13559794 -0.29707316 0.39691547 0.06936389 -0.63271594 -0.2846752 -0.19766715
-0.14139165 0.46928164 0.010585132 0.02504554 -0.033709414 -0.07125633 0.015514703 0.06379915
0.227868 0.11938848 0.13821001 0.11412566 0.2558607 -0.97864467 0.08747156 0.014179051
-0.28211844 0.43614972 -0.60068166 -0.21721078 0.16903742 -0.52798575 -0.5088037 -0.49350816
-0.08775758 0.3356068 0.025325822 0.059514683 0.13593058 -0.096226186 0.2492259 -0.08345984
0.35493788 -0.4780284 -0.138161 0.6597836 0.10434865 -0.4574945 -0.26413095 -0.18224165
0.32310456 -0.3580026 0.3278793 1.2499086 0.068570964 -0.3459031 -0.18427819 0.020927384
0.49329472 -0.65261537 -0.19846213 0.09289147 0.71113485 0.0075340504 -0.80830765 0.18499349
0.037339 -0.39265525 0.0677286 -0.57546574 0.49176785 0.23564138 -0.016669525 -0.67866623
-0.4811221 -0.12505968 -0.56860185 -0.09983639 0.6174359 0.52087104 -0.0895302 0.09712223
-0.56594944 -0.2136046 -0.37303892 0.012240633 0.5444913 0.1570179 -0.40925407 -0.78271204
-0.44174284 0.30849713 0.3542139 0.044462934 -0.3927353 0.24162853 -0.6585913 -0.05307558
0.49924067 0.25847086 0.1196151 -0.15629497 0.109673075 0.46523637 0.30885497 -0.38550752
0.39864704 0.037007656 0.2101602 -0.1662144 0.16548921 0.5116927 0.35214072 -0.40072563
0.041069113 0.35726464 0.10147296 -0.10803793 0.09975706 -0.40914437 0.36559066 0.19685332
-0.49031645 0.36361685 -0.20486352 -0.531536 -0.6943278 -0.3356416 0.7668896 -0.7675721
-0.17684509 -0.59313214 -0.5562683 -0.5901069 0.20475124 -0.15352957 0.04885655 -0.3494203
0.101095825 0.34758618 0.12213351 0.1564516 -0.04468879 -0.3131599 -0.023875115 -0.31581146
-0.42666215 -0.6137984 0.38383916 0.22001716 -0.3734002 0.10722708 -0.11884019 0.16858795
0.345414 -0.48266158 -0.20878392 0.2690421 -0.17299493 -0.02207769 -0.3059376 0.13794711
-0.049579527 0.3359677 -0.14157142 0.13050224 -0.26161706 -0.48468646 0.16512367 0.044360436
-0.18695578 0.36620504 0.41348723 -0.20110981 0.028750094 -0.25574064 -0.15788507 -0.16957177
-0.1665635 0.38163477 0.10321869 -0.09284193 -0.05876989 -0.029769327 0.15412632 -0.044239115
0.65005714 -1.1474348 0.47277617 0.51564497 -0.40218383 0.43156132 0.09606891 0.044472184

layer1.bias f4 [128]
00000000: 3544 f5be 2a65 a8be cbd6 243f aeb6 dc3e
00000010: df97 e1bc 9744 513f 1f4a 953e 6729 43bd
00000020: 8a4d 50be a9da 473f 0170 033e a384 28be
00000030: 435e 103f 28fe 23be ad00 04be d31f 92be
00000040: 6f12 383e 864f b9be fe4f d93c 8e77 0c3f
00000050: 18a9 a1bd e1ac 85bc ea83 5a3f 9fde 05be
00000060: 67c8 4fbd 40a4 e43e c5af bdbe 6541 783e
00000070: fa64 ecbe cf63 c03e b0a7 243f 87c8 8fbe
00000080: 4781 093c 0ba2 3a3e 0985 513f ee5a f13e
00000090: 7929 96be c030 2cbc 857e 1d3e e105 dbbe
000000a0: 1886 6bbe 2683 16be 1e8c a7be c47e d2be
000000b0: 2c72 95be 8436 b1bd f5ec b63d 00d3 b8be
000000c0: 0187 81be bf66 eb3c e84d ce3e 42b2 80bd
000000d0: cf3a 063f fe74 393f 343a f0be e0d7 c6bb
000000e0: ea30 a13c c296 6f3f 4278 a4be 646a 433f
000000f0: bc8e 5bbc 8140 943d 298d 63be 7974 8d3d
00000100: fce7 ce3e d61a 94be 580c 783e 6e40 19be
00000110: 309c 2a3f 409c 3c3f 3e7f 723d f942 b2be
00000120: 7105 78be 339c f73a fea4 babe d609 943e
00000130: 1409 953d 9694 1b3e 41f1 103f a603 e2be
00000140: b84c d1bd 40ce ec3e b5bd 773b d0a7 90be
00000150: 4b5d 8dbe ee05 37bd 83ff 26be de8d 3b3d
00000160: 5451 8dbe 5168 053f b806 423f 26d9 c0be
00000170: 7786 d43e 6a48 07be 5ed4 b1be 6ea4 e23e
00000180: 3f69 93bc baaf b43e 722a 403e 3faf af3e
00000190: 4a1f 87be 48a5 9bbd c7a6 873d 9c77 7dbe
000001a0: c08b 95be e705 f5be c9d8 743e 484a a3be
000001b0: bb29 933c 66a8 2c3f 90fe 473d 3e5b f93c
000001c0: ec57 b73e ec62 023c 5532 c7bc e43c 24be
000001d0: e025 d6bc 987c 803d ff16 803f 350a 9abe
000001e0: dcfd 593f b4f4 d5be 953c 373e 82b5 4b3e
000001f0: 2672 a03d bf62 c5be 0c2d a53e c820 de3e
-0.479036 -0.32889682 0.6439025 0.43108124 -0.027538238 0.81745285 0.29158112 -0.047646906
-0.20342079 0.78068024 0.12835695 -0.16456847 0.5639383 -0.16014922 -0.12890883 -0.28539905
0.17975782 -0.36193484 0.026527401 0.54869926 -0.0789358 -0.016317787 0.85357535 -0.13073204
-0.050728228 0.44656563 -0.37048164 0.24243696 -0.4617079 0.37576148 0.6431837 -0.28082678
0.0083926385 0.18225877 0.8184362 0.47139686 -0.29328516 -0.01050967 0.15380295 -0.42777923
-0.23000371 -0.14698467 -0.32724088 -0.4111234 -0.2918867 -0.08652976 0.08931915 -0.3609848
-0.25298312 0.028735517 0.40293813 -0.06284 0.52433485 0.7244414 -0.46919405 -0.006068215
0.019676644 0.93589413 -0.32123 0.76334214 -0.01340073 0.07238866 -0.22221817 0.06906981
0.40411365 -0.28926724 0.24223459 -0.14965984 0.66644573 0.7367592 0.05920338 -0.3481672
-0.24220826 0.0018891155 -0.36454004 0.28913754 0.07277122 0.151934 0.56618124 -0.4414341
-0.10219711 0.46251106 0.0037802283 -0.2825303 -0.2761024 -0.04468339 -0.16308407 0.045789592
-0.2760111 0.521123 0.757915 -0.3766567 0.4150884 -0.13211218 -0.34732336 0.44266075
-0.017994521 0.3529032 0.18766192 0.3431339 -0.2639106 -0.07599884 0.06623607 -0.24752659
-0.29208183 -0.47856066 0.23910822 -0.3189261 0.017964235 0.67444456 0.048826754 0.030439015
0.35809267 0.007958155 -0.024315992 -0.16038853 -0.026141107 0.06273764 1.0007018 -0.30085912
0.85152984 -0.41788256 0.17894204 0.19893458 0.07834272 -0.385519 0.3226093 0.43384385

layer2.weight f4 [64, 128]
00000000: ce2f 263f c3f7 263f b075 743d ca78 ebbd
00000010: 7ecb 6f3f ff4c 86bd 9a61 6e3e 9dd4 2abf
00000020: 7257 7f3f dc1e cbbc bd7d 7c3e 6b54 b53e
00000030: d9d1 a4bd 59e5 633f 3faa 403f 0801 363f
00000040: 130d f83e 535a 613f 4871 4f3f 6042 01bf
00000050: 4b6e 9bbe 1446 16bf 0b29 36bd 38a7 c03e
00000060: 47d8 ca3e 852f 76be 1305 8ebf 9f3e 28bc
00000070: 3a2c 2e3f edab 7f3e 7ec1 4bbd 5562 0d3f
00000080: 71b4 d9be c096 8bbe 51a9 35bd 9198 0cbf
00000090: a0d9 923e a4af ac3d 5187 43bd 35c3 503e
000000a0: d5e4 423f f6d4 3b3e 47ba fe3e a68e 363f
000000b0: 9178 8e3f 2f05 9b3f 952f 50bf b0fc 353f
000000c0: 5c32 333f 5d38 0cbf a6d7 0fbe 27ab 283f
000000d0: d3da 2f3e cf58 b6bd ffd0 193f b200 1c3e
000000e0: 8c16 f03e f87e 77be 3e25 273f 72af 6a3a
000000f0: 69b9 ae3d eb78 bf3e d717 083f 7c4e 02bf
00000100: 71a8 2b3e cc5a 073f fb3c 9fbc feb9 a3bd
00000110: 7a83 a63d df5b 86bc b8a2 eebd 29b6 613f
00000120: a281 253f 67d6 47bf 61d7 1c3f e0fe b33e
00000130: f17f 05bf 75e8 e739 7b61 79be e114 3b3f
00000140: 7d65 1ebf b243 5e3d 3ef8 82be 0a84 6e3f
00000150: 85e1 6a3f 88ff 33bd 6b3e 9a3f bee0 923d
00000160: d85f 0d3f 77f0 c8be 2c90 a1ba ba1d 4e3f
00000170: c27c 1c3f a36b 9cbe 786c 133f ea0a d9be
00000180: d530 d5bd 3fdf 2cbe 5ac9 c63d 1c47 193e
00000190: bf2f 363f 5ea5 db3e 961c cb3d 267f 973e
000001a0: 3cc6 d63e 7b0b 1a3f a8cc d13e 4840 413f
000001b0: ec06 41be 0ac6 37bf 5207 9f3e 3796 ed3e
000001c0: 5612 7a3e 5ace 6b3d 7b38 5cbd 25e8 ba3e
000001d0: 0df9 a83e febf aabb 88c9 9ebd 4228 313f
000001e0: 102a 94bd cff6 b23e 78b2 143e 5e1e 3ebe
000001f0: b550 17bf 7deb 433f db1e 58bd 67f0 7b3e
00000200: c06e b53a baa5 81b9 60fe 823a a455 b23a
00000210: fd69 ebb8 0aff 9f3a 6cab 1bbb 52f8 483a
00000220: 2356 24ba 1c5d 8c3a ce85 3abb 4535 67ba
00000230: d77c c8ba 16d3 173a 6089 1a3a ae34 4eb9
00000240: a56a 01bb e2b5 f6ba 1000 2bbb aec2 cf37
00000250: 899c 13bb 2232 e63a fcc5 da39 2b32 05bb
00000260: 89fb 1d3b 97a6 f739 c35e 19bb b440 d739
00000270: 5ec1 3ab9 f3fe 12bb 6726 b9ba 9621 b93a
00000280: aa92 113a 6fdd d0ba 3bea 32bb 9507 f0ba
00000290: aab7 173b 19fd 353a f3dc ec39 ead1 17bb
000002a0: c70b 283a 3b6d 83ba c848 91b9 61a0 ccb9
000002b0: 258b 3dba 26be 03ba a6ec 25bb efa0 c3b9
000002c0: bd0c 87ba c2f7 e6ba f002 8839 9fd0 853a
000002d0: 8b3c 5539 b8c6 adba 54f0 e23a aec9 23bb
000002e0: 7d92 0abb 6aab cfba 4391 cd39 d910 87b9
000002f0: 8c2f 6dba f942 0bbb 24ca 65ba 967b 9dba
00000300: 529b 10bb f408 863a e992 94ba 4c4c 1cbb
00000310: 49c9 22bb 167b beba b00e f3ba 4335 a53a
00000320: edfc 1cbb 97bb 97b9 f9fb 67ba beb0 16bb
00000330: 4caa 97ba 5f07 3939 df2b 81ba 41a3 e33a
00000340: 7f44 f8ba 60fa 34bb a961 e938 a278 043b
00000350: 88bb 2b39 6dd7 02bb bbc9 24bb 5aae c2b8
00000360: 5197 5aba 3156 71bb d12e 51bb d525 023b
00000370: a550 c13a 937d b8ba 5f3e 18bb 0a32 ceba
00000380: 072f 103a 40d8 843a c95a db3a 28b5 763a
00000390: 93f5 183b 51e8 bd3a 6f71 c9b9 160a 18ba
000003a0: 28ec dfba 2bd3 19bb fe72 faba cea8 0d3a
000003b0: 189d 56ba 7fb8 13ba 395b db3a 731b d5ba
000003c0: fa36 8938 24a0 be3a 136a d1ba 75b4 5f3a
000003d0: 0c37 d8b9 881a c3ba 1342 92b8 cdf4 19bb
000003e0: 0b7f 1ebb d496 1cba 6e87 ab3a 0156 ad3a
000003f0: 3b28 a5ba 73ac 66ba bb42 8a3a 68e5 a53a
0.64916694 0.65221804 0.059682548 -0.11497648 0.9366988 -0.065576546 0.2327942 -0.6673067
0.99742806 -0.024794988 0.2465734 0.35415968 -0.08047838 0.8902183 0.75259775 0.71095324
0.48447475 0.8802845 0.8103223 -0.50491905 -0.30357584 -0.5870068 -0.044472735 0.37627578
0.39618132 -0.24041565 -1.1095299 -0.010268836 0.68036234 0.24967928 -0.049745075 0.5522817
-0.42520478 -0.2726345 -0.044350926 -0.549203 0.2868166 0.08431938 -0.04773647 0.20386966
0.7613042 0.18342957 0.49751493 0.71311414 1.1130544 1.2110957 -0.81322604 0.71088696
0.6999872 -0.54773504 -0.14047107 0.6588616 0.17173319 -0.08903658 0.6008453 0.1523464
0.46892202 -0.24169528 0.652912 0.0008952535 0.08531458 0.3739694 0.53161377 -0.5090101
0.16763474 0.5287292 -0.019438257 -0.079944596 0.08130546 -0.01640123 -0.1165213 0.8816858
0.6465093 -0.78061527 0.6126614 0.35155392 -0.5214835 0.00044232947 -0.24353592 0.73078734
-0.6187361 0.054263778 -0.2558002 0.93170226 0.91750365 -0.043944865 1.2050298 0.071717724
0.5522437 -0.3924596 -0.0012326292 0.8051411 0.61127865 -0.3055087 0.57587385 -0.4239114
-0.104097046 -0.16882037 0.097063735 0.14968532 0.71166605 0.42899603 0.09917562 0.29589194
0.41948116 0.6017377 0.40976453 0.7548871 -0.18850297 -0.7178656 0.31060272 0.46403667
0.24421057 0.05756984 -0.0537648 0.36505237 0.3300251 -0.0052108755 -0.07753283 0.69202054
-0.07234585 0.34953925 0.14521205 -0.18566272 -0.59107524 0.765312 -0.0527638 0.24603425
0.001384221 -0.00024728273 0.0009994023 0.0013605845 -0.00011225415 0.0012206745 -0.0023753298 0.0007666397
-0.0006268939 0.0010708901 -0.0028461101 -0.00088198885 -0.0015295994 0.0005791647 0.0005895104 -0.00019665316
-0.0019747403 -0.0018822516 -0.0026092567 2.4766978e-05 -0.0022523722 0.0017562548 0.0004172771 -0.0020324092
0.0024106225 0.0004723563 -0.002340243 0.00041056203 -0.00017810377 -0.0022429794 -0.0014125825 0.0014124389
0.00055531657 -0.0015935133 -0.0027300257 -0.0018312806 0.0023150244 0.00069423165 0.00045178048 -0.002316589
0.00064104464 -0.001002706 -0.0002771078 -0.00039029404 -0.0007230512 -0.0005025588 -0.0025318055 -0.00037313203
-0.0010303479 -0.0017621445 0.0002594213 0.0010209269 0.00020335817 -0.0013258075 0.0017314055 -0.0024992037
-0.0021144443 -0.0015843932 0.00039208875 -0.0002576176 -0.00090479176 -0.0021249636 -0.0008765778 -0.0012014981
-0.0022065234 0.0010226057 -0.0011335287 -0.0023849187 -0.0024839214 -0.0014532532 -0.0018543806 0.0012604374
-0.0023954466 -0.0002894073 -0.00088494975 -0.002299353 -0.0011571138 0.00017645721 -0.0009854994 0.0017367379
-0.0018941312 -0.0027615055 0.000111284964 0.0020213504 0.00016377692 -0.001996483 -0.0025144655 -9.2831164e-05
-0.0008338588 -0.0036825056 -0.0031918774 0.0019858975 0.0014748765 -0.001407551 -0.0023230535 -0.0015731466
0.00055001717 0.0010135248 0.001673543 0.00094111497 0.0023339733 0.0014488791 -0.00038422222 -0.0005799843
-0.001708393 -0.0023471813 -0.0019107757 0.0005403877 -0.0008186861 -0.0005635097 0.001673556 -0.0016258791
6.542909e-05 0.0014543575 -0.0015977047 0.0008533665 -0.00041239744 -0.0014885226 -6.97413e-05 -0.002349186
-0.002418461 -0.0005973403 0.0013086626 0.0013224484 -0.0012600491 -0.00087995006 0.0010548452 0.0012656869

layer2.bias f4 [64]
00000000: 52b3 4bbe cb3e 4aba 105a 1f3f 5564 1eba
00000010: 1063 05bd d7a0 303e c4fc 853e 4d29 3a3a
00000020: d814 0f3f e9df 1dba 8992 533e d8ad 6f3e
00000030: c424 823d fe10 a03d caf2 953d 111b 2dbe
00000040: 7e60 e9bd 368f 193f 5157 3ebd 0b7e 183f
00000050: e8b5 1fbb a11c a2bd 3075 e7bc aaf6 d73e
00000060: d7ca 80bc 16fd d6ba 1434 593b 9f30 f23d
00000070: b024 393e 795b c9bd 6875 113f 2526 4bbc
00000080: bef2 043f 571f 1abb 3369 463d d971 b6bd
00000090: ff40 18bb 5228 35bb 3577 e43e 7c1a 53bb
000000a0: 938a 58bd 94d8 d6ba 119c f9ba f92e 943d
000000b0: 4b2e 143f 7a14 793d 316b 9b3a e300 483e
000000c0: 1ccf 76bd b952 bcba 04ac 163e 00d5 c6bd
000000d0: e643 193f d024 2bbe 6e55 043e c3f5 fd3d
000000e0: 26c5 1e3f 740b cc3e be28 da3c 1a2c 763e
000000f0: 24a0 183f cc1a 0f3f d7f2 deba ad95 f73c
-0.19892624 -0.00077150454 0.622468 -0.00060421723 -0.032565176 0.17248856 0.26169407 0.0007101491
0.5589118 -0.000602244 0.20661367 0.2340616 0.06354669 0.07815741 0.07321699 -0.16904856
-0.113953575 0.5998415 -0.04646999 0.59567326 -0.00243699 -0.07915617 -0.028254122 0.42180377
-0.015721722 -0.001640233 0.0033142613 0.1182568 0.18080401 -0.098319 0.5681977 -0.012399231
0.51932895 -0.0023517215 0.04844017 -0.089084335 -0.00232321 -0.002764244 0.44622198 -0.003221183
-0.05286653 -0.001639145 -0.0019043704 0.07235522 0.5788314 0.060810544 0.0011857507 0.19531588
-0.06025611 -0.0014367915 0.14714056 -0.09708595 0.5986923 -0.16713262 0.12923214 0.12400391
0.62019575 0.39852488 0.026630756 0.24040261 0.59619355 0.55900264 -0.0017009628 0.030222738

layer3.weight f4 [4, 64]
00000000: 2f53 22bf e4fe 4eb8 bd71 903f aa6d 473b
00000010: c5e8 97bf 041c 723f 1c1f a4bf 212c 643a
00000020: 6dfe 5f3f bbfa d13a 00fd dc3f 2e24 1bbf
00000030: 66b6 77bf b9d3 3cbf 5b54 a6bf fca0 b73d
00000040: 0a8c 03bf e832 423f cfce e6bc ec46 853f
00000050: 4033 6cba 4b3a 5dbf 5b24 83bf de89 f43f
00000060: 4c0d 44bb 2bb3 e839 1929 21bf 9dfc 97bf
00000070: 0cca d83f c4ef 3abf 23a2 893f 3ce5 4539
00000080: 419b 843f d1b5 eb3b 43f4 c8bf 30fa ecbe
00000090: acb5 9aba 607f a23a 6dd2 a73f b56d c0ba
000000a0: 3f7e 91be d9a8 f23a 3b15 a03a 8139 bb3f
000000b0: 99d6 933f cbd1 5bbf 5b40 dabf 0d95 97bf
000000c0: e5ca 1abf 5894 133b dc65 5ebf 1c85 6dbf
000000d0: 152a 813f 351c 3abf cf6a 8abf 114f 1dbf
000000e0: 015c 8f3f d454 fdbf 19db 76bf 9bce cabf
000000f0: 3e7e 8f3f 7f78 843f 5f8c 9cba e8c7 88bf
00000100: 7f10 91bf 1d86 703b 767f 8f3f 37e1 d9ba
00000110: 4684 0abf e502 143f c9f0 77bf 342c 55bb
00000120: e5ce 633f 84fa 15bb 652d c93f 6710 d5bf
00000130: 3c21 86bf 6629 44bf f4c7 9bbf 1061 973f
00000140: 394b 5e3f 0889 5b3f 91f0 a2bd 1cac 773f
00000150: f19b 623a cac1 cbbf 6104 5fbf 793e d43f
00000160: e579 143a a704 9339 ba4c f23e 9888 94bf
00000170: 8e89 f83f 6232 77bf a145 803f 5820 9c3a
00000180: 4b6b 953f ac4a 0ebc 90d3 bcbf d960 27be
00000190: 9909 5dba df1f 0fbb dd2c 943f 72e4 cb39
000001a0: d591 78bf 1194 063b 3706 ddba da99 9f3f
000001b0: a7be 903f 1487 2fbf 368c 38bf 9823 bcbf
000001c0: 6dcf 4dbf fa5f c539 0be7 2ebf 16b6 19bf
000001d0: f927 783f 820f a4bf d88d 99bf dffe c2be
000001e0: 8a7c 8e3f 3fa8 e7bf 5079 5bbf cbe9 c2bf
000001f0: 8e96 9d3f 242a 9c3f d67b 2abb 7d4d 92bf
00000200: dc22 80bf 9ac7 d039 cd19 8f3f 8e7a 8d3a
00000210: 3f92 b3bf a9aa 77bf efa9 b0bf 8e54 9f3a
00000220: 0e03 813f 1350 c6b9 dfd3 c53f 9bbd 2dbf
00000230: 335b 99bf 973b 643f e440 a0bf 477d 81bf
00000240: 6e6e d63f 0b7e 6f3f 7281 9fbd ad43 833f
00000250: 4110 433b bf32 eebe 7cf5 44bf a976 ab3f
00000260: d763 633c 8e2c 25bb 026e b83f 93e4 71bf
00000270: 6d9f d93f 3eba 95bf 4b13 8b3f 7281 ed3b
00000280: 23e5 333f d03a 3dbb d690 a7bf 371c b83f
00000290: 14b4 413a e463 c039 9529 9a3f d06b 203a
000002a0: 5096 b0bf e406 03bb 34b7 b2ba fc72 aa3f
000002b0: 05b4 9b3f 45cc a7bf a818 85bf 71bb 8bbf
000002c0: de83 5ebf 8166 2a39 b3a4 28bf bee8 81bf
000002d0: 809d 853f b5ce 89bf fd2f 62bf fe2d 5bbf
000002e0: 1493 933f 01f7 0fc0 cc32 aebf 31b0 ddbf
000002f0: e45f b43f f256 913f 8605 c538 6880 7fbf
00000300: f16e e2be 5e6b aa3a 5bef 993f db41 633a
00000310: 1687 5cbf bde3 f03f 72dc debf 5263 86bb
00000320: 54c6 333f 38ed 5c3a 0931 9e3f a9d4 aebe
00000330: 27e1 6fbf f9e1 8bbf e883 79bf a00b 82bf
00000340: af29 6abe dc18 6d3e 2564 753d b47b 663f
00000350: 583e 083b 9059 803e aadf 5fbf c6d5 0440
00000360: ef96 2dbb b03a 443b e8f1 95bf 51a9 9dbf
00000370: 67fa eb3f ac63 31bf 8d2a 953f 5490 fdba
00000380: dc7f 933f 423b b7bb 859d 70bf 84e9 c43e
00000390: 1413 78b9 14d3 f039 6ea6 de3f e4cb c93a
000003a0: dbe9 453e 0cee 4838 6c73 a0bb d7ab 923f
000003b0: 7342 b13f 60e3 56bf e2f7 70bf 1793 88bf
000003c0: e924 30bf 2c5e 903a c7cc 32bf 29a8 5dbf
000003d0: 692c 653f 3b8c dfbe e1e5 a8bf 1307 85bf
000003e0: a229 9c3f 7fac 1ac0 e183 6fbf f98c aabf
000003f0: 1ed5 aa3f b9f0 913f 35a6 7039 3720 78bf
-0.6340818 -4.9351613e-05 1.128471 0.0030430355 -1.1867911 0.94574 -1.2821994 0.00087040855
0.874976 0.0016020158 1.726471 -0.6060208 -0.9676269 -0.73760563 -1.2994493 0.08966252
-0.5138556 0.75858927 -0.028174786 1.0412269 -0.00090103224 -0.86417073 -1.024547 1.9104574
-0.0029915152 0.0004438398 -0.62953335 -1.1873966 1.693666 -0.73022103 1.0752605 0.0001887278
1.035988 0.007193305 -1.5699543 -0.46284628 -0.001180341 0.001239758 1.3111092 -0.0014681133
-0.2841663 0.0018513455 0.0012213358 1.4626924 1.1549865 -0.85866994 -1.705089 -1.1842362
-0.6046584 0.002251884 -0.86874175 -0.92781234 1.0090967 -0.7269929 -1.0813845 -0.6144877
1.1199952 -1.9791512 -0.96428066 -1.5844301 1.1210401 1.0349272 -0.0011943689 -1.0686007
-1.1333159 0.0036701031 1.1210773 -0.0016622905 -0.54108083 0.57816917 -0.96851784 -0.0032527568
0.8898757 -0.0022884915 1.5716978 -1.6645631 -1.0478892 -0.7662567 -1.2170396 1.1826496
0.8683353 0.8575597 -0.07956041 0.96746993 0.0008644453 -1.5918515 -0.87116057 1.6581565
0.00056639157 0.0002804149 0.47324163 -1.1604185 1.9416978 -0.96561253 1.0021249 0.0011911495
1.1673368 -0.008684795 -1.4752064 -0.16345538 -0.0008431911 -0.0021839065 1.1576191 0.00038889382
-0.9709752 0.0020535032 -0.0016862814 1.2468827 1.1308182 -0.6856549 -0.72088945 -1.4698362
-0.8039463 0.00037646276 -0.68321294 -0.60043466 0.96935993 -1.2817233 -1.1996412 -0.38085076
1.1131756 -1.809822 -0.85731983 -1.5227598 1.2311571 1.220036 -0.0026013753 -1.1429898
-1.0010638 0.00039821566 1.1179749 0.001079397 -1.4029006 -0.9674478 -1.380186 0.0012155937
1.0079057 -0.00037825163 1.5455283 -0.6786744 -1.1980957 0.89153427 -1.2519803 -1.0116357
1.675245 0.935517 -0.077883616 1.0255028 0.0029764327 -0.4652309 -0.7693708 1.3395587
0.013878784 -0.0025203559 1.4408572 -0.944894 1.7001778 -1.1697462 1.0865263 0.007248097
0.7027151 -0.0028874166 -1.3091075 1.438361 0.00073891995 0.00036695518 1.204394 0.0006119581
-1.3795872 -0.001999312 -0.0013634921 1.331634 1.2164313 -1.3109213 -1.039815 -1.0916578
-0.86919963 0.00016250649 -0.6587631 -1.0149152 1.043869 -1.0766207 -0.88354474 -0.85617054
1.152926 -2.249451 -1.3609252 -1.7319394 1.4091763 1.1354659 9.394721e-05 -0.9980531
-0.44225267 0.0013001969 1.202617 0.0008669176 -0.86143625 1.88195 -1.7411025 -0.0041011954
0.702245 0.00084276823 1.2358714 -0.34146622 -0.9370293 -1.0928336 -0.974669 -1.0159798
-0.22867464 0.23154014 0.05990996 0.90032506 0.0020789113 0.2506833 -0.8745066 2.0755477
-0.0026487669 0.0029942207 -1.1714449 -1.2317296 1.8435792 -0.6929271 1.165361 -0.0019345381
1.1523395 -0.005591781 -0.93990356 0.38459408 -0.0002365823 0.00045933633 1.739454 0.0015395847
0.1932749 4.7905414e-05 -0.004896572 1.1458691 1.3848404 -0.83940697 -0.9412824 -1.0669888
-0.6880632 0.0011014394 -0.69843715 -0.8658472 0.8952089 -0.43661675 -1.3195153 -1.0392784
1.2200205 -2.4167783 -0.93560606 -1.3324271 1.3346288 1.1401588 0.000229501 -0.96924156

layer3.bias f4 [4]
00000000: f51e d33e 03d3 e83e cd53 1d3f a5e9 19be
0.41234556 0.4547349 0.61455995 -0.15030535
