Exported_models/Soft_update_0.999_4_2000.pth (torch, 41119 bytes, 6 tensors)

layer1.weight f4 [128, 8]
0.15365858 -3.2547922 -0.013421675 -0.40856373 0.27193058 -0.0009283196 -0.008271278 0.017649207
-0.1806705 -1.3497053 -0.011870922 0.42659456 0.30586085 0.3981039 0.03395846 -0.40653157
-0.15458557 -0.76783717 -0.18483385 -0.49641448 0.26398483 -0.055537764 -0.0707533 -0.0681544
-0.9419809 -0.044715784 -0.05011942 0.11523221 0.11750744 -0.09392097 -0.17758735 -0.22639114
0.49956438 -1.0824519 0.027854118 -0.75063306 0.2363807 -0.064413786 -0.5183138 0.00261929
0.03505352 0.121445075 0.35697055 0.07172424 1.1806425 0.14089023 -0.20530924 -0.34791225
-0.12189553 -0.350396 0.20560408 -0.5134604 -0.018463943 0.018493235 -0.52237135 0.11541575
0.13876688 0.42291367 -0.20563771 -0.51242375 -0.1024237 -0.007421948 0.22733338 0.1577532
-0.4591428 -0.56405854 0.22982958 -0.39972332 -0.5413867 0.052553438 0.08513796 -0.45825052
0.9321305 -0.5457701 0.20666395 0.001577205 0.7133958 0.15642738 -0.11877625 0.027726682
-0.096216775 -0.38341156 -0.41598025 -0.5351991 0.17106138 -0.3829238 -0.5118599 -0.44717675
-0.28259954 0.09290393 -0.08625391 0.20610346 0.4304109 0.4542992 -0.3222345 -0.56171966
-0.42397425 0.30405575 -0.009423947 0.1853709 -0.13448583 -0.15954982 -0.0140904775 0.40958503
-0.33567518 -0.087244734 -0.27221042 0.06601374 -0.15176508 -0.22735141 -0.17753369 -0.29843533
-0.1962178 0.34874257 -1.0895435 0.116985746 0.59798294 -0.058836464 0.032235112 -0.29142115
0.0358172 -0.2834386 0.10704196 -0.19831595 0.4015723 0.1327876 -0.25783765 -0.31175414
-0.018224284 0.47055158 -0.10209088 -0.56636316 -0.060127117 -0.13583785 -0.07304719 0.15022276
-0.08514328 0.22914888 -0.094727434 0.021350754 -0.25109848 -0.38587782 -0.08623782 0.00016547261
0.20223573 0.056796756 0.4724369 1.2554698 0.30422503 0.44140163 0.22956635 0.2239117
0.053829625 -0.13129082 -0.3790761 -0.3487348 0.42399162 0.36050454 -0.062368996 -0.28740916
-0.74546516 -0.05074998 0.46139917 -0.2608264 0.58865786 0.28753254 0.15831393 0.25819933
-0.04387181 0.0884447 -0.06772363 -0.09545152 -1.3392365 -0.09785852 0.030889438 -0.5771425
-0.5696157 -0.71377957 0.007207253 -0.66405934 -0.18541162 -0.07761272 -0.56515217 0.12757875
0.4142887 -0.09188244 0.21926561 -0.48059213 -0.7955224 -0.18767513 -0.033789523 -0.09552769
-0.06027815 0.41633815 0.23900196 -0.3789089 0.029713446 -0.30460295 -0.068955 0.17932573
0.113094136 -0.9036409 0.28687403 0.18847248 0.2553532 -0.5139546 0.058143165 0.122022755
0.07888832 0.024268985 0.6455115 0.9062002 0.08162081 -0.03870842 -0.56094027 -0.042609073
-0.38570872 -0.15212049 0.14071207 -0.17010021 0.1513092 -0.052574594 -0.27558577 -0.30090952
-0.3224809 -0.3737987 -0.3836506 -0.37346077 0.71909 0.48621306 0.014607895 -0.32488304
0.07668958 -0.57514685 -0.061305113 -0.13945332 0.1190074 0.024933938 -0.26891994 -0.2534554
0.5482926 -0.43944448 0.10278728 -0.6019243 -0.76665896 -0.14796767 0.06125571 -0.2654339
0.10823706 -0.44897336 0.40244016 -0.23340552 -0.27807757 0.11464098 0.1392497 0.13972996
00000000: ad58 1d3e 844e 50c0 96e6 5bbc 442f d1be
00000010: 7c3a 8b3e 795a 73ba 4184 07bc 1295 903c
00000020: b001 39be 25c3 acbf 417e 42bc 9a6a da3e
00000030: cb99 9c3e 46d4 cb3e 0718 0b3d e824 d0be
00000040: ae4b 1ebe fa90 44bf 1645 3dbe 0a2a febe
00000050: 0529 873e 917b 63bd 1be7 90bd 8994 8bbd
00000060: a925 71bf e627 37bd 054a 4dbd ddfe eb3d
00000070: bea7 f03d a359 c0bd 75d9 35be 14d3 67be
00000080: e7c6 ff3e c98d 8abf 522e e43c 7d29 40bf
00000090: c80d 723e 60eb 83bd 37b0 04bf 65a8 2b3b
000000a0: 4894 0f3d 32b8 f83d d8c4 b63e 29e4 923d
000000b0: 4b1f 973f 8745 103e 963c 52be 8e21 b2be
000000c0: 5da4 f9bd 1b67 b3be e089 523e 2472 03bf
000000d0: b241 97bc 207f 973c 21ba 05bf 185f ec3d
000000e0: e818 0e3e 2488 d83e b192 52be 342e 03bf
000000f0: 84c3 d1bd d033 f3bb 15ca 683e 0e8a 213e
00000100: c414 ebbe 2466 10bf 7258 6b3e 89a8 ccbe
00000110: 5298 0abf 4642 573d d05c ae3d d09f eabe
00000120: 1ba0 6e3f 97b7 0bbf b79f 533e 38ba ce3a
00000130: 1ba1 363f 802e 203e f640 f3bd 1123 e33c
00000140: 4d0d c5bd 854e c4be 5dfb d4be cf02 09bf
00000150: b72a 2f3e 970e c4be 4009 03bf 5af4 e4be
00000160: e3b0 90be 6a44 be3d e4a5 b0bd c90c 533e
00000170: d15e dc3e e899 e83e ecfb a4be dccc 0fbf
00000180: 2713 d9be 32ad 9b3e e666 1abc dfd1 3d3e
00000190: a7b6 09be 0761 23be bfdb 66bc 21b5 d13e
000001a0: 9edd abbe 5ead b2bd 2a5f 8bbe 3632 873d
000001b0: 4e68 1bbe cfce 68be 64cb 35be 84cc 98be
000001c0: 52ed 48be 638e b23e 2976 8bbf 3996 ef3d
000001d0: 6915 193f 81fe 70bd f708 043d 2735 95be
000001e0: 0eb5 123d dd1e 91be d138 db3d 5613 4bbe
000001f0: e29a cd3e 79f9 073e 4c03 84be 3d9e 9fbe
00000200: 184b 95bc 23ec f03e 0615 d1bd 2dfd 10bf
00000210: da47 76bd 1419 0bbe c499 95bd ffd3 193e
00000220: 9a5f aebd 01a6 6a3e 7500 c2bd c7e7 ae3c
00000230: fb8f 80be c791 c5be 749d b0bd b782 2d39
00000240: e216 4f3e b7a3 683d 40e3 f13e 3cb3 a03f
00000250: 62c3 9b3e 65ff e13e 7113 6b3e 1c49 653e
00000260: 747c 5c3d 1a71 06be 4316 c2be 5e8d b2be
00000270: 6e15 d93e 0d94 b83e a276 7fbd 4b27 93be
00000280: ced6 3ebf 36df 4fbd 833c ec3e 0a8b 85be
00000290: 48b2 163f 7737 933e 0c1d 223e b432 843e
000002a0: edb2 33bd 7f22 b53d b0b2 8abd 167c c3bd
000002b0: 1a6c abbf 0c6a c8bd d90b fd3c 9cbf 13bf
000002c0: 56d2 11bf 42ba 36bf d22a ec3b cbff 29bf
000002d0: 8bdc 3dbe 6bf3 9ebd d0ad 10bf 01a4 023e
000002e0: a61d d43e dc2c bcbd 2a87 603e 2c10 f6be
000002f0: 5ba7 4bbf e92d 40be e266 0abd 06a4 c3bd
00000300: 39e6 76bd 462a d53e eebc 743e 5900 c2be
00000310: 9d69 f33c ebf4 9bbe 4738 8dbd 2aa1 373e
00000320: e69d e73d 0355 67bf 27e1 923e eefe 403e
00000330: a8bd 823e 8792 03bf 8727 6e3d 11e7 f93d
00000340: 3390 a13d c0cf c63c 3e40 253f bcfc 673f
00000350: d028 a73d b88c 1ebd c899 0fbf da86 2ebd
00000360: 9d7b c5be 79c5 1bbe d316 103e c02e 2ebe
00000370: cdf0 1a3e 7558 57bd 9419 8dbe d010 9abe
00000380: 371c a5be 8b62 bfbe da6d c4be 4036 bfbe
00000390: 4816 383f ebf0 f83e f455 6f3c 1257 a6be
000003a0: 6d0f 9d3d d33c 13bf 121b 7bbd dacc 0ebe
000003b0: 27ba f33d 4242 cc3c e0af 89be e8c4 81be
000003c0: e75c 0c3f defe e0be 2382 d23d b617 1abf
000003d0: c343 44bf d684 17be 44e7 7a3d f4e6 87be
000003e0: 64ab dd3d d6df e5be a30c ce3e db01 6fbe
000003f0: 2f60 8ebe e4c8 ea3d 7997 0e3e 5f15 0f3e

layer1.bias f4 [128]
-0.04417745 0.2636045 0.43132773 0.108049735 -0.08716954 -0.15146488 0.2837141 0.3859472
-0.08616507 0.027672222 -0.08638369 0.14891838 -0.22562146 -0.20076348 0.09129827 -0.40545762
0.38523757 0.6055513 -0.022314778 -0.24405241 0.105757095 -0.1310264 0.24196713 -0.41955972
0.068971224 0.043532167 -0.0070726816 0.2239051 -0.101216815 0.49457625 -0.27982128 0.70783275
-0.069186576 -0.0793342 0.1290007 -0.12172248 0.14816734 -0.31360257 -0.16283938 -0.020164775
-0.07326533 0.16795166 0.071739584 0.33047977 -0.1231387 0.28092468 -0.10265923 0.6098367
0.03493196 -0.13961451 0.09852652 -0.4999585 0.20317744 0.5170746 0.13378884 -0.11279582
-0.2651058 -0.19290166 0.17039225 -0.22264004 0.89720684 0.21363427 -0.15591995 -0.22369231
-0.23469748 0.36185503 -0.16653831 -0.07899354 0.56579196 -0.1114118 -0.2508727 0.20963976
0.6480129 -0.18379165 -0.10955473 -0.205943 -0.5660543 0.11900745 0.00046153902 -0.24139898
-0.044514216 0.6075182 0.524183 0.53049326 0.06764378 0.39794677 -0.14552343 -0.13695504
-0.16394983 -0.21507402 -0.073468946 -0.20476152 0.060596008 -0.19420458 -0.14718692 0.19251382
-0.18518338 0.39175013 -0.2354258 -0.12683453 -0.17106429 -0.2049346 0.09187751 -0.1252127
-0.023235008 -0.06398192 -0.49214026 -0.17542297 -0.10161614 -0.018872527 -0.052272603 -0.11832381
-0.0019417084 0.46696028 -0.0055267294 0.3308203 -0.18820027 -0.021400247 0.10784169 0.46204215
0.09915663 -0.12535234 0.07095099 0.4498771 0.59373033 0.20762637 0.4308859 -0.028084412
00000000: 6af3 34bd 2bf7 863e fdd6 dc3e 2e49 dd3d
00000010: f285 b2bd 9c19 1bbe f942 913e df9a c53e
00000020: 5077 b0bd dbb0 e23c efe9 b0bd 0f7e 183e
00000030: 5009 67be f194 4dbe 96fa ba3d 2498 cfbe
00000040: dc3d c53e 6905 1b3f 7bcd b6bc e0e8 79be
00000050: 2d97 d83d c92b 06be 3bc6 773e 88d0 d6be
00000060: c940 8d3d c94e 323d f4c1 e7bb 6147 653e
00000070: c34a cfbd 1939 fd3e bc44 8fbe 8734 353f
00000080: b1b1 8dbd f879 a2bd c218 043e a349 f9bd
00000090: 2eb9 173e 8490 a0be 5ebf 26be 9930 a5bc
000000a0: 220c 96bd 85fb 2b3e 34ec 923d a534 a93e
000000b0: 2530 fcbd 5cd5 8f3e 013f d2bd 421e 1c3f
000000c0: d114 0f3d 1bf7 0ebe 46c8 c93d 8ffa ffbe
000000d0: bf0d 503e 005f 043f f1ff 083e 7f01 e7bd
000000e0: f3bb 87be 0388 45be 4e7b 2e3e c0fb 63be
000000f0: 59af 653f f1c2 5a3e 7ba9 1fbe 990f 65be
00000100: 8954 70be 1045 b93e 0589 2abe 5dc7 a1bd
00000110: bed7 103f df2b e4bd 6372 80be ceab 563e
00000120: 2ce4 253f e133 3cbe 3b5e e0bd b9e2 52be
00000130: efe8 10bf 2eba f33d b8fa f139 4b31 77be
00000140: 8a54 36bd 5086 1b3f db30 063f 68ce 073f
00000150: d288 8a3d aebf cb3e 1804 15be f13d 0cbe
00000160: 77e2 27be 5d3c 5cbe e376 96bd 01ad 51be
00000170: 8533 783d 91dd 46be 2bb8 16be 5822 453e
00000180: b6a0 3dbe 7993 c83e 7613 71be e9e0 01be
00000190: 7a2b 2fbe 60da 51be 472a bc3d c237 00be
000001a0: 5857 bebc f408 83bd cff9 fbbe 14a2 33be
000001b0: 1f1c d0bd 8f9a 9abc cc1b 56bd c153 f2bd
000001c0: ec80 feba 6b15 ef3e 9119 b5bb 4761 a93e
000001d0: 92b7 40be 924f afbc 1bdc dc3d ca90 ec3e
000001e0: a212 cb3d 5d5c 00be c14e 913d 4b56 e63e
000001f0: b6fe 173f 029c 543e 149d dc3e 4811 e6bc

layer2.weight f4 [64, 128]
1.2761298 -0.73218125 -0.24021398 0.19671722 0.48896512 -1.1785811 0.17373401 0.049699463
0.39310884 0.2665177 -0.04229891 0.19660957 -0.72757846 -0.6280508 0.22834657 0.118616775
0.11028172 0.1316292 -1.421827 0.6670677 -0.42446935 -0.54602194 -0.44049925 0.40164706
0.058851734 -0.72790635 -0.64393926 0.2040469 0.5354285 -0.24669391 0.5667505 0.17492916
-0.56016666 0.5196333 0.10453776 0.0010135508 0.42490605 0.18670169 0.73184025 0.5576621
-1.123883 -0.92970425 0.21837766 0.15101133 0.5513554 0.18089217 0.5139939 0.20222142
-0.3190964 -0.08645084 0.10848285 0.57001257 0.16069637 0.122687556 0.4993194 0.34196705
-0.56795496 1.0862992 0.23165362 0.11242449 0.20879152 0.05826456 0.19973755 0.49761382
0.45793357 0.06989324 0.4272205 -0.13172175 0.12619048 0.48994476 -0.7256204 0.08309201
0.18260643 0.57209736 0.45450643 0.17800775 0.35797167 0.21885185 0.15982923 0.47775906
0.3079718 0.11669147 0.06549209 -1.0680205 0.035775285 -0.061589617 -0.62062323 0.47621688
0.19677137 0.49016532 0.60399324 0.30897412 0.20531107 0.029251484 0.26287046 0.15040609
0.18421705 0.13970158 -1.1153966 -0.45561713 0.7327843 0.49761802 0.03792897 0.37852043
0.0656588 0.3990381 0.6283608 0.23309027 -0.029247606 0.41156447 0.29080877 0.708298
-0.7177749 0.095826685 -0.72688514 0.010043821 0.2576238 -1.0990595 0.094562195 0.08361576
0.10006368 -0.26955363 -0.8541483 -0.56904554 0.13556927 0.17656115 -0.041260123 -0.6285404
1.1480745 -0.6722349 -0.32161832 0.004458733 0.6668567 -0.94463766 0.14869931 0.057918455
0.5529198 -0.08646856 -0.017403726 -0.11856862 -0.28763592 -0.31548816 0.09932119 -0.27058527
0.12800099 0.1518362 -0.69698113 0.49249953 -0.44840518 -0.5636766 -0.5693054 0.7438698
0.09816811 -0.58146185 -0.72207814 0.117151886 0.44113758 -0.31407896 0.7867773 0.245317
-0.55687255 0.6947768 0.25128505 -0.05790441 0.26938727 0.2717427 1.0196145 0.42186555
-0.9757052 -0.44044864 0.34469032 0.3361457 0.81443465 0.16614375 0.62754035 0.23783834
-0.15487936 -0.12478532 0.12793277 0.8417114 0.1386271 0.15614212 0.40239438 0.89472747
-0.799985 1.0886453 0.14568754 0.397727 0.14463034 0.16800685 -0.15611432 0.7058389
0.09353767 0.13082981 0.61449933 -0.19774553 0.10352305 0.44314423 -0.53061175 0.053219773
0.22203854 0.88594764 0.38795617 0.506856 0.3390542 0.11586379 0.15283597 0.092471585
0.0647189 0.0512991 0.051937208 -0.52324426 -0.17428322 0.044927068 -0.23464705 0.5113005
-0.020187188 0.7116434 0.843179 -0.0627378 0.35351646 -0.004632112 0.26841515 0.18212394
-0.009994192 0.12180579 -0.59012944 0.19920401 0.7859933 0.69162476 0.030602846 0.42640468
0.028395617 0.36748832 0.8811757 0.37808725 0.010709094 0.2359349 0.07137674 0.80088204
-0.45717278 0.11497869 -1.3390621 -0.06583791 0.09034148 -1.0882314 0.23693563 0.069694564
0.16772221 -0.25139007 -0.81243616 -0.8584195 0.14687067 0.2728073 -0.14345337 -0.6641136
00000000: 3958 a33f 3b70 3bbf a7fa 75be 3d70 493e
00000010: a359 fa3e bfdb 96bf 54e7 313e aa91 4b3d
00000020: 9045 c93e 0275 883e 9f41 2dbd 0554 493e
00000030: 9542 3abf f0c7 20bf afd3 693e 5aed f23d
00000040: 62db e13d cec9 063e 6dfe b5bf f3c4 2a3f
00000050: 0c54 d9be 18c8 0bbf 1e89 e1be afa4 cd3e
00000060: 840e 713d 1258 3abf 34d9 24bf acf1 503e
00000070: d811 093f 549d 7cbe 9016 113f a120 333e
00000080: 1567 0fbf b006 053f e517 d63d 1fd9 843a
00000090: 498d d93e ba2e 3f3e e259 3b3f f2c2 0e3f
000000a0: 66db 8fbf 1901 6ebf 659e 5f3e b7a2 1a3e
000000b0: a125 0d3f cc3b 393e 1b95 033f 2213 4f3e
000000c0: 9a60 a3be 230d b1bd 422c de3d 58ec 113f
000000d0: 978d 243e 9d43 fb3d cba6 ff3e 4e16 af3e
000000e0: 7f65 11bf da0b 8b3f 9b36 6d3e d03e e63d
000000f0: 72cd 553e d2a6 6e3d 0088 4c3e 3dc7 fe3e
00000100: 4576 ea3e 3024 8f3d a5bc da3e 11e2 06be
00000110: 1438 013e 0ada fa3e 42c2 39bf 252c aa3d
00000120: 2efd 3a3e f974 123f 11b5 e83e aa47 363e
00000130: 1048 b73e b31a 603e 46aa 233e d69c f43e
00000140: 7bae 9d3e f0fb ee3d b820 863d e5b4 88bf
00000150: 1b89 123d 6545 7cbd 2ae1 1ebf b3d2 f33e
00000160: 6f7e 493e f3f6 fa3e 4d9f 1a3f db31 9e3e
00000170: 113d 523e cfa0 ef3c f596 863e 0e04 1a3e
00000180: 65a3 3c3e ee0d 0f3e 51c5 8ebf a646 e9be
00000190: c097 3b3f cac7 fe3e 685b 1b3d 6ecd c13e
000001a0: 1f78 863d b94e cc3e 41dc 203f 37af 6e3e
000001b0: ad98 efbc 94b8 d23e e3e4 943e 0553 353f
000001c0: 19c0 37bf c840 c43d 2515 3abf d78e 243c
000001d0: 44e7 833e fbad 8cbf d3a9 c13d bd3e ab3d
000001e0: 30ee cc3d ef02 8abe 77a9 5abf f8ac 11bf
000001f0: acd2 0a3e 72cc 343e 6000 29bd 06e8 20bf
00000200: 1bf4 923f 9617 2cbf 28ab a4be 901a 923b
00000210: 1fb7 2a3f c6d3 71bf a244 183e e73b 6d3d
00000220: 278c 0d3f 6e16 b1bd 4292 8ebc 1bd4 f2bd
00000230: 0445 93be aa87 a1be e868 cb3d 278a 8abe
00000240: b112 033e f37a 1b3e 5b6d 32bf e628 fc3e
00000250: 5d95 e5be 1c4d 10bf 00be 11bf 406e 3e3f
00000260: 5d0c c93d afda 14bf 1dda 38bf 54ed ef3d
00000270: c9dc e13e f5ce a0be 3d6a 493f 6134 7b3e
00000280: 338f 0ebf e4dc 313f 6fa8 803e 2d2d 6dbd
00000290: 21ed 893e dc21 8b3e ba82 823f c3fe d73e
000002a0: d1c7 79bf 7c82 e1be 407b b03e 4a1b ac3e
000002b0: ca7e 503f 9621 2a3e 7ca6 203f e58b 733e
000002c0: b298 1ebe 728f ffbd cf00 033e 667a 573f
000002d0: 43f4 0d3e b8e3 1f3e a306 ce3e dc0c 653f
000002e0: d1cb 4cbf bb58 8b3f 1d2f 153e e0a2 cb3e
000002f0: fa19 143e fd09 2c3e 6fdc 1fbe dcb1 343f
00000300: ae90 bf3d 40f8 053e d44f 1d3f ce7d 4abe
00000310: e503 d43d cde3 e23e 2cd6 07bf fafc 593d
00000320: 125e 633e 77cd 623f 31a2 c63e 51c1 013f
00000330: 8398 ad3e ff49 ed3d 0881 1c3e be61 bd3d
00000340: 588b 843d 011f 523d 1cbc 543d 56f3 05bf
00000350: 4d77 32be 7205 383d 5147 70be 97e4 023f
00000360: 9a5f a5bc 432e 363f 94da 573f ad7c 80bd
00000370: 1c00 b53e f9c8 97bb b66d 893e b37e 3a3e
00000380: aebe 23bc 5075 f93d b912 17bf 23fc 4b3e
00000390: db36 493f 520e 313f d2b2 fa3c b751 da3e
000003a0: ed9d e83c 6e27 bc3e bb94 613f a794 c13e
000003b0: 3275 2f3c eb98 713e f82d 923d 9b06 4d3f
000003c0: 8d12 eabe f379 eb3d 6366 abbf 07d6 86bd
000003d0: f404 b93d 2b4b 8bbf 419f 723e 06bc 8e3d
000003e0: 5fbf 2b3e 33b6 80be d1fb 4fbf 61c1 5bbf
000003f0: 4465 163e 66ad 8b3e 71e5 12be 5903 2abf

layer2.bias f4 [64]
0.10686767 0.10988388 0.12896834 0.34860447 -0.005535642 0.21808188 0.09650012 0.14207207
0.14690715 0.39273039 0.12587307 0.4740489 -0.021406833 0.2652477 -0.0076253717 -0.012124282
-0.011525843 0.13175794 0.13283825 0.0044753626 -0.009885121 0.34355175 0.48690033 0.42626566
0.37085366 -0.008826816 0.36553976 -0.0065108594 0.2325904 0.39429566 0.2078516 0.10788866
0.35626847 -0.010667177 0.18802592 0.23594552 0.15140846 0.13357183 0.14792293 -0.26383755
0.06051902 0.17175262 0.088244006 -0.045163292 0.20411019 -0.008118655 -0.029625122 0.1609996
0.23245992 0.10900562 0.156245 -0.011921845 0.61727655 0.16587272 0.52227676 0.17699671
0.28818497 -0.022027774 0.13756865 0.3053434 -0.20186241 0.3476004 0.21595152 0.047469832
00000000: 70dd da3d cd0a e13d 4710 043e 497c b23e
00000010: 5564 b5bb db50 5f3e dba1 c53d 577b 113e
00000020: d46e 163e f513 c93e dfe4 003e 8ab6 f23e
00000030: 625d afbc 8cce 873e 41de f9bb eda4 46bc
00000040: e4d6 3cbc 8eeb 063e c006 083e 10a6 923b
00000050: 34f5 21bc 04e6 af3e 004b f93e 7e3f da3e
00000060: 88e0 bd3e 5a9e 10bc 0728 bb3e 0c59 d5bb
00000070: 2e2c 6e3e 1fe1 c93e 0dd7 543e bbf4 dc3d
00000080: d268 b63e 62c5 2ebc de89 403e b49b 713e
00000090: d20a 1b3e 0ec7 083e 1c79 173e b715 87be
000000a0: cbe2 773d ebdf 2f3e 46b9 b43d 25fd 38bd
000000b0: 4302 513e 1b04 05bc 62b0 f2bc 14dd 243e
000000c0: f909 6e3e 573e df3d b0fe 1f3e d853 43bc
000000d0: d605 1e3f 8ada 293e eeb3 053f a03e 353e
000000e0: fb8c 933e 9773 b4bc ccde 0c3e f855 9c3e
000000f0: 05b5 4ebe aef8 b13e 6522 5d3e ba6f 423d

layer3.weight f4 [4, 64]
-0.6949779 -1.0089184 -0.85347795 1.1469356 -0.0043279063 1.2622641 -0.78079444 -0.67539513
0.51168513 1.4153085 -0.82553 1.1988388 -0.011843688 -1.1574786 0.008048014 -0.00046029588
-0.0036437018 -0.77996224 -0.74265766 -0.0083454605 -0.005414284 0.89916396 1.3647921 1.1147676
1.0077652 0.005139539 1.6255718 0.0066380156 -0.54655725 0.9614322 -0.23850046 -0.8138601
0.6494696 0.0021688193 1.071072 1.3020393 -0.79830676 -0.79964834 -1.0217419 0.6236744
1.3641928 0.40416974 -0.7662226 -0.016483549 -0.9027547 -0.0029644936 -0.0064333654 -1.3129674
-0.8368636 -0.7872867 -0.8793081 -0.012485012 1.251518 -0.7719214 1.296181 -1.1375676
-0.5359269 -0.0058488054 1.1885649 -1.6573533 -0.6238971 -0.28539836 -1.4004123 1.0757043
-0.7229829 -0.30918658 -0.7991269 1.1198695 -0.010881105 1.2861936 -0.81016064 -0.9112123
0.9821876 1.3947058 -0.6450363 1.1261147 0.007867683 -1.1483991 0.006677692 -0.0063168723
-0.0072788815 -0.8512795 -0.8601388 -0.005379232 0.018537527 0.816773 1.3890232 1.1172501
1.0206337 -0.011025169 1.7807437 -0.0036046754 -0.31907612 1.048151 -0.54181397 -0.27786478
0.18389098 -0.007350478 1.0583726 1.2600405 -0.84398353 -0.89133877 -0.9752396 0.090209864
1.0128803 0.53406537 -0.7620633 -0.023720533 -0.77369004 -0.004025126 -0.018353516 -1.4077982
-1.3229947 -0.9251331 -1.0302885 -0.0018068623 1.2384243 -1.2078819 1.2632853 -1.1215774
-1.2040808 0.0007483614 1.2900944 -1.5297718 -0.21475336 -0.13032626 -1.6604458 1.0733956
-0.73534924 -0.5744309 -0.74141634 1.3009615 0.0075477506 1.1289995 -0.63336587 -0.56962913
0.85079205 1.3243802 -0.5712189 1.111157 0.0058031767 -1.8502067 0.0004684749 0.0030893555
0.0017909701 -0.5382192 -0.56972235 -0.0012880124 0.008009501 1.2100906 0.858512 1.0637001
1.1353813 0.00674689 1.7116493 -0.007201951 -0.8185967 1.1018795 -0.7680356 -0.5036327
0.90231526 0.0023763804 1.9012849 1.1352192 -0.79142416 -0.5734825 -0.4924026 -0.72217417
1.4098042 1.1391999 -0.6181281 -0.00014777217 -0.64422596 0.0008187417 -0.007167535 -0.6845618
-0.8836809 -0.6172998 -0.5508199 -0.009232772 0.61657923 -0.6132222 0.9900953 -0.2630369
-1.3352697 0.0045199622 0.98724085 -1.6102213 -1.0109894 -1.4323595 -0.7645066 1.46511
-0.77272373 -1.0277029 -0.7712978 1.0825903 0.010719326 1.0430748 -0.85710293 -0.8239205
0.24344864 1.3741503 -0.964912 1.0912904 -0.0021345415 -0.6187474 0.008401973 0.009404937
-0.00051392993 -0.867662 -0.8273842 0.009819044 0.007860212 1.0296472 1.6027658 1.139292
1.0882511 -0.011701423 1.5296283 0.0061112223 -1.1173487 1.0309857 -0.59857684 -1.2448678
0.71676606 0.002631921 1.3172848 1.0263957 -0.591044 -0.65278715 -0.85175365 0.87502694
1.2652076 0.50585544 -0.8649637 -0.009283626 -0.7375759 0.00499562 -0.0036734927 -1.0322101
-0.59302527 -0.7797746 -0.76314455 -0.0049825665 1.2967411 -0.5820672 1.2200346 -1.2305993
-0.24078587 0.006800643 1.4923639 -1.871642 0.5699272 -0.9147276 -0.6552617 1.0855805
00000000: 12ea 31bf 3d24 81bf 887d 5abf c9ce 923f
00000010: 1cd1 8dbb df91 a13f 25e2 47bf b2e6 2cbf
00000020: ccfd 023f d428 b53f ef55 53bf 8d73 993f
00000030: 070c 42bc 4228 94bf d1db 033c de53 f1b9
00000040: 2ccb 6ebb 9bab 47bf d01e 3ebf 66bb 08bc
00000050: 4e6a b1bb 9c2f 663f 82b1 ae3f b4b0 8e3f
00000060: 73fe 803f 9469 a83b bd12 d03f b683 d93b
00000070: 2deb 0bbf 6c20 763f 7739 74be 2359 50bf
00000080: a443 263f c022 0e3b e318 893f 39a9 a63f
00000090: d55d 4cbf c1b5 4cbf 70c8 82bf 20a9 1f3f
000000a0: df9d ae3f 56ef ce3e 2a27 44bf 8208 87bc
000000b0: ef1a 67bf f347 42bb fbce d2bb 510f a8bf
000000c0: b13c 56bf 9f8b 49bf 561a 61bf f08d 4cbc
000000d0: be31 a03f a49c 45bf 42e9 a53f d19b 91bf
000000e0: 8132 09bf 56a7 bfbb e522 983f 2724 d4bf
000000f0: b8b7 1fbf bc1f 92be b640 b3bf aeb0 893f
00000100: 6815 39bf b44d 9ebe 9593 4cbf e257 8f3f
00000110: aa46 32bc fea1 a43f b066 4fbf 3645 69bf
00000120: a670 7b3f b885 b23f 1921 25bf 8724 903f
00000130: 74e7 003c befe 92bf 8ad0 da3b c4fd cebb
00000140: af83 eebb 74ed 59bf 0e32 5cbf 4544 b0bb
00000150: 03dc 973c 0918 513f 83cb b13f 0d02 8f3f
00000160: 20a4 823f e9a2 34bc 69ef e33f 6b3c 6cbb
00000170: f25d a3be d029 863f 52b4 0abf 4b44 8ebe
00000180: eb4d 3c3e 47dc f0bb c178 873f 0249 a13f
00000190: 4e0f 58bf c72e 64bf 4da9 79bf f3bf b83d
000001a0: 10a6 813f 82b8 083f 9516 43bf 9051 c2bc
000001b0: 8d10 46bf 34e5 83bb 1d5a 96bc bb32 b4bf
000001c0: e457 a9bf 86d5 6cbf 7ee0 83bf 3dd4 ecba
000001d0: b084 9e3f e09b 9abf 55b3 a13f d98f 8fbf
000001e0: 521f 9abf af2d 443a d021 a53f 90cf c3bf
000001f0: 4ee8 5bbe 3f74 05be 7d89 d4bf 0765 893f
00000200: d93f 3cbf e70d 13bf 76cd 3dbf e885 a63f
00000210: 1f53 f73b 0e83 903f 4424 22bf 37d3 11bf
00000220: 82cd 593f 4a85 a93f 673b 12bf 643a 8e3f
00000230: 9328 be3b 93d3 ecbf a39d f539 c976 4a3b
00000240: fcbe ea3a bcc8 09bf 53d9 11bf 86d2 a8ba
00000250: 483a 033c 40e4 9a3f 71c7 5b3f 5327 883f
00000260: 2d54 913f 0415 dd3b 5317 db3f 58fe ebbb
00000270: 8e8f 51bf 630a 8d3f fb9d 44bf 13ee 00bf
00000280: 22fe 663f 0cbd 1b3b 4e5d f33f dd4e 913f
00000290: c69a 4abf c0cf 12bf 321c fcbe 68e0 38bf
000002a0: 7774 b43f 4dd1 913f a53d 1ebf 4af3 1ab9
000002b0: feeb 24bf d3a0 563a a4dd eabb 713f 2fbf
000002c0: e938 62bf 5c07 1ebf 8802 0dbf 0d45 17bc
000002d0: 23d8 1d3f 21fc 1cbf e376 7d3f c6ac 86be
000002e0: 1eea aabf 311c 943b d1bb 7c3f bb1b cebf
000002f0: 1a68 81bf 8e57 b7bf b4b6 43bf b988 bb3f
00000300: 39d1 45bf c58b 83bf c673 45bf 5292 8a3f
00000310: 1da0 2f3c 7a83 853f 196b 5bbf 74ec 52bf
00000320: 9a4a 793e 28e4 af3f 7904 77bf 67af 8b3f
00000330: aae3 0bbb 3b66 1ebf 6ea8 093c 2a17 1a3c
00000340: 41b9 06ba 191f 5ebf 73cf 53bf 0ee0 203c
00000350: 1ec8 003c 7bcb 833f 6e27 cd3f 52d4 913f
00000360: d04b 8b3f 53b7 3fbc dcca c33f a640 c83b
00000370: 4805 8fbf 57f7 833f 553c 19bf d457 9fbf
00000380: fb7d 373f 4f7c 2c3b ca9c a83f ef60 833f
00000390: a94e 17bf 0f1d 27bf 870c 5abf c401 603f
000003a0: 53f2 a13f be7f 013f 436e 5dbf 5a1a 18bc
000003b0: c6d1 3cbf 4cb2 a33b fbbe 70bb 761f 84bf
000003c0: 81d0 17bf 4f9f 47bf 715d 43bf cc44 a3bb
000003d0: 9dfb a53f 5b02 15bf 182a 9c3f 4784 9dbf
000003e0: 9290 76be eed7 de3b c805 bf3f f791 efbf
000003f0: c0e6 113f 972b 6abf 3bbf 27bf 4df4 8a3f

layer3.bias f4 [4]
0.68226457 0.20326403 -0.45085588 0.060016554
00000000: e4a8 2e3f 7224 503e 95d6 e6be ebd3 753d
